ppo/logs/final_td_policy.pth (torch, 51668 bytes, 10 tensors)

fc1.weight f4 [64, 24]
00000000: 5fef 89bd cb1f 183e 3cbb 24be 0abd 1a3e
00000010: fb6b 493e 8d35 323e c042 363e f811 573e
00000020: 77d3 f1bd 667f 7fbd bd24 563e 4621 90bd
00000030: f938 393e dd4f c6bd baf7 47be 67f3 5ebd
00000040: d98a 433d f0d8 4dbd 1f19 e03d 4746 53bd
00000050: 63e4 f6bd 3b23 11be 0fdf 91bd 1ee3 f4bd
00000060: d841 a53c 2f52 13be d6e4 3f3e d5be 253d
00000070: 571c 893d cd4f 213e aa6a 85bd 1edb 88bd
00000080: 80bf a3bd 0557 c5bd 1e88 2b3e de44 f13d
00000090: b6e3 6f3c affb 1d3c 5fcf 5fbd 4340 a43c
000000a0: 8b41 5a3e cb49 dd3d 661f 3a3e bc11 9dbc
000000b0: 2d0f 87bd 65fe adbd b086 fa3b f9df c2bd
000000c0: 1299 abbb fa64 62bd 171e 4ebe 3d54 b83d
000000d0: bb5b 86bd 676e 923d 2a4d ccbd 44ce d7bd
000000e0: a477 70bd d026 5bbd b712 63bd 0cb6 8dbd
000000f0: df2d 3dbe d965 a83d 9034 4cbe 4401 b2bd
00000100: a118 053e b50b 743d 4e0c 153e 65f4 9abc
00000110: 9ce8 643d 7ced a5bd 9a11 883b 97e9 2abe
00000120: dd3d 41bd efaa d2bd 953b 3f3e 1c40 bc3d
00000130: c12c 523e 6316 253d 70c2 463e 1fe0 59be
00000140: f225 4f3e c8af d8bd afa7 5a3e dc73 3dbe
00000150: 8ffd 0f3e 7fa1 2dbd e743 1bbe 1bff 6e3c
00000160: 43d2 3c3e 429f 3e3e 6232 7bbc b3b4 413c
00000170: 7181 313d b599 473e 8c27 5bbd 1290 38bd
00000180: 5c98 81bc 939a 683e ef33 18be 2827 6e3e
00000190: c1fb 57bd c1d4 0e3e 96c3 13be e1ff 563e
000001a0: fd11 313e 6a79 93bd 4508 063c f05e 053e
000001b0: f1e3 1a3e dc3e 80bc fbb9 c4bb b200 9e3e
000001c0: ec8a 193e d80a 19bd 62f2 13bd 08b8 823d
000001d0: 85f1 cfbc d897 1abe 7e9c 0a3e 6044 17bd
000001e0: f454 44bc 33f2 a9bd 8a79 abbd a878 d3bd
000001f0: 81ad e43d 9138 033d 45e8 f8bd 9bf1 1b3e
00000200: e365 b93d 3424 10be d0f7 a9bd aa9a 0fbe
00000210: 8f92 b5bc e3b5 a43d 5827 013e 40dd 76bd
00000220: a910 533e be54 16be 0176 633e 03d2 94be
00000230: a773 923d f773 0a3e f661 77bc 5335 2dbc
00000240: 9f31 1bbe 5f20 323e 0fcc d13d b5c2 4a3e
00000250: 7b56 5c3d 8eee 4f3e 4976 5e3e 21a6 363e
00000260: a9aa f03d 4a03 23be 3846 ccbd af28 5d3e
00000270: 743b 0a3e bc0c 33be 5dfb 6abd f31d 893e
00000280: e098 f73d 3dd0 bd3d 85b8 023e 3b6f c13d
00000290: c971 c8bd 1ced 13be 0443 1e3e e99c 3b3e
000002a0: 7f33 4fbd 4f56 133e 643f 99bd 18bb 79bc
000002b0: 8b16 523e 5a02 4a3e c3b2 593e 8ee9 00be
000002c0: 9cdb 0f3e 8c65 1b3d 44dd 2e3c 596d ff3d
000002d0: dcf6 7dbd e913 6f3e 0db1 65bd 38c1 5ebd
000002e0: 3b79 e5bc 2f90 723e 5397 433e fc92 bebc
000002f0: e54d ca3d 3fb7 29bc 49ad 64bd 24a1 f7bb
00000300: 01f4 72bd 7c08 59be 2a3d 6f3e 6807 48bd
00000310: 53b6 e4bc 28ab 15be 92b0 d53d d86c acba
00000320: 7592 093e 66af e63d 3ba9 00be 4b21 613d
00000330: 4bba fe3d 55bf 533e 1c53 d03d a615 1f3d
00000340: 5412 363e a3d9 d93d 3a40 4cbd 806a 71be
00000350: faef 6a3d ea22 6bbd c5cf b33c db99 ec3c
00000360: 1df8 ffbd 83fd 103e 352e 3a3e 3e77 0b3e
00000370: b54f 523d 9fe6 41bd a543 f0bd 432c 2e3e
00000380: adc4 443e 47fa c6bd 04ce 3e3c 434c d63d
00000390: ed92 913b 47b5 ddbd 5567 bebb 4b61 973e
000003a0: 2b92 6e3d 7346 153e 3643 6e3d 55e2 05bd
000003b0: b584 19be e2bb dcbd 0131 463d 2c96 183e
000003c0: 25db eebd 1948 3ebd 375c 75bd 0c41 003e
000003d0: 4717 4e3d 6d68 5a3e a617 9f3c 1132 283c
000003e0: 5af7 593e 8658 f8bd 56cf c3bd 854c 183e
000003f0: 209a ee3d bcec 503b d306 eebc a46b 6d3e
-0.067351095 0.14855878 -0.16087049 0.15111175 0.19670098 0.1740324 0.177989 0.21002948
-0.11807912 -0.062377356 0.20912452 -0.070375964 0.1808814 -0.096832015 -0.19528094 -0.054431345
0.047739837 -0.050255716 0.109422915 -0.051580694 -0.1205528 -0.14173596 -0.07122623 -0.11957382
0.020172998 -0.1438682 0.18739638 0.040465195 0.066948585 0.15753098 -0.06514485 -0.06682418
-0.0799551 -0.09635738 0.16751143 0.117807135 0.014641693 0.009642526 -0.054641124 0.020050174
0.21314065 0.108050905 0.1817604 -0.019173495 -0.065946914 -0.084957875 0.0076454505 -0.09515376
-0.0052367533 -0.05527208 -0.20128666 0.09000442 -0.06560465 0.07149964 -0.099756554 -0.10537389
-0.05870785 -0.05350381 -0.05543777 -0.06919488 -0.1847453 0.08222551 -0.19941926 -0.08691648
0.12997676 0.059581477 0.14555475 -0.018915365 0.055885896 -0.08101937 0.004152489 -0.1669067
-0.047178138 -0.10286509 0.18675072 0.091919154 0.20524885 0.040304553 0.1941011 -0.21276902
0.20229319 -0.105804026 0.21353029 -0.18501228 0.14061569 -0.042390343 -0.15162621 0.014587189
0.18439583 0.1861544 -0.015331836 0.011822867 0.043336336 0.19492228 -0.05350451 -0.04505927
-0.01581972 0.22715215 -0.14863561 0.23257124 -0.052730326 0.13948347 -0.14430079 0.20996048
0.17292018 -0.07200892 0.008180683 0.13024497 0.15126015 -0.015654974 -0.006003616 0.30859905
0.149944 -0.037363857 -0.036119826 0.063827574 -0.02538372 -0.15096986 0.1353626 -0.03693044
-0.011983145 -0.08298149 -0.08372791 -0.10325748 0.11165906 0.032036368 -0.12153677 0.15228884
0.090526365 -0.1407631 -0.082992196 -0.14023843 -0.022164611 0.08042505 0.12612665 -0.060269594
0.20611824 -0.14680764 0.22212984 -0.29066476 0.07150965 0.135208 -0.015099039 -0.0105717955
-0.15155648 0.17395161 0.10243999 0.19800837 0.05379341 0.20305845 0.2172481 0.1783681
0.11751301 -0.15919223 -0.09974331 0.21597551 0.13499242 -0.17485327 -0.057368625 0.26780662
0.120897055 0.09268234 0.12765701 0.09445044 -0.09787328 -0.14445919 0.15455252 0.18321575
-0.05058622 0.14388393 -0.07482794 -0.0152423605 0.20516412 0.1972746 0.21259598 -0.12589094
0.14048618 0.03793864 0.010672871 0.12472028 -0.062003 0.23347439 -0.056077052 -0.054383487
-0.028011909 0.23687814 0.19100694 -0.023263447 0.098781385 -0.010358631 -0.05582932 -0.0075570513
-0.05931473 -0.21194643 0.23363176 -0.04883519 -0.02791897 -0.14616072 0.10434069 -0.0013154997
0.13434775 0.11263923 -0.12564556 0.05496339 0.12437876 0.20678456 0.10172102 0.038839005
0.17780429 0.10637214 -0.04986594 -0.23575783 0.057357766 -0.057406344 0.021949658 0.028881958
-0.12498496 0.14159207 0.18181689 0.13619706 0.051345546 -0.047339078 -0.11731652 0.17009072
0.19215651 -0.09715705 0.011645798 0.104637645 0.0044425637 -0.108255915 -0.005810658 0.29566416
0.058244865 0.14577655 0.058169566 -0.03268655 -0.1499203 -0.10778023 0.048386578 0.14901036
-0.11662892 -0.046455476 -0.059902396 0.12524813 0.050315168 0.21328898 0.019420456 0.010265843
0.21285763 -0.121262595 -0.095610306 0.1487294 0.11650491 0.0031879386 -0.029055988 0.23185593

fc1.bias f4 [64]
00000000: 31ce d93c 47fc 5c3e 4bbf 30be 26c1 d5bd
00000010: 0159 d8bc b86e 1f3e 304e a2bd 5518 2f3e
00000020: 57a5 4fbd 4337 24bd efce 8b3a 30f7 053c
00000030: 0380 5abc 7f02 55be a36b 933d 5ae0 3fbe
00000040: e2ae ed3d 29a0 823a 1851 2b3e 033d 843d
00000050: 5f95 133e 16ec 85bc 0fd4 a7bd 8ffd f33d
00000060: 777c 0dbe 7269 153e db43 1dbe 3569 fc3d
00000070: ead8 06be fd37 f5bc 3020 fbbd f6e3 153e
00000080: 267e b63d 5295 4b3d 9024 283e 17f4 573e
00000090: d468 d7bd 2657 f93d ebb2 593d 10a0 a43d
000000a0: 2648 88bd a86c 3a3e 8733 893d 3a61 f4bd
000000b0: 6a39 c8bb cf79 13be 9130 07be 01b5 81bd
000000c0: e71c fbbd 1626 263d cd25 1ebe d3fe 45bd
000000d0: c411 7e3d 8b4f e23d 64cf 24be 5a87 1abe
000000e0: 3805 573d f2a6 253e 57c9 503e a486 103d
000000f0: ba5c 0ebe 4270 30be f451 12be 90ec 6c3e
0.026587578 0.21580611 -0.17260472 -0.10437231 -0.026409628 0.1556958 -0.07925069 0.17099126
-0.05069479 -0.040091764 0.0010666529 0.00817661 -0.013336184 -0.20801733 0.071982644 -0.18737927
0.11605622 0.0009965944 0.16730154 0.064569496 0.1441245 -0.016347926 -0.08194744 0.11913597
-0.13817011 0.14591005 -0.15357916 0.12324754 -0.13168684 -0.029933924 -0.12261999 0.14637741
0.0891078 0.04970295 0.16420197 0.21089207 -0.10518041 0.12174825 0.053149145 0.08038342
-0.06654386 0.18205512 0.06699281 -0.11932607 -0.00611036 -0.14401935 -0.1320212 -0.06333352
-0.12261372 0.040563665 -0.15444107 -0.048338722 0.06202866 0.11050328 -0.16094738 -0.15090695
0.05249521 0.16176966 0.20389305 0.035284653 -0.1390256 -0.17230323 -0.14289075 0.23137116

fc2.weight f4 [64, 64]
00000000: 5c60 c03d 756a 8f3c e355 93bd 8911 bf3d
00000010: bafc 6cbe 92df 2ebc ab60 01be f758 c33d
00000020: 8e7f 7bbd 9fbe a9bd 5cc8 2cbe 3ea6 873d
00000030: 1e33 803c 680b fc3c b527 ec3d cd0b eb3d
00000040: 5072 c63d 1f07 64bd 6686 8a3d 78e0 8c3d
00000050: 36a2 f03d de1c 83be 5529 933d 6a39 1bbe
00000060: 16f8 6c3c 6253 813c 44c4 2c3e 430c 9b3c
00000070: 1cac a3bd ec66 833d 9fb2 243d 5cc1 edbc
00000080: 3c38 303e 083b fb3d 0141 0c3e 5965 0cbb
00000090: e37b 63be e4b5 31bd 0583 5e3c 626f 153d
000000a0: 90a0 933c 4fa4 1b3e f64f 223e 96ee a43d
000000b0: 3bba 233b 6c0a 25bd c079 a03c ef96 f5bd
000000c0: 3a52 0abe 317b 0ebd efe3 4cbd 32fb 8f3c
000000d0: b3e1 473d 31bd b4bd 4912 1d3e 00fc 4d3d
000000e0: 40b6 79bd 552e a73d 7878 a7bb 3c5b f7bd
000000f0: c054 8abd 5ff1 db3d 6c46 05be 4566 133c
00000100: 394c 6e39 c769 fd3d e9d1 3fbd f5d0 cf3d
00000110: af45 8d3c a843 9c3d 1a8c c4bd 1611 053e
00000120: 11bb f73c 7c54 42bd 26c8 11be 113e 9b3d
00000130: ce4e 113e c955 ad3d 2cd9 a13d a417 cabd
00000140: 59b1 5fbc 1ae4 5abb 51bf b43d 9f88 263e
00000150: bd59 223d 0a7c 36bd f8f0 c63d 17a8 c83a
00000160: 4fdb e13c 4866 963d 0b35 a03d 2448 b13d
00000170: 288a ea3d 087d 9bbc 39cf 70bd 8593 073e
00000180: 60bc d83d 4801 16bc aa39 153e 0515 c83d
00000190: b3db e83c 042c 33bd 5d05 d13d 1f53 e33d
000001a0: 1a83 db3d 4fc7 0a3e c304 0f3d d31e 9a3c
000001b0: e2a8 3fbd b208 db3d abe3 bebb a7f7 4a3d
000001c0: f63f 0dbe 9985 073e 49e1 22bd 4833 c2bb
000001d0: 638a f03d d5e7 363c eaa2 523c 08e3 79bd
000001e0: fee1 c33d 774a d53d 18b2 ae3c 3433 8ebd
000001f0: b626 47bc 5cee af3d f94c 0e3b 9e99 acbc
00000200: 18a8 e3bd ad15 fb3c e211 903d bcdc 233d
00000210: e7f4 783a f873 ab3d 90f7 f1bd 94d1 7ebd
00000220: 2d4a b03c 7ef4 ae3d e657 a6bd 5152 bcbd
00000230: eb40 04be c6ab d83d 7500 afbb fa05 b1bd
00000240: 3b9e eebd 9004 d2bc 0a18 6e3d c9ae e03d
00000250: 781c 6bbd 3744 403c c09a a93d 3773 c4bc
00000260: 84ce f43d ba91 81bd c01d 21bc fcc5 d6bb
00000270: 20e4 0fbd 76ab c4bd 00da 9c39 6fbf d0bc
00000280: 05b9 a0bd bda8 2f3d fcee a63d 4ecc e53c
00000290: f02d 48bb e5e6 92bc a8ed 343c 4187 52bd
000002a0: 9403 53bd a8e6 a7bd d8e1 283d 9fbb d6bb
000002b0: d0da f6bc 363f bd3d 6e0b 2fbd 74d2 cbbd
000002c0: 8bae 0bbc 9707 bd3d f0a7 f23c 1228 dfbd
000002d0: 08c1 d5bd ea45 aebd 55a9 f2bb 6a98 afbd
000002e0: 104e 583b f78a d73c 5bf3 28bd 16fe 08be
000002f0: f2a9 a33d ab46 d2bd a8b2 7c3d 7d38 f93c
00000300: 579a 09bd 9954 bbbd a509 6f3d 8981 56bd
00000310: fe14 babc 7f43 bfbc 9d34 ba3c f874 7fbd
00000320: dde8 013d 1048 a4bd 94a8 873d 9804 03be
00000330: f373 273d 6023 a0bc aa45 6bbc d9b9 a13d
00000340: fc12 f1bd 26dd 853c 5a46 293d 1440 803d
00000350: 048f 503d 871b 353d d2bf bdbc da91 9fbd
00000360: ac58 25bd f400 763d 6b97 003b cc24 e5bd
00000370: 8401 e0bd d45b 9a3d 65bc 0abc 80ba f8bd
00000380: 4b92 ec3b 656a 623c 2be3 973d 0a4f ddbd
00000390: f746 2a3d 8f5c 013b 6fff 773c 9054 ce3d
000003a0: 3eb1 87bd ff86 e13d d73f 8abd e089 c13d
000003b0: 347e a8bd 9ab1 ba3d 8f20 03be a80a 2b3d
000003c0: 54da 08be 377f fbbc c890 dcbd 63c4 00be
000003d0: ec91 5b3d d1d1 973d 1da4 193d 887c 17bd
000003e0: d357 b3bd 5368 ca3d a084 8f3d ab06 403d
000003f0: f0dc c0bc 418c b5bd ee34 8c3d b11a d6bd
0.09393379 0.017506817 -0.07194116 0.093295164 -0.23143283 -0.0106734205 -0.12634532 0.09538453
-0.061400943 -0.08288311 -0.16873306 0.06623505 0.015649375 0.030767158 0.11531011 0.1147686
0.09689772 -0.055670854 0.06763916 0.068787515 0.11749689 -0.2560796 0.07185618 -0.1515862
0.014463445 0.01578683 0.16871744 0.018926745 -0.07991812 0.06416115 0.04020941 -0.029022865
0.17208952 0.12267119 0.13696672 -0.0021422713 -0.22215228 -0.043386355 0.013581042 0.036483176
0.018020898 0.15199398 0.15850815 0.08053319 0.0024982828 -0.040293142 0.019589305 -0.11991679
-0.1350793 -0.034785453 -0.050022062 0.017575834 0.048799228 -0.08825148 0.15339006 0.050289154
-0.060964823 0.08163134 -0.0051107965 -0.120779485 -0.06754446 0.10739397 -0.13015145 0.008996551
0.00022725844 0.12373691 -0.046831045 0.10147277 0.017245142 0.07630092 -0.09597035 0.12994799
0.030240567 -0.04744385 -0.14236507 0.075801976 0.14190218 0.08463628 0.079027504 -0.0986779
-0.013653123 -0.003340012 0.08825553 0.16263054 0.039636362 -0.044551887 0.0971393 0.0015308884
0.027570395 0.07343727 0.07822617 0.08656338 0.114521325 -0.018980518 -0.058791373 0.13239868
0.10582805 -0.009155579 0.14572778 0.09769634 0.028425073 -0.04374315 0.10206101 0.110998385
0.10718365 0.13552593 0.03491665 0.018813526 -0.04679192 0.10695018 -0.00582548 0.049552586
-0.1379393 0.13234557 -0.03976563 -0.0059265234 0.11745145 0.0111636715 0.012856225 -0.06100753
0.09564589 0.10414594 0.021325156 -0.0694336 -0.0121552255 0.08590385 0.002171336 -0.021069344
-0.11116046 0.030649984 0.07034661 0.04000543 0.00094969425 0.08371729 -0.11814797 -0.062211588
0.021519745 0.08542727 -0.08122234 -0.09195388 -0.12915389 0.10579638 -0.0053406307 -0.08643718
-0.11651274 -0.025636941 0.058128394 0.109708376 -0.057400197 0.011735014 0.08281469 -0.02398072
0.11953452 -0.06326623 -0.009833753 -0.0065543633 -0.035129666 -0.09603016 0.0002991706 -0.025481908
-0.0784779 0.04288553 0.081510514 0.028051522 -0.003054496 -0.017932365 0.01104299 -0.05139852
-0.051517084 -0.08198291 0.041231006 -0.006553128 -0.030133635 0.09240572 -0.04273551 -0.0995225
-0.008525501 0.09229963 0.029621094 -0.10896315 -0.104372084 -0.08509429 -0.00740544 -0.085739926
0.0033005513 0.02631138 -0.041247707 -0.13378176 0.07991399 -0.10267385 0.061693817 0.030422444
-0.033594456 -0.09146995 0.058358807 -0.052369628 -0.022715088 -0.023347614 0.022730166 -0.06236741
0.031716216 -0.08021557 0.066239506 -0.12794721 0.040882062 -0.019548118 -0.014359871 0.07896776
-0.11771199 0.016340803 0.041326858 0.06262222 0.05091764 0.044215705 -0.023162756 -0.07791491
-0.040367767 0.060059503 0.0019621502 -0.11188659 -0.10937789 0.07537046 -0.008467768 -0.12144947
0.007219588 0.013819312 0.07416376 -0.10806091 0.041571584 0.0019739007 0.015136584 0.10074723
-0.06625603 0.110120766 -0.06750458 0.09450126 -0.08227196 0.09115906 -0.12805389 0.04175821
-0.13364536 -0.03070031 -0.10769802 -0.12574916 0.05360596 0.07413066 0.037510026 -0.036983997
-0.087569855 0.098831795 0.07007718 0.04688136 -0.023542851 -0.08864642 0.06846033 -0.1045431

fc2.bias f4 [64]
00000000: 9925 6dbd 238a 5d3d 1082 203c 7ecc 81bd
00000010: 2475 c8bc 1e77 2d3d 9494 bf3c 9a70 97bd
00000020: 0e65 9dbd 29dd aebd 627f 573d f6e6 d8bc
00000030: b0ca 5ebd 40ab 47bd ed1c a33d d53e 0b3e
00000040: ced7 df3c b811 0d3e c4ac 91bd e414 79bd
00000050: bc76 59bd 80b1 113c 0ecb 8e3c 093c f93d
00000060: d1f9 2ebd 9dd3 643d d386 e23d 9e14 0d3c
00000070: 67af d1bc a9c8 ce3d 04ae f7bd 2cba 2d3d
00000080: a8ea 4b3d ba8c 3fbd 9056 323d 278a 053e
00000090: e530 d2bc 1030 c13d 5848 6f3d bbfa b13d
000000a0: f17d 703d f55d 0abe 7ab6 1ebd 8c4c 733d
000000b0: 1c4b b53c 29c0 853d 07eb a9bc 5a14 ba3d
000000c0: c951 983d a923 1b3c e680 b3bc f8b8 ca3d
000000d0: 709a a23c e68c c63d 9797 0abd 2f84 213d
000000e0: 51d3 513d 2ef5 1dbc 0b58 8b3c 2095 60bc
000000f0: f9b7 b03d a9b1 a5bd b588 193d e7ed bd3d
-0.057897184 0.054086816 0.009796634 -0.06337832 -0.02446992 0.042349927 0.023386277 -0.07394524
-0.0768529 -0.08538277 0.052611716 -0.026477318 -0.054392517 -0.0487473 0.079645015 0.13598187
0.027324583 0.1377629 -0.071130306 -0.06081094 -0.05309175 0.008892417 0.017430808 0.12169654
-0.042718712 0.055865873 0.11060872 0.008610873 -0.025596334 0.10096867 -0.12093738 0.042413875
0.049784333 -0.046765067 0.043539584 0.13040982 -0.02565808 0.09432995 0.0584186 0.08690401
0.058713857 -0.13512404 -0.038748242 0.059399173 0.022130542 0.06530792 -0.020741953 0.09085913
0.07437474 0.009468951 -0.02191205 0.09898561 0.019849032 0.09694843 -0.033835974 0.0394327
0.051226918 -0.009640975 0.017009756 -0.013707429 0.0862884 -0.080905266 0.03748389 0.09273892

mean.weight f4 [1, 64]
00000000: 28f9 383e 0183 823d b94f 93bd b486 f0bd
00000010: d268 3dbc 587f e5bd 326e 1b3d 9040 ee3c
00000020: 6b1a d5bd 600e 53bc c69c 103e 1e85 a4bc
00000030: 0241 9bbd 7009 1dbc 1b6e 08bd 57d3 293e
00000040: f3d7 143e 264c 9b3d b5da 2d3e b0d9 9f3d
00000050: 4de0 10be 8e68 babd 9609 da3e 4ef8 86bd
00000060: ec39 973e 889b 90bd fbf8 e6bd bcb0 473e
00000070: 0f1e aa3d 11a1 f13d b144 f3bc eddc 0ebd
00000080: 21af 8c3e e585 403e 03c9 903e aa62 6c3e
00000090: 951d be3d 5ee7 003e d729 d13d 33be ac3d
000000a0: 74c5 f1bc 668f 97bd e0cf eb3d d703 f3bd
000000b0: 43bc 343c e7b6 03bd 30e3 733e 17c7 03bd
000000c0: a96a 0d3e bebb bc3d 8791 00be 2fab 3e3e
000000d0: e44e 3b3e e18f 7a3e 5ee1 83bd 2db1 933e
000000e0: ec35 d43d efdd e0bd e4b0 fdbd ab11 00be
000000f0: 3d82 e9b9 a77e 523b 7e24 243e 3dec acbd
0.18063796 0.06372643 -0.0719294 -0.117444426 -0.011560636 -0.112059295 0.037946887 0.02908352
-0.104054295 -0.012881845 0.14122304 -0.020083006 -0.07580759 -0.00958477 -0.03330813 0.16584526
0.14535503 0.075828835 0.16977961 0.078051925 -0.14148064 -0.091019735 0.42585438 -0.06590329
0.29536378 -0.07060915 -0.11277958 0.19501013 0.083065145 0.11798299 -0.02969584 -0.03487866
0.27477363 0.18801077 0.2827836 0.23084512 0.09282986 0.1258826 0.102130584 0.08434715
-0.029513098 -0.07400398 0.115142584 -0.11865967 0.011031213 -0.03215685 0.23817134 -0.03217229
0.13810219 0.092154965 -0.12555514 0.18619989 0.18291813 0.24468948 -0.0643947 0.28846112
0.10361847 -0.109798305 -0.12387255 -0.1250674 -0.00044538258 0.0032118948 0.16029546 -0.084434964

fc1.weight f4 [64, 24]
00000000: 6cf4 17be 4d4a 423e 059c 333e 3431 523e
00000010: 0c74 abbd be18 943d 2d25 1b3e 0c37 53bd
00000020: 84b1 25be aa7f cebc d7c9 0cbe 2cbc 55bc
00000030: fc27 293c 97cf fe3d d00e 3a3e afc7 5a3e
00000040: 3ea1 67bd 9121 a7bb 9ec3 1cbe 2e7f 5b3d
00000050: 76fe 373d d0be 3abd 4320 703e dc8b c23e
00000060: d033 3abc 01ce 4cbe e4f6 62bd 6ec3 0fbe
00000070: 5130 13be fc6a f03d 80bd 613c aa06 a7bd
00000080: ccab 803d 4085 3abc 50db 0f3e c837 c3bd
00000090: e82c 823d 0852 e63c 90a9 b13c 0eca c5bd
000000a0: 1c2b 9bbd b6ad bbbd 2014 433e 3022 0cbd
000000b0: 84af 3abe 7066 b53d 4a1e 3cbe 1861 a6bc
000000c0: 81ef 043e 710e 073e a3eb a83d 3713 28bd
000000d0: 2825 b8bd 1f57 713d 0cef 3b3d 3f2e 25bd
000000e0: f668 613e 1d5e 4ebd a312 713e dd96 06bd
000000f0: d74c b7bb b491 933c 34b0 cb3c 85d9 2dbd
00000100: 00e2 8abd 3d54 1e3e cae4 1b3e 0f7b 493e
00000110: ea2a 46be 5abd bcbd 8e53 e93e eb0c b73e
00000120: 599f 0cbe 452b 45be d644 053e b678 e03d
00000130: c27f ee3d 53fa 19be d8d1 173d a426 2ebe
00000140: ecd9 a53d 6484 18be f4f1 39be 3f92 8a3d
00000150: b3a1 273d 35d5 493d b4b3 49be ff6b 8cbd
00000160: cc48 e3bc 59af 27bb e452 af3d 5508 e53d
00000170: b3d9 df3d f916 e1bd 2fd2 173e 175a aebd
00000180: 32bd 1bbe e736 babd a7fe a2bc f8c9 f1bd
00000190: ba5e 193e 6b6c d1bd d86d 2c3e 0d42 493e
000001a0: 6ad3 ad3d 793f ad3b 2df6 23be 97e1 1b3e
000001b0: 742a a93d 5f87 f43d a32a 53be 47b1 a5bb
000001c0: 35f9 ba3d 3fb5 023e 8225 b13d 36df b53c
000001d0: 8264 0abe 385e 00be dd3c ea3e e7af a63e
000001e0: 1281 32bc 89a7 16bb ec34 26be b0e7 bc3d
000001f0: d602 823d 0399 43be f301 22be 99ef 1f3e
00000200: b3f4 39be 345a 66bd 1952 813d fabb b13d
00000210: fbbb e4bd 17ef 72bd 4db0 81be eba9 b2be
00000220: deb2 f8bd 2d45 88be d8ce 143e c922 81be
00000230: a94f 5ebe 38ee 44be 3745 073e 8b5f 633c
00000240: 52e8 283e 0d37 68bc bf9f f63d 33f8 37be
00000250: 1759 eb3d 40d6 903d cab5 07be f8c5 673d
00000260: 9e14 413e 8647 f8bd 9b0b a53c ed77 cd3d
00000270: af79 4bbd 6b6d a9bc 181c 43be a387 0fbd
00000280: afb9 f63d 3b8d 6a3e 5815 d2bd ca15 16be
00000290: b173 833d 8b22 1dbe 09dc c43e bdc3 0d3f
000002a0: 34a0 61bc 828b 8fbe 271e 3ebd 5b24 73be
000002b0: 2378 89bd 0e45 d4bd 5fef 1c3d 673c 1a3e
000002c0: 84af 553d 8190 573b cce0 33bd af5d a9bd
000002d0: 9c11 273d c2eb 073e 9dc0 3ebe ad92 e6bd
000002e0: bf3b 9fbd 17e2 093b 47c3 b63c 5626 313d
000002f0: 312c f13d e656 9fbc 7bdf 923e 8e95 ff3e
00000300: 9c9b fa3d 5f2d 21be bcb8 ed3d d538 efbb
00000310: 0f69 c5bc e8d1 c43b 637f 1fbd b053 30be
00000320: 25cb 7e3d 52c5 463c 4bb1 283e d187 f1bd
00000330: abf5 973d 843b c0bd 68c6 173d da39 0bb9
00000340: 9d55 593d a04b 99bd 62e1 153e ea3f df3b
00000350: e6f7 48be 334a c63d a4d3 863e 312a 193f
00000360: fa0c e13a 0785 263e 0617 36be 193b e5bd
00000370: 5e88 e1bd d6a8 173d a65b 8cbb 6907 13be
00000380: 10db 3ebe dedf 67bd 47fa babd 3a2b f3bd
00000390: 2f03 d33d 9648 00be ac6a d93d 47d1 903c
000003a0: 4c86 2dbe ba30 0dbd aa2c b6bc dcf1 16bd
000003b0: 9467 b9bd 9afb 8cbd ee1f 043f e1a6 273f
000003c0: 2038 4fbd 1249 8f3d db0e 373e 2889 283e
000003d0: 2e76 d33d ffa9 19bd 4140 93bd c15e 8d3d
000003e0: 5f9f 36bd a92f f73c 0b07 fabc fa7e fdbd
000003f0: de4e 993c 3530 2d3e 86e5 c8bc 4600 10be
-0.14839333 0.18973656 0.17539985 0.20526582 -0.083717436 0.07231282 0.151509 -0.05156617
-0.16180998 -0.02520736 -0.13748871 -0.013045352 0.010324474 0.12441938 0.18169713 0.21365236
-0.056550257 -0.005100437 -0.15308997 0.053588085 0.044920407 -0.04559213 0.23449807 0.3799733
-0.011364892 -0.20000459 -0.055411234 -0.14039394 -0.143739 0.11739156 0.0137780905 -0.08155568
0.06282768 -0.011384308 0.14048505 -0.09532124 0.063562214 0.028115287 0.021687299 -0.096576795
-0.07576582 -0.09163992 0.19050646 -0.03421229 -0.18231016 0.08857429 -0.1837093 -0.02030997
0.12981988 0.13189103 0.08248069 -0.04103395 -0.08991462 0.058920976 0.04588227 -0.040327307
0.22012696 -0.050382722 0.23542266 -0.03285872 -0.005593877 0.018013813 0.024864294 -0.04244377
-0.06781387 0.15461822 0.15223995 0.1967585 -0.19352308 -0.092158034 0.4557156 0.35752043
-0.13732661 -0.19254787 0.1301454 0.10960524 0.116454616 -0.15036897 0.037065357 -0.17006928
0.08098206 -0.14894253 -0.18158704 0.067661755 0.040925693 0.049275596 -0.19697458 -0.06856536
-0.027744673 -0.0025586693 0.08560732 0.1118323 0.10930195 -0.1099071 0.14826272 -0.08513277
-0.15208891 -0.09092503 -0.019896818 -0.118061006 0.14977542 -0.10225757 0.16838777 0.19654103
0.0848759 0.0052871075 -0.16011877 0.15222774 0.082600504 0.119398825 -0.20621733 -0.0050565335
0.09129564 0.12764452 0.08649732 0.022201162 -0.13514903 -0.12535942 0.4574956 0.32556078
-0.010895031 -0.0022988042 -0.16231126 0.092238784 0.06348197 -0.19101338 -0.15821056 0.15618743
-0.18159752 -0.05623837 0.06314487 0.08678432 -0.11168667 -0.059310045 -0.2532982 -0.34895262
-0.12143491 -0.26615277 0.1453203 -0.2522185 -0.21710075 -0.19231498 0.13209997 0.01387776
0.16494873 -0.014173281 0.12042188 -0.17965774 0.11491602 0.07072115 -0.13252941 0.056585282
0.18855521 -0.12123017 0.020147135 0.1003264 -0.049676593 -0.020682057 -0.19053686 -0.035041463
0.12047135 0.22905438 -0.10257977 -0.1465675 0.06418551 -0.15345208 0.38449124 0.553768
-0.013771106 -0.28036124 -0.046415474 -0.23744337 -0.067123674 -0.10364734 0.03831422 0.15062104
0.052169338 0.0032892528 -0.043915555 -0.08269822 0.040788278 0.13273528 -0.18628164 -0.11258445
-0.077750675 0.00210393 0.022309912 0.04324945 0.11776007 -0.019450616 0.28686127 0.4991879
0.122367114 -0.15739964 0.11607501 -0.007300476 -0.024097947 0.006006468 -0.038939845 -0.17219424
0.062205452 0.012132006 0.16473882 -0.11793483 0.07419904 -0.09386352 0.03705445 -0.00013277624
0.053060163 -0.074851274 0.14636758 0.006813039 -0.19625816 0.09682121 0.26333344 0.59830004
0.0017170005 0.16261683 -0.1778222 -0.111929126 -0.11012338 0.03702625 -0.0042833863 -0.14358296
-0.18638253 -0.05660998 -0.09129768 -0.11873479 0.103033416 -0.1252769 0.10616049 0.017677916
-0.16945761 -0.034470297 -0.022238094 -0.03685175 -0.09052959 -0.06883927 0.5161122 0.6548901
-0.050590634 0.06996359 0.1787676 0.16458571 0.10325275 -0.037515637 -0.0718999 0.069028385
-0.044585582 0.030174093 -0.030520936 -0.123777345 0.018714365 0.16912921 -0.024523508 -0.14062604

fc1.bias f4 [64]
00000000: 3361 233f 13e4 4cbe c638 eb3e ab0a 47be
00000010: 9951 bd3e 3329 0a3e 5237 0e3f 31db 0f3f
00000020: 0554 073f 66ec 283f 6c1f fc3e c891 a63e
00000030: b49a 1b3f d382 0f3f b6a1 213f 2d87 c23e
00000040: 3d09 923e 4376 ae3e 5105 053f cb1a b03e
00000050: 731f f63e 9d05 103f 8d92 423f 2655 5cbe
00000060: 6bcb 0b3f 2881 3d3d 1d9b 643e dbf8 163f
00000070: 1548 253f 74cc d53e ecfe a93e d652 d43e
00000080: de7b 283d 090b 9c3e db6d c53d 365d 953e
00000090: 7d0e 263f 61ef 023f 4475 be3e 28ae d7bd
000000a0: 46a0 003f e146 943e b46f 193f 4129 c23e
000000b0: 964c 0b3f a929 fdbd 40c8 fe3e 3279 9d3e
000000c0: 3aaf 1f3d ca09 ba3e d1c2 df3e 6cb6 7ebd
000000d0: 737d a53e eacc 253f e27e e03e 0c64 e43e
000000e0: 500a 05be 8ebb bd3e d549 b93e 64e7 1e3f
000000f0: 9260 283e 7f2d 1d3e 3dc5 d63e d712 673d
0.6382019 -0.20008878 0.45941752 -0.19437663 0.36976317 0.13492279 0.5555316 0.56193835
0.5286258 0.65985715 0.49242723 0.32533097 0.60782933 0.56058997 0.63137376 0.37993756
0.28522673 0.34074602 0.5196124 0.3439544 0.4807087 0.56258565 0.7600487 -0.21516857
0.54607266 0.04626575 0.22324796 0.58973473 0.64563113 0.41757548 0.33202302 0.4146945
0.041133754 0.3047717 0.09640094 0.29172677 0.6486586 0.51146513 0.37198842 -0.105312645
0.5024456 0.28960326 0.5993607 0.379221 0.54413736 -0.12361462 0.49762154 0.30756527
0.03898547 0.36335593 0.4370332 -0.06218569 0.32322273 0.647658 0.43846804 0.4460758
-0.12992215 0.37057155 0.36189142 0.62071824 0.16443089 0.15349387 0.41947356 0.05641445

fc2.weight f4 [64, 64]
00000000: 4e9b 903d 007b a7ba 22d7 b53c 3f50 9cbd
00000010: fd6d 063e 1dbe f43c 9cda 3b3e 0809 723e
00000020: 23fc 373e 6223 b83e e558 613e 27d2 1c3e
00000030: 6f14 d63e add8 0b3e bd50 7b3e d9f9 6f3e
00000040: 3cd4 723d fd4c 4a3e fe7e 6e3e dd3a d73d
00000050: 0d17 a23d 0508 6a3e 051f e13e 9dab 583d
00000060: b146 363e f843 df3c 45e6 93bc ab5c 6e3e
00000070: df29 f73d 9131 4b3e 3192 483e d8ea 043e
00000080: 98e5 823e edff 453e f7fc 9cbd 4d44 be3c
00000090: ecd0 0d3e cf96 573e a349 2d3e 4496 a13d
000000a0: 7e50 633e edf7 8d3e 8eea 873d a107 023e
000000b0: 5587 6d3e 3049 3e3c 7d7d 163e 0430 193e
000000c0: 2316 91bd 90eb 883e c998 663e 8826 2fbd
000000d0: 2834 ab3c 04c3 323e 2103 863d 7490 563d
000000e0: da95 cd3d 8027 923e 1924 023e 6b23 643d
000000f0: e04c 243e 3ee4 a53c eddb bf3d 74ac 62bd
00000100: ba9b 39bd 4c16 fb3d 7d34 0dbe ec99 a7bd
00000110: 9b52 9ebc 00ea bf39 7378 90bd e2de a1bd
00000120: 3d83 94bd 6ce8 d33d 60df 913c 6183 fdbd
00000130: 84af fcbd bc68 cbbd b06d 1f3d b44b a43d
00000140: 31c2 a43d b8d8 79bd 644d b7bc 9f16 96bb
00000150: fb63 eabd ea5d edbd 5103 5d3c 34f1 a6bd
00000160: 1148 c73d fa56 be3d 5ab7 0f3c 7708 8fbd
00000170: d331 dd3d 3309 d5bd ff24 263d 04a3 9dbd
00000180: e798 b0bd 970a 9f3d e09a c93d 3354 8bbd
00000190: 9332 8cbd db23 623d 99d6 99bd 1c80 8cbd
000001a0: b976 eebd df30 b63d 295e b3bd 4fa3 a83d
000001b0: 439a 6d3c ea62 e73d 8237 fbbd e156 adbd
000001c0: 9ec8 c73d b05c e7bd 54eb 88bd 081c c0bd
000001d0: 7c90 bdbd 80fd 9ebd 39d0 6dbc a746 a73d
000001e0: 38be dbbd 4e33 423d 33ed f2bd f72b ab3d
000001f0: 4ec5 d2bd 1712 24bd 02a7 833b 6dba 923d
00000200: cecd 1dbd 10d2 283c 5397 723c b073 393d
00000210: d55f bb3d 2031 fabb 1012 c33c 36e5 533c
00000220: cf69 273d c362 83bd 57e1 08be 63dd c5bd
00000230: ec88 59b9 fb2f 353d d260 27bd 640c e2bd
00000240: 2475 0fbe e376 e7bd 28af c33c 4ace bb3d
00000250: 3613 86bd e660 db3d d562 a83d 708c 743c
00000260: cd33 03be a41f 693d b28a e8bd 19c0 953d
00000270: 512a d8bc ff74 33bd 0b2d b63d 8d21 7fbd
00000280: 566c 7cbd 06eb 133d d85c 9b3c 693c 303c
00000290: d59c f8bd dd95 9cbd fa4c a0bd 08df ce3d
000002a0: 5bad a2bd a0af fdbd 0557 c03d b439 04be
000002b0: 4bea 37bd 104e 233d ec0e 0abe 4342 0ebe
000002c0: 807f a53c aa73 a6bd 6636 b83c 545f 87bd
000002d0: 718d 2d3d e03a 0fbe 0c73 a33d d9cb 943d
000002e0: 56e5 d8bd 5512 c1bb 6dc9 0bbe b8ba 9a3d
000002f0: a770 dd3d d4ae 4e3d b201 563d 00e9 f93d
00000300: 7ddc b9bd ea20 ecbd 97a2 92bc ba25 e6bd
00000310: c07c 05be 4817 1cbd e4ff 973d 8dfe 943d
00000320: 96d8 373d fc3c 9d3c a422 173d 8702 ac3c
00000330: 716b 5dbd dd1e e93b f202 8dbd a48b 273c
00000340: 21b7 b2bd 8873 b6bd 7279 a6bd efb9 d4bc
00000350: 53d8 aa3d 78bc b0bc 40b1 22bd 1839 6f3d
00000360: 58e8 beba 3c14 4cbd 9029 193d 0f4e 31bd
00000370: 8cea fc3c 2721 debd e9f4 813b f8a5 923d
00000380: 887d e5bd 1b8a 8a3c 3e29 ea3d 7644 55bd
00000390: 79c8 04bd ac13 a63d b944 c03d 4889 94bd
000003a0: b665 a03d 238c ebba 0cc1 ae3c e7bc dfbd
000003b0: aa60 e33d 1cd5 f7bd 83f8 85bd 92e3 00be
000003c0: 846c 97bd 655f 7d3d 3ec3 b2bd 489b d83c
000003d0: d86b c83d 98b5 543d 811c 343d 764c 8bbc
000003e0: 4460 d9bd ecbc 313d 6027 a23d 805e 103d
000003f0: cf10 a9bd c86f 043d b6e2 e33c 7005 813d
0.07060872 -0.0012777746 0.02219731 -0.07632493 0.13127895 0.02987581 0.18345112 0.23636258
0.17967276 0.35964495 0.22006567 0.15314542 0.41812465 0.13656874 0.24542518 0.23435153
0.059284434 0.19755931 0.23290631 0.10509274 0.07914553 0.22854622 0.4396898 0.05289804
0.17800404 0.02725409 -0.018054137 0.23277538 0.12068533 0.19843127 0.19587018 0.12980211
0.2556579 0.19335909 -0.07665437 0.023225928 0.13849229 0.21053623 0.16922621 0.07889989
0.22198674 0.27728215 0.06636535 0.12698223 0.23196156 0.011614129 0.14696307 0.14959723
-0.070843 0.2674222 0.2251922 -0.042761356 0.020898893 0.17457205 0.065435655 0.052383855
0.100383475 0.2854576 0.12709083 0.05569784 0.1604495 0.020250436 0.093681194 -0.055340245
-0.045314528 0.12260112 -0.13789554 -0.08183655 -0.019326499 0.00036604702 -0.07054224 -0.0790384
-0.07251594 0.10347065 0.017806709 -0.12378574 -0.123381644 -0.09932086 0.038922966 0.08022252
0.080448516 -0.060997695 -0.02237577 -0.0045803334 -0.11444851 -0.11590178 0.01348956 -0.081514746
0.097305425 0.09293933 0.008771742 -0.069840364 0.10800519 -0.10402145 0.040562626 -0.076971084
-0.08622914 0.07765692 0.09843993 -0.06803169 -0.06845584 0.055209976 -0.075116344 -0.068603724
-0.11643738 0.0889604 -0.08758194 0.08234274 0.014502111 0.11298163 -0.12266447 -0.084638365
0.097550616 -0.112969756 -0.0668551 -0.093803465 -0.09256074 -0.07763195 -0.014514976 0.08167773
-0.10729641 0.04741221 -0.118616484 0.08357995 -0.10291539 -0.040056314 0.0040177116 0.07164464
-0.03852635 0.010303989 0.014806586 0.045276344 0.09149138 -0.0076352507 0.023812324 0.012933066
0.04087239 -0.06415322 -0.1336721 -0.09661367 -0.0002074574 0.04423521 -0.04086382 -0.110375196
-0.1400953 -0.11301973 0.023887232 0.09170206 -0.06546633 0.10711841 0.08221976 0.014926061
-0.12812729 0.05691494 -0.11354579 0.0731203 -0.026387366 -0.043812748 0.0889531 -0.062287856
-0.061626755 0.036112808 0.01896517 0.01075659 -0.12139288 -0.07645772 -0.07827182 0.101011336
-0.07943221 -0.123870134 0.09391598 -0.12912637 -0.044901174 0.039869368 -0.13482255 -0.13892464
0.020202398 -0.0812753 0.022486877 -0.06609979 0.042371217 -0.13987303 0.07980928 0.07265443
-0.10590617 -0.005892078 -0.13651057 0.07555145 0.10812502 0.050459698 0.05224771 0.12202644
-0.09075258 -0.11529715 -0.017899795 -0.112376645 -0.1303587 -0.03810814 0.07421854 0.07275114
0.044884287 0.019194119 0.03689827 0.020997299 -0.054057542 0.007114275 -0.068853274 0.010226164
-0.08726335 -0.089087546 -0.081286326 -0.025967566 0.08342042 -0.021574244 -0.03971982 0.05840406
-0.0014565093 -0.049823985 0.037393153 -0.043287333 0.03087356 -0.10846167 0.003965963 0.07160562
-0.11205584 0.016911557 0.114336476 -0.052067243 -0.032417748 0.08109221 0.09388108 -0.07252747
0.078319 -0.0017970841 0.021332286 -0.10924702 0.111024216 -0.12101194 -0.065415405 -0.12586811
-0.073937446 0.061858553 -0.08728646 0.026441231 0.097861946 0.051930994 0.043972496 -0.017004233
-0.10614064 0.04339306 0.079176664 0.035246372 -0.08255159 0.032333165 0.027818065 0.06299865

fc2.bias f4 [64]
00000000: 4628 213e 600b db3d 32ad 883d 93a7 6fbd
00000010: 148b c33c 8a57 833d 0d2e e03d 4dd5 7f3e
00000020: 1053 a13c beeb 90bd 52bf 53bd b697 d03e
00000030: 6d40 143e 630f 893e 9a94 f93c 20f9 2d3d
00000040: 7c66 78bd 657e 9a3d 17b1 cdbc 6ec8 bdbd
00000050: bc08 9d3e dd04 a03e 65ec a83e 2a3b 82bd
00000060: aba9 563e 0fa1 bc3d c334 df3e 0a18 bb3e
00000070: ece8 513d 230a 9a3e c037 a1bc 93af 9f3d
00000080: 42a3 a13d 2a9b 5e3e 9559 5f3e de88 b5bd
00000090: e0c0 f03d 6fb1 983d c225 183e 1a78 193e
000000a0: d521 5fbd 272a bd3e 6c86 a23d 68ef f3bd
000000b0: 7836 f0bd cd71 a83e df91 df3e 2ac9 b33c
000000c0: e9ff 873e c155 143c 1285 c1bd 23e3 be3e
000000d0: 6586 bfbd 0dc6 943e 069a 4c3e a4cb f73d
000000e0: fe00 843e c962 b83d 1f73 cebd db53 11bc
000000f0: 9feb e13e c23b a23e 72d5 f1bc 9ab3 08be
0.1573802 0.10695529 0.066736594 -0.05850942 0.023870029 0.06413181 0.109462835 0.24983712
0.019692928 -0.07076214 -0.05169613 0.40740746 0.14477701 0.26769552 0.030466367 0.042473912
-0.06064461 0.07543639 -0.025108857 -0.092667446 0.30670726 0.3125371 0.32992855 -0.06358941
0.2096316 0.09210407 0.43594941 0.36541778 0.051247522 0.3008586 -0.019679904 0.0779716
0.07892467 0.21738878 0.21811517 -0.08863996 0.11755538 0.07455718 0.14858153 0.14987221
-0.054475624 0.36946222 0.07935795 -0.119108975 -0.11729139 0.32899323 0.43665978 0.021946508
0.2656243 0.009053648 -0.09449209 0.37282667 -0.093518056 0.2905735 0.1998063 0.12099388
0.25782007 0.09003217 -0.10080551 -0.00887009 0.44125077 0.31686217 -0.029520724 -0.13349763

value.weight f4 [1, 64]
00000000: 10e8 a63e 3414 cebd ae5f ccbc 9048 e5bc
00000010: 9772 56bd 0da0 13bc f57d 913e 0d4f 593e
00000020: ea36 e03d d8dc c0bc 4c17 b9bd 22f0 8d3e
00000030: 7604 9a3e 01c0 773e f467 3dbc f08b 603d
00000040: c582 debd e454 25bd 52b7 98bd c876 3fbd
00000050: 0799 9a3e feda 8f3e 73cf 6e3e c0e9 18bd
00000060: 6d70 883e e1cc 9d3e cd30 ac3e c1fe 8e3e
00000070: 7c52 d0bd e719 923e f0af 06bc 7ee1 7abd
00000080: 87cf 73bd 325f 673e fd19 733e 4cd6 bbbd
00000090: 2975 813e fea8 d4bd c22c 963e 5b20 873e
000000a0: 081d 66bd 4b06 5a3e 4679 f3bc b328 adbd
000000b0: 8006 dabb 7a97 843e 9f24 553e 3365 bdbc
000000c0: e322 a73e bb92 a3bc e41e ce3d 986b 4d3e
000000d0: bdfc a7bd 2dd2 933e f34c 943e e0fb b7bd
000000e0: 24e4 a43e 065e 67bd 1f84 eebb 283e 4cbd
000000f0: faad 3a3e b5c8 9a3e 2def a5bd 59f4 94bd
0.32598925 -0.10062447 -0.024947967 -0.027988702 -0.052355375 -0.009010327 0.2841641 0.21221562
0.10947974 -0.023542807 -0.09037647 0.2772227 0.30081528 0.24194337 -0.011560429 0.054820955
-0.10864786 -0.04036416 -0.074568406 -0.046744138 0.30194876 0.28096765 0.23321323 -0.037332296
0.26648274 0.30820373 0.33630982 0.27928737 -0.10171983 0.28535387 -0.008220658 -0.061250202
-0.059524085 0.22594908 0.23740382 -0.09171733 0.252847 -0.10383795 0.29331023 0.26391873
-0.05618003 0.21291463 -0.029720914 -0.084550284 -0.006653607 0.25896817 0.20814751 -0.023119545
0.32643804 -0.019967427 0.10064486 0.20060575 -0.08202503 0.2887129 0.28964958 -0.08983588
0.32205307 -0.056486152 -0.0072789337 -0.049863964 0.1823043 0.30231252 -0.0810226 -0.07273168
