ppo/logs/td_actor_policy.pth (torch, 292375 bytes, 30 tensors)

fc1.weight f4 [128, 24]
-0.16156316 0.23512377 0.6367332 0.20906647 0.19962141 0.3246322 0.2776416 0.42197436
-0.30062896 -0.08162235 0.5360891 0.51125395 0.23971553 0.2942253 -0.010975202 0.20974447
-0.23787688 -0.11549438 -0.5271226 -0.9110409 -0.40148866 -0.34734237 -0.12586915 0.110167995
0.26437026 0.09891968 -0.08324771 -0.15299916 -0.13907222 -0.046192676 -0.030204147 -0.26466668
-0.3109273 -0.058734443 0.09834963 -0.6142212 -0.061933577 0.107228324 -0.36148858 -0.32558766
-0.16078793 -0.017707208 -0.07558756 -0.21329099 -0.25013834 -0.108295664 -0.2472043 -0.14806278
-0.25299415 0.07477329 -0.12021725 -0.33279604 -0.09780605 0.08431705 -0.06949428 -0.09037467
-0.36737227 -0.00034932053 -0.18545532 -0.29520386 0.075582705 -0.037998874 0.16608599 -0.33418173
-0.14549418 0.0933994 -0.12461871 -0.44219828 -0.10617205 0.09347173 -0.26155975 -0.17133276
0.78296137 0.29737017 -0.097787395 0.091476314 0.19265181 0.086164445 -0.17673801 -0.028899174
0.26698896 0.07122875 -0.026995802 0.115558684 0.1722291 0.11302617 -0.25317734 0.18860433
0.069740415 0.41538393 -0.058019076 -0.08129731 -0.04399391 0.13266225 0.19377007 -0.116191335
0.8257567 0.17081349 -0.096431166 0.08444985 0.22289973 0.31795532 -0.36694887 0.14278968
0.16161837 0.4292805 -0.26883987 0.09118123 0.22209132 0.099220484 -0.5132637 0.07824485
0.24075258 0.12649949 -0.2852621 -0.046276852 -0.050510325 0.32218835 0.011638388 0.16793764
0.8765268 0.36228958 0.079787716 0.054264594 -0.21302545 0.020753138 0.050461836 -0.17231937
-0.05296424 0.2985067 0.14695889 0.19258764 0.022229413 0.10390949 -0.33041537 0.12730587
0.3106891 0.30535564 -0.117298394 -0.290867 0.08615425 -0.10076403 -0.105940245 -0.0023455624
-0.47996873 -0.017296078 0.0978146 0.035648525 -0.058326073 0.10491072 0.61082673 0.14968935
-0.101251096 0.070144095 0.51716983 0.14112762 0.11598553 0.10715739 0.32381788 0.023850044
-0.17243168 -0.26562336 0.3603377 0.07591061 -0.0689181 -0.03742977 0.2791067 0.24176411
-0.5328486 -0.14999096 0.20218402 0.22821376 -0.05140824 -0.103612885 0.42231634 -0.019147288
0.09899514 -0.24970187 0.47483253 -0.12456255 -0.046243805 -0.106890015 0.4328168 0.14414817
-0.19417617 -0.029130815 0.20809166 0.12124914 0.026832258 -0.015340307 0.027060432 0.22016792
-0.037288956 0.029386558 0.20986326 -0.09344716 0.085634485 -0.06682798 0.08749377 -0.29539672
0.095963135 -0.23094308 -0.027205782 -0.37086707 -0.2720229 0.03486549 0.052965567 -0.11348636
-0.054925237 -0.052872233 0.097360626 -0.359739 -0.14980395 -0.055762798 -0.1946284 -0.20627311
-0.18776545 -0.30905285 0.0019541562 -0.22917043 -0.3043601 0.019764613 0.0034219944 -0.18043609
0.010728775 -0.0688217 -0.044769097 -0.17648628 0.075810604 -0.015608032 0.11832714 -0.26628947
-0.164441 -0.24472383 -0.0643796 0.0768226 0.18279928 0.011318911 -0.2281826 -0.026925338
-0.17048118 0.069050275 -0.117090136 0.13213423 0.09189889 -0.067541786 0.06767934 0.09894956
-0.1813686 -0.20492959 -0.058488052 -0.20501196 0.13529709 -0.10055097 0.08063167 -0.18920341
00000000: d070 25be 49c4 703e f200 233f 8515 563e
00000010: 8e69 4c3e 3136 a63e 0a27 8e3e 060d d83e
00000020: 0aec 99be 9e29 a7bd 233d 093f 8ae1 023f
00000030: fd77 753e b3a4 963e 55d1 33bc 41c7 563e
00000040: ff95 73be 5188 ecbd 82f1 06bf fa39 69bf
00000050: ec8f cdbe dcd6 b1be d8e3 00be c29f e13d
00000060: 8a5b 873e 6796 ca3d c67d aabd d0ab 1cbe
00000070: f368 0ebe 8834 3dbd b06e f7bc 6482 87be
00000080: dd31 9fbe 8793 70bd 886b c93d 9a3d 1dbf
00000090: 10ae 7dbd 869a db3d 0815 b9be 6db3 a6be
000000a0: 97a5 24be b50e 91bc a7cd 9abd f468 5abe
000000b0: 2212 80be 1eca ddbd 2023 7dbe c59d 17be
000000c0: 7388 81be bd22 993d 7634 f6bd 3e64 aabe
000000d0: 8a4e c8bd 6bae ac3d 0453 8ebd 5b16 b9bd
000000e0: 3818 bcbe 0225 b7b9 00e8 3dbe f624 97be
000000f0: 1bcb 9a3d b5a4 1bbd 7212 2a3e de19 abbe
00000100: 6dfc 14be 2f48 bf3d 1838 ffbd d067 e2be
00000110: bb70 d9bd 1b6e bf3d 29eb 85be db71 2fbe
00000120: 2870 483f e740 983e c244 c8bd ef57 bb3d
00000130: 8446 453e fc76 b03d cffa 34be f6bd ecbc
00000140: c7b2 883e 61e0 913d 4d26 ddbc 08aa ec3d
00000150: d35c 303e 447a e73d 76a0 81be 7e21 413e
00000160: 10d4 8e3d 34ad d43e 69a5 6dbd 347f a6bd
00000170: f532 34bd 9dd8 073e a96b 463e b9f5 edbd
00000180: cb64 533f bbe9 2e3e b47d c5bd 0bf4 ac3d
00000190: d43f 643e 0acb a23e b9e0 bbbe 7537 123e
000001a0: 497f 253e a7ca db3e 61a5 89be 3abd ba3d
000001b0: e86b 633e 1c34 cb3d 4065 03bf d63e a03d
000001c0: d887 763e 1589 013e e00d 92be cc8c 3dbd
000001d0: eae3 4ebd dff5 a43e f0ae 3e3c d8f7 2b3e
000001e0: 0f64 603f 057e b93e be67 a33d 8d44 5e3d
000001f0: 5823 5abe 7c02 aa3c 12b1 4e3d 7d74 30be
00000200: 08f1 58bd dfd5 983e 647c 163e b235 453e
00000210: 751a b63c 80ce d43d 342c a9be 785c 023e
00000220: a412 9f3e 9357 9c3e 243a f0bd 85ec 94be
00000230: a471 b03d 5f5d cebd 33f7 d8bd 02b8 19bb
00000240: 76be f5be 81b0 8dbc 0553 c83d 3004 123d
00000250: 52e7 6ebd 6edb d63d 245f 1c3f 2a48 193e
00000260: bc5c cfbd b5a7 8f3d 3e65 043f c283 103e
00000270: d289 ed3d 5575 db3d 75cb a53e 2b61 c33c
00000280: ee91 30be c9ff 87be 2f7e b83e 0677 9b3d
00000290: ef24 8dbd f54f 19bd 13e7 8e3e 0391 773e
000002a0: c468 08bf 3b97 19be 5409 4f3e deb0 693e
000002b0: 7291 52bd fe32 d4bd d939 d83e c6da 9cbc
000002c0: f7bd ca3d d9b1 7fbe 401d f33e a61a ffbd
000002d0: 256a 3dbd 27e9 dabd 2a9a dd3e 949b 133e
000002e0: 1ed6 46be bfa3 eebc fb15 553e 7851 f83d
000002f0: 53cf db3c e955 7bbc d7ad dd3c b373 613e
00000300: 4ebc 18bd 14bc f03c 65e6 563e 3a61 bfbd
00000310: 2261 af3d 1cdd 88bd ef2f b33d 3d3e 97be
00000320: 5288 c43d 587c 6cbe a9de debc 4ae2 bdbe
00000330: 9646 8bbe 1ecf 0e3d 6cf2 583d 896b e8bd
00000340: 49f9 60bd 8e90 58bd 0265 c73d b62f b8be
00000350: 3566 19be 8867 64bd ab4c 47be 4239 53be
00000360: 9645 40be 2d3c 9ebe 4d11 003b a7ab 6abe
00000370: 16d5 9bbe 66e9 a13c 8a43 603b 3dc4 38be
00000380: bec7 2f3c 64f2 8cbd cd5f 37bd d2b8 34be
00000390: 9742 9b3d d5b8 7fbc 8055 f23d 1857 88be
000003a0: 3963 28be e298 7abe 74d9 83bd 2b55 9d3d
000003b0: bc2f 3b3e f472 393c b3a8 69be 8792 dcbc
000003c0: 9e92 2ebe 3b6a 8d3d f4cc efbd 324e 073e
000003d0: 7c35 bc3d 5953 8abd 779b 8a3d 11a6 ca3d
000003e0: b1b8 39be 10d9 51be 2b91 6fbd a8ee 51be
000003f0: 528b 0a3e abed cdbd 3822 a53d 8abe 41be

fc1.bias f4 [128]
0.12235536 -0.005799955 0.009782788 -0.055575367 -0.052020077 0.15716513 0.039649453 0.38982418
-0.022646371 0.059644453 -0.13204667 0.15766515 0.33225146 -0.009577207 0.08420502 0.10817397
0.004363203 0.007628319 -0.07549591 0.002150286 0.10637551 -0.08689634 -0.075044855 0.064613156
-0.14342077 0.077004716 0.17616072 0.15404332 0.31361425 0.20012382 -0.019522844 -0.030528817
0.014391422 0.42506066 0.008597146 0.3730221 0.20288292 0.37706667 0.009919712 0.37717128
-0.15332879 -0.21271195 -0.2850138 -0.20924988 0.0070551448 0.42620298 0.36377797 0.34531027
-0.23281425 -0.22709091 -0.12427145 0.124874294 0.22391911 -0.06842797 0.030774968 -0.120199196
-0.03632594 -0.030641308 -0.09397119 -0.2081554 0.22716926 -0.06948062 0.1310528 -0.05447013
-0.054805677 0.2873791 0.012072755 -0.0027130963 -0.17197777 0.29844558 -0.040861156 -0.08709457
0.059619304 -0.17411077 -0.058864992 0.018968988 0.28134415 -0.13721251 -0.122178815 0.0024748214
0.10893912 -0.15301211 -0.07615325 -0.05422597 -0.07961643 -0.10734743 0.2949764 0.008693659
0.015593443 -0.124125615 0.4734466 -0.1404403 -0.07902766 -0.13927682 0.22404705 0.17220835
0.5415639 0.32401106 0.31123146 -0.22712773 0.39868805 0.041496456 0.14858909 0.0075602694
-0.097201005 0.031896032 0.31660372 0.26043785 -0.10046642 0.038497142 0.009829951 0.07549422
0.121914044 0.12066694 0.18727343 0.054939333 -0.12380884 -0.1020259 -0.20946825 0.462751
0.36747694 0.3279841 0.14584188 0.059130978 -0.033300016 0.1487391 0.20001914 0.14853851
00000000: 7295 fa3d 8d0d bebb fd47 203c ffa2 63bd
00000010: 0113 55bd e5ef 203e 7767 223d 0997 c73e
00000020: e284 b9bc be4d 743d 3e37 07be f972 213e
00000030: dd1c aa3e b8e9 1cbc ae73 ac3d 508a dd3d
00000040: 33f9 8e3b faf6 f93b 9a9d 9abd d0eb 0c3b
00000050: 67db d93d b5f6 b1bd 1eb1 99bd e753 843d
00000060: e5dc 12be a6b4 9d3d 7a63 343e 88bd 1d3e
00000070: 0c92 a03e 42ed 4c3e 5fee 9fbc 9217 fabc
00000080: 00ca 6b3c 8da1 d93e 0bdb 0c3c c1fc be3e
00000090: 8ac0 4f3e e20e c13e 4a86 223c 981c c13e
000000a0: 3902 1dbe 29d1 59be 54ed 91be 9a45 56be
000000b0: d82e e73b 4737 da3e 1b41 ba3e 82cc b03e
000000c0: dc66 6ebe 858a 68be 0882 febd 18be ff3d
000000d0: 0d4b 653e f723 8cbd c91b fc3c ff2a f6bd
000000e0: 82ca 14bd 7b03 fbbc f873 c0bd b026 55be
000000f0: 0f9f 683e db4b 8ebd b532 063e 121c 5fbd
00000100: eb7b 60bd 5a23 933e cecc 453c 34ce 31bb
00000110: f11a 30be dccd 983e 075e 27bd a35e b2bd
00000120: 5f33 743d 184a 32be 6b1c 71bd da64 9b3c
00000130: 570c 903e 7081 0cbe e338 fabd 9d30 223b
00000140: 791b df3d 35af 1cbe 3cf6 9bbd 0d1c 5ebd
00000150: f00d a3bd f8d8 dbbd 2607 973e d96f 0e3c
00000160: a47b 7f3c 9235 febd 9867 f23e 95cf 0fbe
00000170: 41d9 a1bd 959e 0ebe 976c 653e 6357 303e
00000180: efa3 0a3f c7e4 a53e bb59 9f3e 2c94 68be
00000190: d720 cc3e 30f8 293d bd27 183e 23bc f73b
000001a0: 5211 c7bd 6aa5 023d e219 a23e 1c58 853e
000001b0: 57c1 cdbd 2eaf 1d3d ce0d 213c b79c 9a3d
000001c0: 12ae f93d 3b20 f73d 9bc4 3f3e 1108 613d
000001d0: 7d8f fdbd f4f2 d0bd d87e 56be b3ed ec3e
000001e0: f025 bc3e 88ed a73e 9357 153e 5333 723d
000001f0: 9965 08bd 104f 183e d1d1 4c3e 7b1a 183e

fc2.weight f4 [64, 128]
0.037871905 0.014460771 0.047902755 -0.06471088 0.007921353 -0.003747128 0.041526064 -0.119557306
0.07082403 -0.03966839 -0.054860514 -0.13390794 -0.023678422 0.006883137 -0.06864553 0.029547561
-0.04361699 -0.055237964 -0.03517649 -0.055682957 0.055147864 -0.06860432 -0.06243398 0.042709988
-0.047778305 0.06717309 0.056166876 -0.055398025 0.011981693 -0.10063757 0.0406875 -0.032595783
0.030935464 -0.025536325 0.045339968 -0.039937224 0.016685164 0.02159134 0.035083544 0.025922243
0.08016872 0.0293668 -0.04482726 -0.081615776 0.061119948 -0.030320754 -0.08665992 -0.04879788
0.05219372 0.059360337 0.045693062 0.02345021 0.046949625 -0.08570596 -0.07858909 -0.052869793
-0.048124146 -0.10386126 -0.04997993 -0.056081753 -0.013199585 0.0019083255 0.025639806 0.06840671
-0.09000416 0.0025509864 -0.08731527 -0.08708237 -0.036731135 0.021778986 0.025486412 0.07700693
-0.06573507 -0.020838246 -0.0754871 -0.0022223766 0.061163224 -0.0331822 -0.06560433 -0.10188657
0.047404367 -0.06930042 -0.042016044 0.07232185 -0.085113786 -0.039006677 0.012543716 -0.03988429
-0.009705973 -0.013736077 0.025767628 0.045589525 0.08641709 -0.056183398 -0.0053033857 -0.12062448
-0.017300515 0.028191393 -0.071544416 -0.027792199 0.031878266 0.040696494 0.035396576 -0.034402896
-0.09395951 0.04380074 0.007128709 0.04294738 -0.003756288 -0.09890978 -0.06513349 -0.058919966
-0.03443303 -0.090219475 0.07596991 0.048239376 -0.08340421 -0.037417136 0.03893689 -0.14303426
0.03480349 0.058757618 -0.11785764 -0.07033323 0.027993416 -0.092341065 -0.051360957 -0.087004095
0.0077358093 0.02547735 -0.088504255 -0.02537129 -0.012877565 0.06957068 -0.013313348 -0.056705248
-0.010081566 -0.034901697 0.016084112 -0.083114475 0.019430375 -0.025217205 -0.023062948 -0.17775486
-0.026985867 -0.0807167 0.04393214 0.058015436 0.004085367 0.026525531 0.03664097 -0.007975701
-0.011998356 -0.06262399 0.022646425 -0.1172317 -0.15571465 -0.12205268 -0.05167332 0.0342442
-0.030981185 -0.076544635 0.012495087 0.005254765 -0.1585639 -0.09863213 -0.03575572 -0.07513428
-0.033934303 0.0033316398 -0.084959894 -0.026349355 -0.045131516 -0.00893415 -0.10192891 -0.13050382
-0.04681664 0.05133456 -0.06364642 -0.032258194 0.00891047 0.07615617 -0.051291853 -0.03731464
0.02613972 -0.09945255 -0.05177533 -0.015141825 0.08900342 0.02942974 -0.06597388 -0.08492289
-0.024461048 0.018508771 -0.15117607 0.06918943 -0.14599939 0.050628897 0.075914234 0.05700263
-0.033162136 -0.02582901 0.020815903 0.038776126 0.07704376 -0.023780119 0.056223173 0.07107532
0.06742554 -0.061065294 -0.040705945 -0.017716523 -0.06437392 -0.0630639 -0.13748293 0.04682741
-0.08980069 -0.028865678 0.04337271 0.033309232 -0.061577104 -0.011762653 0.012116236 -0.0945682
-0.13532178 -0.019650605 0.077489085 -0.059619855 0.0061388123 0.013254396 0.027628155 -0.16871244
-0.072106734 -0.11048161 0.004691199 0.01806217 0.029154653 0.028305005 -0.014636511 0.0077038454
-0.058094583 -0.15612526 -0.027605703 -0.09367596 0.022415748 -0.0029064943 -0.03356441 -0.009749692
-0.06931138 -0.1238456 0.009110698 0.022041528 0.092378706 0.015498151 0.017041601 0.013097482
00000000: 921f 1b3d dfec 6c3c ae35 443d 2387 84bd
00000010: 90c8 013c 6092 75bb 3c17 2a3d 76da f4bd
00000020: 300c 913d 527b 22bd 6bb5 60bd 2a1f 09be
00000030: 40f9 c1bc f08b e13b 0796 8cbd ba0d f23c
00000040: bba7 32bd 3441 62bd 3915 10bd d013 64bd
00000050: bae2 613d 6c80 8cbd c6ba 7fbd abf0 2e3d
00000060: 2fb3 43bd 0c92 893d 3d0f 663d 0ae9 62bd
00000070: dd4e 443c 121b cebd f0a7 263d 2883 05bd
00000080: 5f6c fd3c 8e31 d1bc 67b6 393d 3795 23bd
00000090: 53af 883c 52e0 b03c c3b3 0f3d e25a d43c
000000a0: 7f2f a43d a592 f03c ca9c 37bd 2c26 a7bd
000000b0: e958 7a3d 3b63 f8bc c27a b1bd 49e0 47bd
000000c0: 15c9 553d d323 733d a628 3b3d a81a c03c
000000d0: 404e 403d 9b86 afbd 51f3 a0bd ff8d 58bd
000000e0: d31d 45bd 36b5 d4bd c1b7 4cbd fbb5 65bd
000000f0: 1243 58bc c720 fa3a 920a d23c d118 8c3d
00000100: 1a54 b8bd 732e 273b 59d2 b2bd 3e58 b2bd
00000110: 6373 16bd d869 b23c e1c8 d03c cfb5 9d3d
00000120: 1ca0 86bd f8b4 aabc fb98 9abd 4ba5 11bb
00000130: 4a86 7a3d 0fea 07bd 905b 86bd e8a9 d0bd
00000140: 152b 423d 61ed 8dbd 0419 2cbd 7a1d 943d
00000150: 2350 aebd 77c5 1fbd 2884 4d3c b65d 23bd
00000160: cd05 1fbc 480d 61bc a216 d33c 15bc 3a3d
00000170: 71fb b03d 9020 66bd 06c8 adbb f809 f7bd
00000180: cfb9 8dbc a3f1 e63c e185 92bd 77ac e3bc
00000190: c992 023d 5eb1 263d 00fc 103d 0dea 0cbd
000001a0: d86d c0bd 6868 333d f297 e93b 98e9 2f3d
000001b0: 0e2c 76bb 3691 cabd b564 85bd 1056 71bd
000001c0: a609 0dbd fdc4 b8bd 1d96 9b3d a796 453d
000001d0: d4cf aabd b642 19bd 4a7c 1f3d 9377 12be
000001e0: 1b8e 0e3d d4ab 703d 595f f1bd de0a 90bd
000001f0: 7352 e53c 501d bdbd de5f 52bd 342f b2bd
00000200: ac7c fd3b e0b5 d03c b841 b5bd 74d7 cfbc
00000210: 6cfc 52bc 137b 8e3d 3b20 5abc c343 68bd
00000220: 272d 25bc 15f5 0ebd d4c2 833c ec37 aabd
00000230: 732c 9f3c 5094 cebc 82ee bcbc 5f05 36be
00000240: 7711 ddbc cc4e a5bd 30f2 333d 98a1 6d3d
00000250: 8bde 853b 124c d93c d714 163d 84ac 02bc
00000260: c194 44bc 0241 80bd ff84 b93c 2c17 f0bd
00000270: a973 1fbe c1f6 f9bd 67a7 53bd a543 0c3d
00000280: 41cc fdbc 6fc3 9cbd 32b8 4c3c 2a30 ac3b
00000290: 935e 22be a4ff c9bd 9774 12bd 00e0 99bd
000002a0: b2fe 0abd a457 5a3b 74ff adbd 9ada d7bc
000002b0: d3db 38bd 8b60 12bc 1bc0 d0bd cba2 05be
000002c0: cec2 3fbd 3044 523d 0e59 82bd 2b21 04bd
000002d0: 38fd 113c c4f7 9b3d 6817 52bd 3cd7 18bd
000002e0: f722 d63c c7ad cbbd 5e12 54bd 6b15 78bc
000002f0: 6d47 b63d a316 f13c 501d 87bd 0dec adbd
00000300: 8962 c8bc b59f 973c e6cd 1abe 30b3 8d3d
00000310: dd80 15be 3f60 4f3d ec78 9b3d 977b 693d
00000320: 05d5 07bd 5c97 d3bc 1d86 aa3c b7d3 1e3d
00000330: 1ec9 9d3d 86ce c2bc 454a 663d f08f 913d
00000340: 6716 8a3d 9a1f 7abd 47bb 26bd 3e22 91bc
00000350: 79d6 83bd a527 81bd 53c8 0cbe 19ce 3f3d
00000360: 6de9 b7bd b777 ecbc 95a7 313d 436f 083d
00000370: 4638 7cbd 24b8 40bc 2d83 463c f9ac c1bd
00000380: cb91 0abe 4efa a0bc 99b2 9e3d f333 74bd
00000390: 1728 c93b f728 593c 7154 e23c f4c2 2cbe
000003a0: b2ac 93bd 2f44 e2bd a1b8 993b 1ef7 933c
000003b0: bdd5 ee3c e6df e73c facd 6fbc 8a70 fc3b
000003c0: 96f4 6dbd 4ddf 1fbe 5b25 e2bc 2fd9 bfbd
000003d0: 3ba1 b73c e27a 3ebb d67a 09bd 2cbd 1fbc
000003e0: 20f3 8dbd c3a2 fdbd 0945 153c 6f90 b43c
000003f0: 0c31 bd3d f5eb 7d3c d49a 8b3c d296 563c

fc2.bias f4 [64]
-0.07957009 0.005195169 0.05003585 -0.0156312 -0.059598714 -0.011725206 -0.03402177 -0.016983803
-0.0029183552 -0.0045127613 0.057913154 -0.08952088 -0.052709553 0.013604039 0.10155566 0.1578432
0.054045364 0.0914639 -0.07226746 0.021157416 0.09725008 0.12041563 0.12413336 -0.052825756
0.031777024 -0.047264475 0.04142628 -0.049389325 -0.026739629 0.008994123 -0.0878334 -0.06725611
0.055595204 -0.048584256 0.01694185 0.014445949 0.05868513 0.14347138 0.00435793 0.039349817
0.07647958 -0.037553072 -0.038712256 0.055519145 0.0032807817 -0.08902746 -0.08500531 -0.09366651
-0.063329786 0.038714815 0.020622786 0.004801588 0.10157414 -0.08880818 -0.05890541 -0.100196965
-0.11719061 0.09769542 0.022652477 0.028108712 -0.009514704 -0.04575926 -0.027038645 0.13254479
00000000: a5f5 a2bd 3c3c aa3b 64f2 4c3d 010d 80bc
00000010: c81d 74bd 141b 40bc 695a 0bbd 9e21 8bbc
00000020: e041 3fbb c9df 93bb 5836 6d3d b956 b7bd
00000030: f9e5 57bd 7ae3 5e3c 6afc cf3d a6a1 213e
00000040: ac5e 5d3d 6d51 bb3d f600 94bd 5152 ad3c
00000050: 0d2b c73d 789c f63d a239 fe3d d25f 58bd
00000060: a028 023d 6598 41bd 9aae 293d 764c 4abd
00000070: 110d dbbc 165c 133c ffe1 b3bd 92bd 89bd
00000080: ccb7 633d 4900 47bd a2c9 8a3c b4ae 6c3c
00000090: d25f 703d 29ea 123e f7cc 8e3b 462d 213d
000000a0: 53a1 9c3d 40d1 19bd be90 1ebd 0b68 633d
000000b0: 6202 573b 0754 b6bd 4417 aebd 3ad4 bfbd
000000c0: 0cb3 81bd 6d93 1e3d 1ef1 a83c a456 9d3b
000000d0: 1a06 d03d 10e1 b5bd cd46 71bd 1134 cdbd
000000e0: a101 f0bd 8914 c83d b091 b93c 3e44 e63c
000000f0: 90e3 1bbc 106e 3bbd 2680 ddbc d2b9 073e

mean.weight f4 [1, 64]
0.001347206 -0.020792847 -0.36058792 0.00448099 0.10226698 -0.0954557 0.004017348 -0.054037277
-0.28367838 -0.060850788 0.028033987 -0.015671574 -0.024736948 0.08781584 0.20125215 0.24158105
-0.20115334 -0.35574767 -0.009145676 -0.074510545 -0.36620703 0.38298935 0.114855826 0.03058504
-0.28174448 0.07469212 0.05480569 0.061535638 0.07462266 0.25053698 -0.009435821 0.0059786313
0.07623672 -0.012974599 0.055800613 -0.007145483 -0.056863513 0.2634706 -0.0023605688 -0.03228798
-0.2689525 -0.44358718 -0.0001665283 0.2639809 -0.3235673 -0.060492005 0.073974 0.069180384
-0.22938454 -0.3495007 -0.4553354 0.0040189945 0.123610005 -0.012260252 -0.00972706 -0.09305945
0.08542314 -0.26701632 0.052704718 -0.1522054 -0.0032246101 0.070370585 -0.004024567 0.3561323
00000000: bb94 b03a c355 aabc fb9e b8be 45d5 923b
00000010: 5a71 d13d 477e c3bd f5a3 833b 3156 5dbd
00000020: 4b3e 91be ad3e 79bd 88a7 e53c ac61 80bc
00000030: 24a5 cabc cbd8 b33d 0b15 4e3e 0661 773e
00000040: 24fb 4dbe 8f24 b6be bfd7 15bc fc98 98bd
00000050: 7d7f bbbe 2e17 c43e 8839 eb3d 7a8d fa3c
00000060: d040 90be 2ff8 983d ee7b 603d cb0c 7c3d
00000070: c4d3 983d 6246 803e b498 1abc 65e8 c33b
00000080: ff21 9c3d 6a93 54bc 2f8f 643d a824 eabb
00000090: b7e9 68bd 9ee5 863e c6b3 1abb 6740 04bd
000000a0: 24b4 89be dc1d e3be 1a9e 2eb9 8128 873e
000000b0: 9daa a5be 77c6 77bd ae7f 973d 72ae 8d3d
000000c0: c8e3 6abe c1f1 b2be b921 e9be c5b1 833b
000000d0: 3e27 fd3d 39df 48bc 3f5e 1fbc f495 bebd
000000e0: 54f2 ae3d 5db6 88be e7e0 573d bbdb 1bbe
000000f0: fb53 53bb 741e 903d 84e0 83bb f956 b63e

fc1.weight f4 [128, 24]
-0.27625406 -0.046951093 -0.024772093 -0.2120218 0.021003982 -0.018991895 -0.12573464 0.022702325
-0.13196443 -0.051293317 -0.122567065 0.07788648 0.07039521 0.048060693 -0.16612051 -0.19773422
-0.2013988 -0.12391061 -0.08508781 -0.21046156 0.10324489 -0.097956516 0.08909005 -0.23882525
0.0045057517 0.006439773 0.57021296 1.1259834 0.2208352 -0.21860762 0.680698 1.362423
0.5044926 -0.35746643 -0.72738355 -4.9203944 -0.539015 -1.2116771 0.43752646 1.6060599
0.2424068 -0.32100636 0.69204533 1.4204468 0.4495972 -0.44064987 2.3571663 0.10015952
-0.42711458 -0.081281655 -0.100259945 0.027263112 0.4697322 -0.49403274 0.586383 -0.7090459
0.160026 -0.20872271 0.84041023 1.6034318 -0.08348654 -0.688004 0.2951501 2.030016
-0.1127054 -0.48832616 0.44922847 1.1784409 -0.13131353 -0.59286755 2.3390343 0.26526168
-1.020583 -0.6883108 -0.26525655 -0.88701 0.24198644 0.20431834 0.13722418 -0.9065052
-0.10757219 0.16444719 -0.3687653 -0.74843293 -0.1202588 0.3434711 -0.09651695 -0.60982376
-0.013427991 0.1967003 -0.06364896 -0.57069457 0.027216105 0.10059408 -0.41538018 0.1928759
-0.12763117 -0.19395667 0.16656858 -0.13523668 -0.16259332 -0.05467695 0.06453476 -0.1915973
-0.17592075 0.08660083 -0.18140796 -0.022732377 0.059082568 -0.09781737 0.024016565 0.03788367
0.11566185 -0.018542627 -0.08352972 -0.020320488 -0.12786779 -0.0050956947 -0.23158246 -0.06485653
-1.8720146 -0.73714787 -0.023031825 -0.15432486 -0.36398372 -0.18510059 0.18784565 -0.49523208
-0.10325617 0.017807586 -0.02066833 -0.4885549 0.2288768 0.010356667 -0.14870737 0.065490305
-0.003393561 -0.1634533 0.2719771 -0.16037315 -0.054513864 0.1724068 -0.013958715 -0.25866506
1.6153212 0.6118056 -0.28330722 0.54559577 -0.21938893 -0.5472335 0.251234 0.25633934
-0.40217724 -1.0943478 -0.038704332 0.8326529 -0.42662978 -1.1255423 0.05952677 1.1634005
-0.028149042 -0.7411286 0.38028714 1.3856574 -0.1091068 -0.8346566 1.6783416 -0.16624004
-1.205592 -0.278799 -0.07959151 -0.44235542 -0.027620172 -0.020681636 -0.08682562 -0.44232938
0.21575302 -0.04750735 0.13982531 -0.29654646 0.045425206 -0.0005030619 0.006099077 -0.2932128
-0.3260699 0.073266536 0.12065045 -0.17252214 -0.013220116 0.29572368 -0.3847938 -0.0008816053
-1.4487135 -0.239844 -0.04180702 -0.35959083 -0.050789237 0.10880451 -0.116002224 -0.46915874
-0.22826388 0.04357501 -0.0043280027 -0.42434123 -0.32657403 0.02652477 0.07155917 -0.29318798
-0.24613029 -0.081173256 -0.08141809 -0.41021365 0.052348066 -0.06935197 0.038676433 0.16200177
-0.4926517 0.044670377 -0.3604188 -0.7337721 -0.0322068 0.48027945 -0.010118123 -0.65013343
-0.35477838 0.64021814 -0.25549898 -1.0679274 -0.44707376 0.35478976 -0.43454936 -0.8566617
-0.24214897 0.24116364 -0.25176346 -0.8249433 -0.06427919 0.12130723 -1.0688008 0.10410558
-1.1334251 -0.46926492 0.029019354 -0.33373716 -0.17836995 0.007900011 -0.088337705 -0.50345355
0.11031457 -0.06637124 0.005767516 -0.20538822 0.028094675 0.023846699 -0.08282583 -0.4529577
00000000: 2c71 8dbe ca4f 40bd d8ee cabc 3e1c 59be
00000010: 8b10 ac3c e494 9bbc 95c0 00be 3afa b93c
00000020: af21 07be f118 52bd 7104 fbbd f282 9f3d
00000030: 5d2b 903d 4adb 443d 7f1b 2abe d77a 4abe
00000040: 7d3b 4ebe d9c4 fdbd 8542 aebd 3c83 57be
00000050: 0f72 d33d 6d9d c8bd d874 b63d 9b8e 74be
00000060: fca4 933b bb04 d33b 7af9 113f 3920 903f
00000070: 9f22 623e adda 5fbe 3942 2e3f e063 ae3f
00000080: 6d26 013f d705 b7be cf35 3abf df73 9dc0
00000090: e3fc 09bf 3c18 9bbf 7803 e03e 5f93 cd3f
000000a0: 7d39 783e f25a a4be e229 313f 33d1 b53f
000000b0: 9b31 e63e dc9c e1be d0db 1640 6f20 cd3d
000000c0: c3ae dabe ff76 a6bd 1655 cdbd e456 df3c
000000d0: bd80 f03e dcf1 fcbe 321d 163f 0884 35bf
000000e0: dbdd 233e 68bb 55be 2025 573f 413d cd3f
000000f0: fefa aabd 0821 30bf ea1d 973e c8eb 0140
00000100: 17d2 e6bd e305 fabe 4601 e63e 27d7 963f
00000110: 0e77 06be 2bc6 17bf bdb2 1540 61d0 873e
00000120: 77a2 82bf 2335 30bf b5cf 87be 1613 63bf
00000130: 4bcb 773e d438 513e 7f84 0c3e ba10 68bf
00000140: cf4e dcbd d864 283e cece bcbe 4d99 3fbf
00000150: 3f4a f6bd 72db af3e aeaa c5bd 691d 1cbf
00000160: 1401 5cbc ce6b 493e 635a 82bd 0a19 12bf
00000170: 4ff4 de3c 4504 ce3d b6ac d4be 4381 453e
00000180: bfb1 02be 949c 46be f490 2a3e 7c7b 0abe
00000190: dd7e 26be f0f4 5fbd cd2a 843d 1532 44be
000001a0: 9224 34be c75b b13d 02c3 39be 4039 babc
000001b0: 9000 723d 7954 c8bd 63be c43c e82b 1b3d
000001c0: 1fe0 ec3d b5e6 97bc a111 abbd 2777 a6bc
000001d0: c6ef 02be c9f9 a6bb f423 6dbe 80d3 84bd
000001e0: 2d9e efbf b9b5 3cbf 3dad bcbc 5607 1ebe
000001f0: 135c babe 028b 3dbe 9c5a 403e 0f8f fdbe
00000200: f977 d3bd 37e1 913c a150 a9bc de23 fabe
00000210: ae5e 6a3e 03af 293c bf46 18be c81f 863d
00000220: 8266 5ebb 4d60 27be 9540 8b3e dc38 24be
00000230: ee49 5fbd 688b 303e 18b3 64bc bf6f 84be
00000240: d8c2 ce3f 4b9f 1c3f a50d 91be 2aac 0b3f
00000250: 7ea7 60be 7f17 0cbf bea1 803e e93e 833e
00000260: 2dea cdbe 9713 8cbf 6f88 1ebd be28 553f
00000270: 386f dabe c511 90bf 58d2 733d 4fea 943f
00000280: d298 e6bc 9bba 3dbf ffb4 c23e 395d b13f
00000290: 6373 dfbd 0eac 55bf e6d3 d63f d43a 2abe
000002a0: d750 9abf bebe 8ebe e000 a3bd 697c e2be
000002b0: b343 e2bc 896c a9bc a1d1 b1bd ff78 e2be
000002c0: 5cee 5c3e 1197 42bd 5e2e 0f3e f0d4 97be
000002d0: c80f 3a3d eadf 03ba c4da c73b fd1f 96be
000002e0: a2f2 a6be c40c 963d 9517 f73d a5a9 30be
000002f0: 2f99 58bc 1869 973e b103 c5be 881b 67ba
00000300: 726f b9bf aa99 75be d63d 2bbd 4a1c b8be
00000310: 6008 50bd e6d4 de3d 9392 edbd 9335 f0be
00000320: 02be 69be b67b 323d ebd1 8dbb 4143 d9be
00000330: b634 a7be 794a d93c 9d8d 923d bc1c 96be
00000340: 9409 7cbe 2a3e a6bd 87be a6bd 8607 d2be
00000350: ed6a 563d 6808 8ebd 2e6b 1e3d cbe3 253e
00000360: d83c fcbe 49f8 363d d088 b8be 7dd8 3bbf
00000370: 47eb 03bd 30e7 f53e 7cc6 25bc 256f 26bf
00000380: 83a5 b5be 56e5 233f c3d0 82be d8b1 88bf
00000390: dae6 e4be 01a7 b53e 417d debe 2e4e 5bbf
000003a0: e6f5 77be 9af3 763e 24e7 80be 7c2f 53bf
000003b0: cfa4 83bd ed6f f83d 77ce 88bf 4e35 d53d
000003c0: 1314 91bf 7e43 f0be ffb9 ed3c 99df aabe
000003d0: 9da6 36be 0c6f 013c 66ea b4bd 55e2 00bf
000003e0: 9bec e13d a5ed 87bd 6efd bc3b 4a51 52be
000003f0: ce26 e63c 275a c33c 97a0 a9bd 12ea e7be

fc1.bias f4 [128]
-0.19849944 0.34610596 0.46818376 -0.13422976 -0.18873353 0.022791268 0.50785327 -0.31287682
-0.20653795 -0.40645662 -0.111010045 -1.55366 -0.04735097 -0.11105311 -0.24295716 -0.022226572
-1.2897309 -0.0054476573 -0.028617438 -0.20153986 -0.11549416 -1.6258636 1.9652072 0.5837252
0.102613784 -0.8160451 -0.25681722 0.07911263 0.17956407 -0.08892381 -0.71181947 -0.53196174
0.9203056 2.0902863 -0.19874696 -0.19870655 1.9464133 -0.14978774 -0.14737566 -0.06911797
-0.30931532 1.2944283 0.54379874 -0.17127141 0.014175875 -0.13988416 -0.14256977 -0.09018157
-0.7693891 -0.23874086 -0.042761322 -0.0751223 -0.38581842 0.6949291 -0.017694077 -0.031716723
0.37662882 -0.10154969 0.71696043 -0.08786857 -0.2575198 -0.0147422 -0.098654374 0.3950027
0.28539476 -0.34983474 -0.24202037 -0.20587574 -1.436237 0.5526437 -0.011831825 0.5054087
0.40581116 0.86210895 -0.22555304 -1.0596145 0.5050455 1.3196756 0.56754965 -0.107017815
0.7067698 0.35445145 0.07274119 -1.5559709 -0.16148768 0.31246358 -1.0601417 0.11102175
-0.32428047 1.2689407 -0.026072709 1.0265551 0.11549985 -0.33205795 -0.21859722 0.8424641
-0.10048809 0.46723843 -0.9671188 -0.04529694 -0.18217182 -0.15608586 -0.2612898 0.3560342
0.36938328 -0.05815705 -0.21171458 -0.036197025 0.47927436 0.81043947 -0.21626633 -1.1600821
-0.14341404 -0.78656083 0.0009968807 -0.170393 -0.32636318 0.03358908 0.014769361 -0.063805245
-0.30426154 0.27399313 -0.22025865 -0.40831187 -0.2320292 0.026598964 -0.27828774 -0.20773865
00000000: 7043 4bbe cd34 b13e c8b5 ef3e 8773 09be
00000010: 5d43 41be c1b4 ba3c ac02 023f 6431 a0be
00000020: af7e 53be 151b d0be 3c59 e3bd 55de c6bf
00000030: 17f3 41bd d06f e3bd c3c9 78be 8014 b6bc
00000040: e715 a5bf 4382 b2bb 1e6f eabc 7760 4ebe
00000050: 3488 ecbd 4c1c d0bf e98b fb3f 046f 153f
00000060: 2d27 d23d 55e8 50bf 8c7d 83be cd05 a23d
00000070: a5df 373e b01d b6bd cd39 36bf a52e 08bf
00000080: 2699 6b3f 40c7 0540 5384 4bbe bb79 4bbe
00000090: 1224 f93f f561 19be a5e9 16be b98d 8dbd
000000a0: 945e 9ebe d4af a53f 6536 0b3f c661 2fbe
000000b0: ee41 683c cb3d 0fbe cffd 11be 1db1 b8bd
000000c0: aff6 44bf 7c78 74be 7f26 2fbd b8d9 99bd
000000d0: fe89 c5be e0e6 313f 2bf3 90bc 65e9 01bd
000000e0: 7ed5 c03e 49f9 cfbd b88a 373f 70f4 b3bd
000000f0: a3d9 83be 4589 71bc 4e0b cabd cb3d ca3e
00000100: 431f 923e 8a1d b3be 30d4 77be 17d1 52be
00000110: 9dd6 b7bf 0f7a 0d3f 45da 41bc 7762 013f
00000120: 7bc6 cf3e 2cb3 5c3f 60f7 66be 73a1 87bf
00000130: a94a 013f 21eb a83f ef4a 113f 282c dbbd
00000140: deee 343f a97a b53e 55f9 943d 0e2a c7bf
00000150: 075d 25be 3afb 9f3e b9b2 87bf 5f5f e33d
00000160: 1708 a6be a66c a23f 6f96 d5bc 2866 833f
00000170: 2f8b ec3d 8003 aabe f3d7 5fbe baab 573f
00000180: b3cc cdbd e039 ef3e 1995 77bf 4989 39bd
00000190: 408b 3abe f9d4 1fbe c7c7 85be 1d4a b63e
000001a0: ce1f bd3e 1636 6ebd b5cb 58be 5543 14bd
000001b0: 7363 f53e f678 4f3f ec74 5dbe 927d 94bf
000001c0: 21db 12be 0d5c 49bf c4a9 823a 817b 2ebe
000001d0: 1319 a7be b494 093d 31fb 713c 53ac 82bd
000001e0: 2bc8 9bbe d448 8c3e 7c8b 61be 410e d1be
000001f0: 1099 6dbe 12e6 d93c bb7b 8ebe 71b9 54be

fc2.weight f4 [64, 128]
0.032610737 1.0979475 -0.4353907 -0.28041643 0.08562682 0.17823103 -0.54122466 -0.074846275
-0.23554741 -0.048925262 -0.03862482 2.3830535 0.282385 -0.2943984 -0.099676035 0.10928875
0.4475686 0.12272208 0.4411973 -0.119406104 0.2962754 1.4085271 -0.9539085 2.343089
-0.3611492 0.5435924 -0.4775528 0.34065044 2.5219016 0.8537871 0.11912389 0.8510083
-0.23339039 -0.7476975 -0.3087257 -0.3675732 0.4604871 0.2722954 -0.5507959 0.018007986
0.23926736 -0.6361796 2.5481193 -0.0352102 -0.084519565 -0.28653935 -0.15416156 -0.40912277
0.16819651 -0.04725261 0.012619831 -0.028485723 0.033400122 -0.16115512 -0.056567486 -0.5036394
-0.6953352 -0.043770567 -0.2693919 0.08497154 -0.054227713 -0.62699056 0.1138601 0.08580373
2.058464 -0.018886143 -0.31332403 -0.005132468 0.80571824 -0.31479043 -0.3012939 -0.783557
-0.9215181 -0.7198012 0.006338048 0.4719119 -0.0010932325 -1.4034009 0.096807174 -0.016397178
0.6083588 1.4272311 -0.43699053 1.4734218 -0.024037568 3.5039794 1.0793444 -0.7871042
-0.4084848 0.00067445193 -0.074642144 0.13729748 0.05315907 0.30742624 0.20091116 0.28993106
-0.1597384 1.3555309 1.635606 0.3909852 -0.1604108 -0.033588946 0.18026748 -0.5174414
0.65312546 -0.61128825 0.013095302 0.034146834 0.43590048 -0.048192773 0.12795183 0.6143051
-0.3635515 0.48420447 1.6873348 -0.025630731 -0.1965236 -0.20484024 -0.020117117 -0.06506819
-0.09661511 1.2887977 0.1182358 -0.17537875 -0.36399624 -0.22976094 -0.1560594 0.043721892
0.10079734 0.4134392 0.7289655 -0.004345875 -0.043491483 0.28340995 -1.5841645 0.1016634
0.44740805 -0.94659257 -0.1516833 -0.63900995 0.08230874 -0.0036423588 -0.11024673 -0.017810756
-0.08876736 0.01638676 -0.09796693 -0.0017248673 -1.7542617 -0.60440487 0.52441704 0.115097664
-0.024025451 -0.2881813 -0.12868372 -0.23285435 -1.0227945 -0.6208811 -1.3431681 0.35132828
0.7550566 1.0781379 0.25865036 1.0526011 0.60726553 0.012687739 1.11835 0.0579555
0.066765904 0.6074061 -2.715115 0.0017573154 -0.037450433 -0.3335831 0.22667721 0.10577193
-1.5237411 -0.005765387 -0.06568152 -0.09945645 1.0945213 -1.2500865 0.23264943 0.47664207
2.005035 -0.00095565355 -0.95128465 -0.02712979 0.0005228189 -0.104007915 -0.07061524 -0.99931574
-0.95752746 0.10427881 0.11877815 -0.0058319275 -0.9999616 -0.78701925 -0.12078694 2.2208402
-1.010277 0.23890176 -0.030218259 -0.8577157 -0.9166813 0.3840384 0.7299353 0.08439558
0.29481566 -0.74983644 0.6320481 -1.2554862 -0.12491937 -1.958335 -2.0909967 1.0592096
0.11645524 -0.6058943 0.36250272 -0.19906135 0.119951524 -0.42691725 -0.3438142 -0.58353335
0.08470914 -1.0681915 -1.1455203 -0.23109852 0.026702782 0.03152308 -0.041524142 0.29236388
-0.04122553 0.17941001 0.10002804 0.15072213 -1.42652 -0.88257945 0.017605709 -2.564346
0.21584624 -0.69382083 0.33992127 -0.08906728 0.024163757 -0.11123672 0.043345492 -0.07840541
-0.90741074 0.18674865 0.09071186 -0.21251936 0.2505718 -0.11823706 0.29591846 -0.07550022
00000000: d692 053d 8b89 8c3f 88eb debe be92 8fbe
00000010: 1d5d af3d 3282 363e b38d 0abf 0149 99bd
00000020: 5733 71be db65 48bd 0f35 1ebd f383 1840
00000030: c494 903e 63bb 96be f322 ccbd c8d2 df3d
00000040: b627 e53e b755 fb3d 9de4 e13e 308b f4bd
00000050: 69b1 973e 9e4a b43f 5933 74bf 2cf5 1540
00000060: 8ce8 b8be df28 0b3f cd81 f4be bc69 ae3e
00000070: d666 2140 cb91 5a3f 3af7 f33d aedb 593f
00000080: e4fd 6ebe 1a69 3fbf 4c11 9ebe 8e32 bcbe
00000090: f7c4 eb3e 4d6a 8b3e f600 0dbf 7c85 933c
000000a0: 8102 753e abdc 22bf 6314 2340 9238 10bd
000000b0: 9818 adbd 49b5 92be 87dc 1dbe 8a78 d1be
000000c0: b53b 2c3e f48b 41bd 68c3 4e3c e45a e9bc
000000d0: 91ce 083d d905 25be 4fb3 67bd 83ee 00bf
000000e0: 7d01 32bf c448 33bd bced 89be 8f05 ae3d
000000f0: e11d 5ebd 7482 20bf 7c2f e93d deb9 af3d
00000100: e0bd 0340 1db7 9abc 026c a0be 432e a8bb
00000110: 8d43 4e3f 362c a1be 3243 9abe 3197 48bf
00000120: 9ce8 6bbf e444 38bf 66af cf3b 709e f13e
00000130: cc4a 8fba a4a2 b3bf d742 c63d 6053 86bc
00000140: 67bd 1b3f 82af b63f 39bd dfbe 1699 bc3f
00000150: 6fea c4bc 3341 6040 f527 8a3f a97f 49bf
00000160: eb24 d1be b4cd 303a fbdd 98bd b697 0c3e
00000170: 53bd 593d f966 9d3e a8bb 4d3e d871 943e
00000180: 7792 23be 0982 ad3f 8a5b d13f 362f c83e
00000190: bb42 24be 9094 09bd 0a98 383e 0a77 04bf
000001a0: 3b33 273f 637d 1cbf ad8d 563c 8ddd 0b3d
000001b0: 592e df3e c965 45bd ce05 033e 1943 1d3f
000001c0: 6c23 babe a6e9 f73e 96fa d73f 8af7 d1bc
000001d0: 7c3d 49be a4c1 51be a7cc a4bc 7942 85bd
000001e0: 25de c5bd 53f7 a43f 9c25 f23d 7d96 33be
000001f0: b75d babe 7446 6bbe 09ce 1fbe ba15 333d
00000200: d66e ce3d 4eae d33e 7c9d 3a3f d767 8ebb
00000210: 2024 32bd 1c1b 913e e7c5 cabf e734 d03d
00000220: ab12 e53e e453 72bf de52 1bbe 2896 23bf
00000230: 7c91 a83d a4b4 6ebb 0ac9 e1bd dde7 91bc
00000240: a9cb b5bd 873d 863c e3a2 c8bd f114 e2ba
00000250: a68b e0bf 47ba 1abf 3240 063f 53b8 eb3d
00000260: 06d1 c4bc 808c 93be aac5 03be 5f71 6ebe
00000270: eeea 82bf 10f2 1ebf efec abbf 4de1 b33e
00000280: 644b 413f 6c00 8a3f d26d 843e a2bb 863f
00000290: c175 1b3f 3ce0 4f3c 1826 8f3f bf62 6d3d
000002a0: 90bc 883d f77e 1b3f 72c4 2dc0 b855 e63a
000002b0: a065 19bd 67cb aabe 121e 683e f49e d83d
000002c0: f309 c3bf 92eb bcbb 0884 86bd d3af cbbd
000002d0: 4619 8c3f d602 a0bf a73b 6e3e 6e0a f43e
000002e0: 7e52 0040 d384 7aba 6487 73bf 4b3f debc
000002f0: c80d 093a 1a02 d5bd b99e 90bd 28d3 7fbf
00000300: 8520 75bf 2190 d53d f541 f33d c119 bfbb
00000310: 7cfd 7fbf 187a 49bf 255f f7bd 3f22 0e40
00000320: c250 81bf aaa2 743e 488c f7bc 4293 5bbf
00000330: a0ab 6abf aea0 c43e 0add 3a3f 97d7 ac3d
00000340: 14f2 963e 48f5 3fbf e7cd 213f c6b3 a0bf
00000350: bad5 ffbd b9aa fabf e4d2 05c0 2e94 873f
00000360: 1680 ee3d e41b 1bbf f599 b93e bdd6 4bbe
00000370: 25a9 f53d e694 dabe 6a08 b0be 7162 15bf
00000380: fc7b ad3d 80ba 88bf 69a0 92bf 17a5 6cbe
00000390: cbbf da3c 581e 013d 3815 2abd b8b0 953e
000003a0: 1adc 28bd 42b7 373e 80db cc3d e756 1a3e
000003b0: 3598 b6bf baf0 61bf d939 903c 3f1e 24c0
000003c0: cc06 5d3e 3e9e 31bf 290a ae3e e868 b6bd
000003d0: 12f3 c53c 14d0 e3bd 0b8b 313d 0493 a0bd
000003e0: 124c 68bf 0a3b 3f3e 24c7 b93d ad9e 59be
000003f0: f24a 803e 4626 f2bd a082 973e dc9f 9abd

fc2.bias f4 [64]
0.19948207 -0.49369445 -0.13588239 0.659051 0.021917634 -0.22639818 -0.015650524 -0.06917275
0.031431243 -0.28566235 -0.05822932 -0.27521327 -0.037823394 0.036047753 0.02674094 0.43683827
-0.12430695 -0.1806687 0.057323087 -0.17686208 -0.06003858 -0.003338677 -0.028324096 0.0022931125
-0.10959954 -0.06452135 -0.03322529 0.1405686 -0.08837755 -0.20187432 -0.08746817 -0.059400983
0.3171684 -0.12730221 -0.026566766 0.06917634 -0.0030964587 -0.14037327 -0.011138284 0.038422376
-0.121663764 -0.21733823 0.029979158 -0.08007267 -0.18963233 -0.076012425 -0.055145975 -0.3876043
-0.22717577 -0.033331074 -0.060323913 -0.40586564 0.69388205 0.115400694 -0.112699665 0.67730755
-0.300445 -0.2895527 0.25087678 -0.55528843 -0.09281859 0.10022519 -0.1984435 -0.13219446
00000000: 0745 4c3e 85c5 fcbe c124 0bbe 91b7 283f
00000010: 9c8c b33c edd4 67be 8735 80bc 71aa 8dbd
00000020: 0cbe 003d 5642 92be de81 6ebd c1e8 8cbe
00000030: b4ec 1abd cfa6 133d d10f db3c 44a9 df3e
00000040: a494 febd 3701 39be 9dcb 6a3d 551b 35be
00000050: 04eb 75bd b5cd 5abb ef07 e8bc 0b48 163b
00000060: b975 e0bd c523 84bd 3e17 08bd 37f1 0f3e
00000070: 4aff b4bd 24b8 4ebe 8322 b3bd 724e 73bd
00000080: e663 a23e 835b 02be 8ca2 d9bc 53ac 8d3d
00000090: f5ed 4abb 03be 0fbe 597d 36bc c860 1d3d
000000a0: da2a f9bd ea8d 5ebe da96 f53c 24fd a3bd
000000b0: fa2e 42be 67ac 9bbd bfe0 61bd 1274 c6be
000000c0: c4a0 68be 2a86 08bd 3516 77bd 9fcd cfbe
000000d0: 41a2 313f 3357 ec3d 15cf e6bd 0764 2d3f
000000e0: edd3 99be 4040 94be ec72 803e 6227 0ebf
000000f0: ac17 bebd dd42 cd3d c634 4bbe fc5d 07be

value.weight f4 [1, 64]
0.41227555 -0.7158141 0.020942755 -0.9337648 0.013192143 -0.16523086 0.07422278 -0.06768492
0.2500534 -0.013183861 0.047200408 0.0027300075 -0.0625103 -0.008199955 -0.033162218 0.26879948
-0.018852767 0.028947914 0.017323654 -0.15821365 -0.39502424 -0.13433616 -0.0901672 -0.40541312
-0.017281104 -0.07828655 -0.04516968 0.28247848 -0.038012765 -0.4110921 0.03936417 -0.052736025
0.31878278 0.040719926 0.016685804 0.44595894 -0.037955046 -0.024018556 -0.7300933 -0.042305253
-0.020888373 0.26463082 0.0068161376 -0.046582513 -0.3144285 -0.030870216 -0.05742179 -0.0145423105
-0.39404836 -0.02290448 0.0088695 0.02174335 0.2662202 0.20456243 -0.055286232 0.14755115
-0.065747134 1.256326 0.38007706 -0.028556846 -0.02129292 0.07429472 0.0053752554 -0.48646942
00000000: c815 d33e 983f 37bf 2490 ab3c 360b 6fbf
00000010: dc23 583c 4732 29be 1d02 983d 649e 8abd
00000020: 0007 803e 1f01 58bc 3755 413d ede9 323b
00000030: 6605 80bd 1b59 06bc 1bd5 07bd 16a0 893e
00000040: 1e71 9abc 2d24 ed3c 56ea 8d3c c202 22be
00000050: 9e40 cabe 6b8f 09be 95a9 b8bd 4f92 cfbe
00000060: 1a91 8dbc b354 a0bd d803 39bd 05a1 903e
00000070: 46b3 1bbd aa7a d2be 533c 213d bb01 58bd
00000080: 7f37 a33e f0c9 263d abb0 883c bb54 e43e
00000090: c076 1bbd 90c2 c4bc 65e7 3abf 4648 2dbd
000000a0: 181e abbc b17d 873e e859 df3b 4ecd 3ebd
000000b0: c6fc a0be 89e3 fcbc 1c33 6bbd df42 6ebc
000000c0: b5c0 c9be 2da2 bbbc 6151 113c 1c1f b23c
000000d0: 044e 883e d078 513e d173 62bd a617 173e
000000e0: 6fa6 86bd 4acf a03f 7699 c23e 0cf0 e9bc
000000f0: 7d6e aebc d527 983d e922 b03b 8512 f9be

exp_avg f4 [128, 24]
0.011498146 0.010582476 0.008968998 0.004986231 0.005508004 0.018495938 0.004514167 0.0018299023
0.0025610814 0.018495824 4.852214e-08 4.3359186e-08 2.2846942e-08 1.06963505e-07 0.011699621 0.011226
0.008480438 0.018496051 9.95193e-05 9.220107e-05 1.6447824e-05 0.0002796346 0.010569644 0.006165311
6e-45 6e-45 6e-45 6e-45 6e-45 6e-45 6e-45 6e-45
6e-45 6e-45 6e-45 6e-45 6e-45 6e-45 6e-45 6e-45
6e-45 6e-45 6e-45 6e-45 6e-45 6e-45 6e-45 6e-45
6e-45 6e-45 6e-45 6e-45 6e-45 6e-45 6e-45 6e-45
6e-45 6e-45 6e-45 -6e-45 6e-45 6e-45 6e-45 6e-45
6e-45 6e-45 6e-45 6e-45 6e-45 6e-45 6e-45 6e-45
-0.06958764 -0.022265784 -0.043865994 -0.0154327415 -0.02943715 -0.09885014 -0.020057483 0.0014359559
-0.01368759 -0.09885018 -7.603959e-08 -2.116007e-08 -3.686137e-08 -1.7257537e-07 -0.058459215 -0.048781242
-0.04532236 -0.09885031 -0.028690316 -0.088011384 -0.076167904 -0.093148395 -0.055142783 -0.032950092
-0.21441413 -0.06860791 -0.13516092 -0.047552478 -0.09070224 -0.30457878 -0.061801724 0.0044236463
-0.04217444 -0.3045789 -2.3586844e-07 -6.6320084e-08 -1.14328486e-07 -5.352563e-07 -0.18012582 -0.15030645
-0.13964802 -0.3045793 -0.08839939 -0.27117658 -0.23468491 -0.28700483 -0.16990703 -0.1015264
-0.14230776 -0.045534566 -0.08970678 -0.03156048 -0.060199473 -0.20215024 -0.041017972 0.002936297
-0.027991356 -0.20215032 -1.5613143e-07 -4.372135e-08 -7.5682145e-08 -3.5432456e-07 -0.119550176 -0.09975873
-0.09268499 -0.20215058 -0.058671713 -0.17998317 -0.15576322 -0.1904885 -0.112767994 -0.067383505
0.31356117 0.100334994 0.19766109 0.06954207 0.132644 0.44541937 0.09037978 -0.0064683924
0.061676376 0.4454196 3.46188e-07 9.786484e-08 1.6779185e-07 7.855578e-07 0.26341823 0.2198107
0.20422284 0.4454202 0.12927471 0.39656654 0.34320137 0.41971406 0.24847408 0.14847335
0.20191513 0.06461084 0.12728247 0.044781473 0.08541509 0.28682446 0.05819947 -0.004164897
0.03971603 0.28682455 2.2352188e-07 6.343107e-08 1.08333154e-07 5.071881e-07 0.16962628 0.14154579
0.13150774 0.28682494 0.08324478 0.25536367 0.22099991 0.2702694 0.16000302 0.095608294
6e-45 6e-45 6e-45 6e-45 6e-45 6e-45 6e-45 6e-45
6e-45 6e-45 6e-45 6e-45 6e-45 6e-45 6e-45 6e-45
6e-45 6e-45 -6e-45 -6e-45 -6e-45 -6e-45 6e-45 6e-45
6e-45 6e-45 6e-45 6e-45 6e-45 6e-45 6e-45 6e-45
6e-45 6e-45 6e-45 6e-45 6e-45 6e-45 6e-45 6e-45
6e-45 6e-45 6e-45 6e-45 6e-45 6e-45 6e-45 6e-45
6e-45 6e-45 6e-45 6e-45 6e-45 6e-45 6e-45 6e-45
6e-45 6e-45 6e-45 6e-45 6e-45 6e-45 0.0 0.0
00000000: b862 3c3c 1f62 2d3c b4f2 123c 8a63 a33b
00000010: 7d7c b43b cb84 973c 94eb 933b 55d9 ef3a
00000020: d1d7 273b 8e84 973c a866 5033 ee39 3a33
00000030: f540 c432 cfb3 e533 c4af 3f3c 42ed 373c
00000040: 89f1 0a3c 0885 973c 04b5 d038 135c c138
00000050: 6ff9 8937 ec9b 9239 4d2c 2d3c 6106 ca3b
00000060: 0400 0000 0400 0000 0400 0000 0400 0000
00000070: 0400 0000 0400 0000 0400 0000 0400 0000
00000080: 0400 0000 0400 0000 0400 0000 0400 0000
00000090: 0400 0000 0400 0000 0400 0000 0400 0000
000000a0: 0400 0000 0400 0000 0400 0000 0400 0000
000000b0: 0400 0000 0400 0000 0400 0000 0400 0000
000000c0: 0400 0000 0400 0000 0400 0000 0400 0000
000000d0: 0400 0000 0400 0000 0400 0000 0400 0000
000000e0: 0400 0000 0400 0000 0400 0000 0400 0080
000000f0: 0400 0000 0400 0000 0400 0000 0400 0000
00000100: 0400 0000 0400 0000 0400 0000 0400 0000
00000110: 0400 0000 0400 0000 0400 0000 0400 0000
00000120: f783 8ebd bc66 b6bc d4ac 33bd 9cd9 7cbc
00000130: 2e26 f1bc f171 cabd 974f a4bc af36 bc3a
00000140: ea41 60bc f771 cabd 354b a3b3 7cc3 b5b2
00000150: 8151 1eb3 284d 39b4 ee72 6fbd d7ce 47bd
00000160: f0a3 39bd 0872 cabd f407 ebbc 503f b4bd
00000170: ebfd 9bbd 96c4 bebd 66dd 61bd adf6 06bd
00000180: 618f 5bbe 4e82 8cbd a067 0abe 63c6 42bd
00000190: 19c2 b9bd c0f1 9bbe ce23 7dbd 3cf4 903b
000001a0: 1bbf 2cbd c4f1 9bbe 0643 7db4 da6b 8eb3
000001b0: c084 f5b3 88ae 0fb5 e772 38be efe9 19be
000001c0: e4ff 0ebe d1f1 9bbe bd0a b5bd a8d7 8abe
000001d0: 3e51 70be 4cf2 92be 1cfc 2dbe 13ed cfbd
000001e0: 20b9 11be 7482 3abd 30b8 b7bd 9045 01bd
000001f0: b993 76bd 7900 4fbe 7602 28bd e46e 403b
00000200: 214e e5bc 7e00 4fbe 15a5 27b4 22c8 3bb3
00000210: b386 a2b3 ff39 beb4 b9d6 f4bd 4e4e ccbd
00000220: a1d1 bdbd 9000 4fbe c051 70bd 824d 38be
00000230: 6580 1fbe 6b0f 43be e8f2 e6bd 5d00 8abd
00000240: 178b a03e 6f7c cd3d ab67 4a3e 136c 8e3d
00000250: d4d3 073e 020e e43e 0919 b93d cff4 d3bb
00000260: 5ea0 7c3d 0a0e e43e b7db b934 c429 d233
00000270: 462a 3434 1fdf 5235 c1de 863e 0e16 613e
00000280: cb1f 513e 1e0e e43e 9760 043e c50a cb3e
00000290: 17b8 af3e c3e4 d63e fd6f 7e3e 6609 183e
000002a0: d7c2 4e3e b052 843d 5656 023e c76c 373d
000002b0: 1bee ae3d a8da 923e 9162 6e3d b079 88bb
000002c0: 47ad 223d abda 923e 3a01 7034 9937 8833
000002d0: c8a4 e833 b325 0835 83b2 2d3e 61f1 103e
000002e0: f7a9 063e b8da 923e 3d7c aa3d 07bf 823e
000002f0: cd4d 623e c060 8a3e d5d7 233e 48ce c33d
00000300: 0400 0000 0400 0000 0400 0000 0400 0000
00000310: 0400 0000 0400 0000 0400 0000 0400 0000
00000320: 0400 0000 0400 0000 0400 0000 0400 0000
00000330: 0400 0000 0400 0000 0400 0000 0400 0000
00000340: 0400 0000 0400 0000 0400 0080 0400 0080
00000350: 0400 0080 0400 0080 0400 0000 0400 0000
00000360: 0400 0000 0400 0000 0400 0000 0400 0000
00000370: 0400 0000 0400 0000 0400 0000 0400 0000
00000380: 0400 0000 0400 0000 0400 0000 0400 0000
00000390: 0400 0000 0400 0000 0400 0000 0400 0000
000003a0: 0400 0000 0400 0000 0400 0000 0400 0000
000003b0: 0400 0000 0400 0000 0400 0000 0400 0000
000003c0: 0400 0000 0400 0000 0400 0000 0400 0000
000003d0: 0400 0000 0400 0000 0400 0000 0400 0000
000003e0: 0400 0000 0400 0000 0400 0000 0400 0000
000003f0: 0400 0000 0400 0000 0000 0000 0000 0000

exp_avg_sq f4 [128, 24]
4.1345644 2.3180315 1.683126 1.5825016 4.1069794 8.638865 0.8183175 0.9068406
0.55116093 3.3935153 0.93440896 2.0756586 3.060279 8.755905 2.0485249 1.7507313
2.3878565 6.7201676 0.81686866 3.245007 1.2889794 7.6517754 4.1745605 3.1975868
9.727574e-18 2.586765e-17 4.7022244e-28 5.128878e-28 2.456397e-26 2.9469782e-26 7e-43 7e-43
7e-43 7e-43 1.15523846e-17 4.2184344e-20 2.7641129e-17 7.651058e-17 7e-43 7e-43
7e-43 7e-43 7e-43 7e-43 7e-43 7e-43 4.103697e-17 3.404498e-17
7e-43 7e-43 7e-43 7e-43 7e-43 7e-43 7e-43 7e-43
7e-43 7e-43 7e-43 7e-43 7e-43 7e-43 7e-43 7e-43
7e-43 7e-43 7e-43 7e-43 7e-43 7e-43 7e-43 7e-43
1.0493774 1.9541316 0.1621771 0.15893982 0.37767783 0.80848116 0.8907304 0.10226169
2.301446 2.9721596 0.3858236 0.69428587 1.9624431 3.4003623 0.69715154 0.28198028
0.23815978 3.2171755 1.2440236 2.6202362 0.6376471 3.3227093 1.3868195 0.6112593
9.503747 16.962923 1.582076 1.5177708 3.7477887 8.007269 7.67804 1.0184757
19.668034 25.733528 3.4059505 6.157789 17.138645 30.136345 6.2127795 2.6233492
2.3439744 28.338219 10.707023 22.728462 5.5803337 29.302532 12.3581 5.5996985
4.229467 7.651287 0.68622434 0.65588444 1.6253339 3.4651704 3.4665713 0.43653336
8.912735 11.598792 1.526364 2.7498755 7.724707 13.503787 2.7826948 1.1572068
1.0201269 12.733401 4.843827 10.2516165 2.5042746 13.153291 5.5195985 2.4702246
19.123884 33.534748 3.2253444 2.9819446 7.804512 16.69178 15.024775 2.031796
38.493076 50.4114 6.772349 12.154683 34.02531 60.149952 12.497055 5.403407
4.9915943 56.55789 21.086245 44.835457 10.960064 58.3751 24.596199 11.088315
7.9078393 13.658109 1.3770436 1.2646056 3.3505313 7.1511354 6.112371 0.8202796
15.522803 20.476067 2.7480974 4.9277434 13.875572 24.66221 5.1360087 2.2566
2.0992126 23.129917 8.57366 18.289816 4.487168 23.972443 10.086346 4.592673
7e-43 7e-43 7e-43 7e-43 7e-43 7e-43 7e-43 7e-43
7e-43 7e-43 7e-43 7e-43 7e-43 7e-43 7e-43 7e-43
7e-43 7e-43 7e-43 7e-43 7e-43 7e-43 7e-43 7e-43
7e-43 7e-43 7e-43 7e-43 7e-43 7e-43 7e-43 7e-43
7e-43 7e-43 7e-43 7e-43 7e-43 7e-43 7e-43 7e-43
7e-43 7e-43 5.321e-42 8.19e-42 7.588e-42 1.2965e-41 4.567e-42 1.547e-42
7e-43 7e-43 7e-43 7e-43 7e-43 7e-43 7e-43 7e-43
7e-43 7e-43 7e-43 7e-43 7e-43 7e-43 0.0 0.0
00000000: 5a4e 8440 a15a 1440 ac70 d73f 6a8f ca3f
00000010: 606c 8340 cb38 0a41 417d 513f b526 683f
00000020: e218 0d3f 5b2f 5940 6d35 6f3f 97d7 0440
00000030: 9cdb 4340 3018 0c41 081b 0340 f717 e03f
00000040: a4d2 1840 9d0b d740 4e1e 513f 32ae 4f40
00000050: 47fd a43f 58db f440 0096 8540 43a5 4c40
00000060: 2b71 3323 4396 ee23 fa04 1512 678a 2212
00000070: 1045 f314 63ed 1115 f401 0000 f401 0000
00000080: f401 0000 f401 0000 981a 5523 be35 471f
00000090: c5f1 fe23 e06b b024 f401 0000 f401 0000
000000a0: f401 0000 f401 0000 f401 0000 f401 0000
000000b0: f401 0000 f401 0000 e73f 3d24 3801 1d24
000000c0: f401 0000 f401 0000 f401 0000 f401 0000
000000d0: f401 0000 f401 0000 f401 0000 f401 0000
000000e0: f401 0000 f401 0000 f401 0000 f401 0000
000000f0: f401 0000 f401 0000 f401 0000 f401 0000
00000100: f401 0000 f401 0000 f401 0000 f401 0000
00000110: f401 0000 f401 0000 f401 0000 f401 0000
00000120: 0052 863f fc20 fa3f c111 263e 1fc1 223e
00000130: fd5e c13e 9ff8 4e3f e806 643f 946e d13d
00000140: e44a 1340 dd37 3e40 ac8a c53e b8bc 313f
00000150: 5631 fb3f 899f 5940 8678 323f b85f 903e
00000160: 28e0 733e 34e6 4d40 2a3c 9f3f f3b1 2740
00000170: d73c 233f 45a7 5440 4d83 b13f 7d7b 1c3f
00000180: 590f 1841 11b4 8741 7781 ca3f 5046 c23f
00000190: c5db 6f40 c61d 0041 81b2 f540 695d 823f
000001a0: 2258 9d41 44de cd41 18fb 5940 9c0c c540
000001b0: f21b 8941 3c17 f141 17cf c640 f4e4 2740
000001c0: ad03 1640 acb4 e241 f74f 2b41 e4d3 b541
000001d0: 1892 b240 966b ea41 c7ba 4541 bb30 b340
000001e0: cb57 8740 58d7 f440 66ac 2f3f 0be8 273f
000001f0: f10a d03f 5ac5 5d40 4edc 5d40 4d81 df3e
00000200: 909a 0e41 a794 3941 e55f c33f f6fd 2f40
00000210: cd30 f740 830f 5841 ac17 3240 5a1f 943f
00000220: 8593 823f 03bc 4b41 a100 9b40 9f06 2441
00000230: 0946 2040 e173 5241 8da0 b040 2918 1e40
00000240: b7fd 9841 9523 0642 0b6c 4e40 2ed8 3e40
00000250: 90be f940 c488 8541 7a65 7041 f208 0240
00000260: e9f8 1942 46a5 4942 15b7 d840 9579 4241
00000270: eb19 0842 8d99 7042 f0f3 4741 b6e8 ac40
00000280: 24bb 9f40 483b 6242 a1b0 a841 8257 3342
00000290: 6c5c 2f41 1a80 6942 04c5 c441 bd69 3141
000002a0: 050d fd40 9d87 5a41 f742 b03f 99de a13f
000002b0: 1b6f 5640 1ad6 e440 8b98 c340 d8fd 513f
000002c0: 675d 7841 fcce a341 d4e0 2f40 13b0 9d40
000002d0: 5802 5e41 354c c541 2f5a a440 226c 1040
000002e0: 8059 0640 120a b941 b62d 0941 8b51 9241
000002f0: e196 8f40 90c7 bf41 ac61 2141 2df7 9240
00000300: f401 0000 f401 0000 f401 0000 f401 0000
00000310: f401 0000 f401 0000 f401 0000 f401 0000
00000320: f401 0000 f401 0000 f401 0000 f401 0000
00000330: f401 0000 f401 0000 f401 0000 f401 0000
00000340: f401 0000 f401 0000 f401 0000 f401 0000
00000350: f401 0000 f401 0000 f401 0000 f401 0000
00000360: f401 0000 f401 0000 f401 0000 f401 0000
00000370: f401 0000 f401 0000 f401 0000 f401 0000
00000380: f401 0000 f401 0000 f401 0000 f401 0000
00000390: f401 0000 f401 0000 f401 0000 f401 0000
000003a0: f401 0000 f401 0000 d50e 0000 d516 0000
000003b0: 2715 0000 2424 0000 bb0c 0000 5004 0000
000003c0: f401 0000 f401 0000 f401 0000 f401 0000
000003d0: f401 0000 f401 0000 f401 0000 f401 0000
000003e0: f401 0000 f401 0000 f401 0000 f401 0000
000003f0: f401 0000 f401 0000 0000 0000 0000 0000
