logs/fast_td_policy.pth (torch, 320449 bytes, 10 tensors)

fc1.weight f4 [256, 24]
000000 60 8c 00 be 08 68 10 be ba 34 94 3d 92 00 4e 3a
       -0.12553549 -0.14102185 0.07236619 0.00078583614
000010 4d 60 2f 3e 02 67 6d bd 39 44 07 bd 10 53 29 3e
       0.1712658 -0.057959564 -0.033024047 0.16535592
000020 c2 40 39 be 79 fb ec bc 1d 7f c2 bd 10 86 23 3d
       -0.1809111 -0.028928505 -0.09496901 0.039922774
000030 86 ce 53 3d 84 a1 0f 3e 6e 85 8b 3d 8c 9c af bd
       0.051710628 0.14026457 0.06812559 -0.08574781
000040 40 c2 23 be 63 bb ed 3c 62 e4 88 bd 8b 7b 13 bd
       -0.15992069 0.029020017 -0.066841856 -0.03600649
000050 1e 76 49 3c fb 1b 5f bd e3 69 15 3e 47 d9 ed bd
       0.012296228 -0.054470044 0.14591174 -0.11613708
000060 75 0e a0 bd 45 e6 e6 3b 98 14 19 be 60 89 51 bd
       -0.078152575 0.0070464932 -0.14949262 -0.0511564
000070 65 1b 5b 3e 2d 14 f0 3d a1 45 16 be 10 f5 41 be
       0.21397169 0.11722598 -0.14674999 -0.1894114
000080 25 f9 19 be 07 05 a8 3d 83 b1 ae bc f1 13 3e be
       -0.15036447 0.08204084 -0.021324879 -0.18562295
000090 4c b6 6b bd ab 24 fa 3d b7 d3 3b be a3 4c 35 bd
       -0.0575469 0.12214025 -0.18342482 -0.04426254
0000a0 f4 d1 1a be 4b 97 43 3e 51 46 29 bd ce 7f 05 be
       -0.15119153 0.19100682 -0.041326825 -0.13037035
0000b0 5a 21 32 be 84 3b 10 be 75 5f ea 3d 39 c2 bc bb
       -0.17395535 -0.14085203 0.11443988 -0.005760458
0000c0 f7 55 2e 3e 33 2c d5 bd 24 74 24 3e 5a 27 a2 3d
       0.1702498 -0.10408821 0.16059929 0.07917662
0000d0 e3 41 0b be 1d 2c 57 3e 53 3e 35 3e fc 19 b4 bd
       -0.13599353 0.21012922 0.17699556 -0.087940186
0000e0 e8 07 7f bd 05 33 bb bd 00 2a 58 3d 22 11 45 bd
       -0.0622634 -0.091405906 0.05277443 -0.048112042
0000f0 ab 32 d1 bd b6 49 dd bc 19 fa 02 3e b0 f5 d4 bc
       -0.10214742 -0.027012687 0.12790717 -0.02599606
000100 f1 fe 4e bc 80 6c 10 3e 9b 21 d5 3d 6f c0 18 be
       -0.012634025 0.1410389 0.104068 -0.14917158
000110 6f c4 c5 bd 10 c1 e8 3d 2a 74 4f 3e 8b a0 42 3e
       -0.09656607 0.11364949 0.20259157 0.19006555
000120 1e 3d 07 bd e7 8c 8b bd a0 bd c5 3d ad 2f b7 bd
       -0.03301727 -0.06813984 0.09655309 -0.0894464
000130 fa b6 bc bd 90 63 b7 3d 60 e0 4d bd 81 e2 10 bd
       -0.092145875 0.08954537 -0.05026281 -0.03537226
000140 29 96 4d 3e 1c 7f c0 bc 71 4d 33 be 23 24 3d 3e
       0.20076813 -0.02349811 -0.1751001 0.18470816
000150 7f d6 13 bd 15 b7 39 be a3 ed 24 3e c9 41 f2 bd
       -0.03609323 -0.18136247 0.16106276 -0.11828954
000160 0a 3b 40 be da d2 20 bd 99 aa bb bd 28 b2 94 bc
       -0.18772522 -0.039263584 -0.09163398 -0.018151358
000170 34 fe 37 3d a1 c7 45 3e 84 88 c3 3d 0b 4c 0a be
       0.04492016 0.19314434 0.09547523 -0.1350557
000180 17 a8 bf bd 0a 38 ed bd 93 9a c9 bd 40 67 e5 bd
       -0.093582325 -0.11582954 -0.09843936 -0.11201334
000190 08 6a b6 bd cc a3 14 3e b3 86 08 3e 60 6a 46 be
       -0.089069426 0.14515609 0.13332634 -0.19376516
0001a0 30 79 c9 bd f4 17 18 3e 77 11 1c 3d b4 4b 34 be
       -0.09837568 0.14852887 0.038102593 -0.17607003
0001b0 28 33 79 bc 92 89 09 be 32 94 1f 3e 71 72 61 3d
       -0.0152099505 -0.13431385 0.15583876 0.05504078
0001c0 0e a1 b0 3d d6 50 21 3b 7f 40 02 be 46 02 46 3d
       0.08624469 0.0024614832 -0.12719916 0.048342012
0001d0 63 39 0a 3e 9b 2b 14 be db a9 98 bd d0 c4 74 3c
       0.13498454 -0.14469759 -0.07454272 0.014939502
0001e0 03 cb f8 bc 72 b1 8c 3d b4 78 a2 bd 34 09 16 be
       -0.030370241 0.068697825 -0.079331785 -0.14651948
0001f0 6d cc 30 be 3e 63 22 3e 43 d3 3c 3d 22 f1 0c 3e
       -0.17265482 0.1585817 0.046099912 0.1376386
000200 04 ca 02 3e 7c c7 85 3d cc 93 a7 3c 92 39 21 be
       0.12772375 0.06532189 0.020456217 -0.15744618
000210 04 0a 48 3e 46 35 3f bd 26 57 d0 3d 88 3f 0f be
       0.1953507 -0.046681665 0.10172872 -0.13989079
000220 fb f6 97 3d a7 75 83 bd 0c c3 24 be 69 93 1e 3e
       0.07420155 -0.06418925 -0.1609003 0.1548592
000230 40 6e 37 be 02 ae e9 3d 75 df 42 be 5c 85 22 3e
       -0.17913151 0.114101425 -0.19030555 0.15871185
000240 1c 9e 55 3c 86 ba 51 bd 1d d2 e4 bd 25 b3 1b bd
       0.0130381845 -0.051203273 -0.111728884 -0.038012642
000250 c2 58 d9 bd 4e f9 2c bc c6 b8 3c be a8 d3 20 be
       -0.10612632 -0.010557486 -0.1842986 -0.1570574
000260 40 e9 e8 bb 15 05 47 be 40 c8 67 3d 80 5f 8e bd
       -0.0071078837 -0.19435532 0.056587458 -0.06951809
000270 51 04 4a be 77 3a 41 be 77 98 61 3d f1 66 b4 bd
       -0.19728209 -0.18869959 0.055077042 -0.08808697
000280 04 d2 ac bd 9e 12 10 3d 50 10 d0 3d d0 6a 98 3d
       -0.08438495 0.035174005 0.10159361 0.07442248
000290 bb f5 e8 bd 38 0b 7a bd 90 c4 7f bc 83 4a a2 3d
       -0.11374994 -0.061045855 -0.015610829 0.07924368
0002a0 f9 5b e9 3d 8b fc 25 be a2 c7 0f be 95 0c 1f 3e
       0.113944955 -0.16209619 -0.14040998 0.15532143
0002b0 72 a5 a1 3d 66 9a 8c 3d 9c 27 69 bd 5a 85 6a 3d
       0.07892884 0.06865387 -0.05692254 0.05725608
0002c0 7a c5 79 bc cf f9 75 3d e0 cd 72 bc 4b 08 41 3e
       -0.015244836 0.06005269 -0.014819592 0.1885082
0002d0 ad 4e d9 bc b6 7f 3f be 71 dc fd 3d 21 c8 55 3e
       -0.026526773 -0.18701062 0.123955615 0.20877124
0002e0 ee bb ab 3d aa 70 05 3d dc 2a fd bd be d7 03 be
       0.08385454 0.032578148 -0.123616904 -0.12875268
0002f0 aa 84 22 3e 4a 29 05 3e 53 9d 5a 3e 07 0e 3b 3e
       0.1587092 0.13004032 0.21349077 0.1826707
000300 0d 1e 0b 3e 5c 46 29 3e 0a 3c 39 be 8a 7f 10 be
       0.13585682 0.16530746 -0.1808931 -0.14111152
000310 4f 93 02 be ec 6b 6f 3d a4 9b 25 be 84 a9 48 bc
       -0.12751506 0.05845253 -0.16172653 -0.012247447
000320 88 65 13 be 88 8a 4c 3e 24 5b 1a 3e 8a b8 d9 bd
       -0.143942 0.1997472 0.1507383 -0.10630901
000330 c5 84 53 3e 13 0f 19 be c3 b1 3c 3d c7 eb 2b 3d
       0.20656116 -0.14947157 0.046067964 0.0419729
000340 8e 52 54 3e ea 71 47 3e 39 86 28 be a7 2f 7b 3d
       0.20734617 0.19477049 -0.16457452 0.06132474
000350 7b 4e f8 bd d1 bd c0 bd 87 c0 8b 3d c4 31 93 bd
       -0.12124344 -0.094112046 0.06823831 -0.071872264
000360 38 9e 8a 3a 6a f1 b0 3d e6 df 30 3e b5 ea 00 3e
       0.0010575717 0.08639796 0.1727291 0.12589534
000370 e6 35 19 3e 87 2e 95 3c 58 77 0f 3e ca 01 08 be
       0.14961967 0.018210663 0.1401037 -0.13281932
000380 b7 9e 17 3e 22 2a 18 3e 53 11 01 3e 08 23 2b be
       0.14806639 0.14859822 0.12604265 -0.16712582
000390 e9 71 40 be 31 dd dc bd 52 cb f5 3d 9e 32 24 be
       -0.18793453 -0.107843764 0.12001671 -0.16034934
0003a0 4c 41 79 bd 88 9d 06 be 46 04 49 be dd 8f 8a bd
       -0.060853288 -0.13146031 -0.19630536 -0.06765721
0003b0 60 17 9b 39 b8 e8 87 bc 65 e9 70 bd 8e 25 35 3e
       0.0002958132 -0.016590461 -0.058816332 0.17690107
0003c0 a6 79 4a be 74 b9 65 ba ba 04 44 3e 1c 9a 09 bd
       -0.19772968 -0.00087632914 0.19142428 -0.033594236
0003d0 fb 6f 00 be 9f ef 39 be c1 a4 b2 3d a9 80 01 be
       -0.12542717 -0.18157814 0.087228306 -0.12646736
0003e0 4e 81 0f be 37 72 75 3d 11 08 3a be e0 8c f1 3d
       -0.1401417 0.059923377 -0.1816714 0.11794448
0003f0 70 ac 69 bc d0 2a ee bd b0 7f a0 bc 80 fc ae 3a
       -0.014262304 -0.116292596 -0.019592136 0.0013350397

fc1.bias f4 [256]
000000 f1 db c0 3d 5f fa aa bd 14 37 07 3e 41 3a 2a be
       0.094169505 -0.08348536 0.13204604 -0.16623785
000010 8c 48 db 3d 96 4f 4a bd ab 2e 54 3c 26 a1 21 bc
       0.107071966 -0.049392305 0.01295058 -0.009865081
000020 32 1a 3e 3e 3b 50 a8 bd 6c 6a c9 bd 72 21 18 3e
       0.1856468 -0.08218428 -0.098347515 0.14856508
000030 bf 9b 9f 3d ed ff f7 bd 30 09 e7 3d 5f 08 33 3d
       0.07793378 -0.12109361 0.11281049 0.043709155
000040 c5 95 ca 3b 5c 3c 0d bd 99 4d 03 3e ef 80 aa bc
       0.0061824047 -0.03448139 0.1282257 -0.020813433
000050 c8 ff 20 be dd 50 33 be 09 23 2e be c8 fc 9e bd
       -0.15722573 -0.17511316 -0.17005552 -0.07763058
000060 38 9f 17 bb c0 2b 44 be 89 b8 39 3e 7e 8c cd 3d
       -0.0023135673 -0.19157314 0.18136801 0.100365624
000070 5c 5f 23 3e d9 c4 05 3e a0 4b 1d be 65 6c 07 3b
       0.15954345 0.13063373 -0.1536088 0.0020663973
000080 c8 01 00 3e 50 c2 18 be 1a 05 b2 bc f3 7b 0b 3e
       0.1250068 -0.14917874 -0.021730948 0.13621502
000090 f7 a0 5a 3e a7 41 2f 3d 5e c6 1d be 8e 00 a0 bd
       0.21350466 0.04278722 -0.15407702 -0.07812606
0000a0 dc 8f 2b 3e 80 8a 02 3e 85 a8 b2 bc e7 e1 d1 3d
       0.16754097 0.12748146 -0.021808872 0.102481656
0000b0 c7 2f a5 bb c7 50 11 3e 6a 56 4c 3d d4 ce 09 bd
       -0.005041096 0.1419097 0.0498871 -0.033644512
0000c0 14 8c 20 be 1f 55 88 bd c6 0d d9 bc 47 6c 6e 3d
       -0.15678436 -0.066568606 -0.026495825 0.05820873
0000d0 3e 95 12 bd df 49 44 bd cb 12 36 3d 88 32 38 3e
       -0.03578686 -0.04792201 0.044451516 0.17988026
0000e0 fa 43 c3 bd 89 80 fe bd 6e 32 08 3e 5c 70 04 3e
       -0.0953445 -0.1242686 0.13300487 0.12933487
0000f0 20 a1 08 3e 67 86 40 be de 6e b1 3c 02 e7 31 3e
       0.13342714 -0.1880127 0.02165931 0.17373279
000100 a8 c6 31 3e 6c 30 bd bd 6d f8 48 bd e6 41 2b bc
       0.17360938 -0.09237751 -0.049065042 -0.010452723
000110 70 e6 3c bd 3c 14 cd bd 79 58 41 be 47 1e 1c 3d
       -0.0461182 -0.10013625 -0.18881406 0.038114812
000120 36 43 5e 3d fc 16 5c 3d 6f 9c 3c 3e 71 33 34 3d
       0.054263316 0.053732857 0.1841905 0.04399437
000130 03 35 65 bc 62 c0 92 bd 9b b4 be 3d de bf e5 bd
       -0.01398969 -0.071656 0.093117915 -0.112182364
000140 f3 e4 41 3e a5 29 44 bc c9 f3 29 be 97 47 39 3e
       0.18934993 -0.011972819 -0.16596903 0.18093716
000150 41 f2 46 be 54 f5 03 bd 8d 6d 3b 3e 8a fc 16 bd
       -0.1942835 -0.032216385 0.18303509 -0.036861934
000160 de d5 3a 3e 2d a1 69 3d 29 73 2d 3e af c5 0c 3e
       0.18245646 0.057038475 0.16938461 0.13747285
000170 27 4e 33 3d 49 3a 20 be a3 58 4f be b3 09 4a be
       0.043775704 -0.15647234 -0.20248656 -0.19730262
000180 db 6c 1d 3e 79 d4 fd 3d 3d c5 11 be 50 d4 f9 bc
       0.15373556 0.123940416 -0.14235397 -0.030496746
000190 9c 95 0f 3e 2f f2 27 be 98 12 47 be 46 52 d3 3d
       0.14021915 -0.1640098 -0.19440687 0.10318427
0001a0 b2 55 a3 3d b1 f9 4c be f4 25 2f bd 9b 59 b8 bd
       0.079753295 -0.20017125 -0.042760804 -0.09001466
0001b0 7d 80 06 be df ea f8 bb fa ae 10 3e a1 ef 45 3e
       -0.13134952 -0.007596358 0.14129248 0.19329692
0001c0 68 dd 68 bc f2 d2 de 3d ea 08 62 3c f8 2d 2d bb
       -0.014212944 0.108800784 0.013796071 -0.0026425105
0001d0 8d a6 2e 3e 79 d8 20 be 89 a0 3b bd 1e ea 1b be
       0.17055722 -0.15707578 -0.045807395 -0.15226027
0001e0 f4 f9 af bd 9e cb 33 be ec f1 2b 3e 37 f2 cb 3c
       -0.08592597 -0.17558143 0.16791505 0.02489577
0001f0 05 e1 70 3c cd 28 16 be 85 65 44 bc e2 6d 35 3e
       0.014702086 -0.14664002 -0.011987095 0.17717698
000200 d6 21 49 bc 01 2b e5 3c c6 fd 10 be 85 87 f7 bd
       -0.0122761335 0.027974607 -0.14159307 -0.12086395
000210 de 66 a3 bd 83 c0 8f bd 3d 05 b4 3d 07 f5 e3 bd
       -0.07978605 -0.070191406 0.087900616 -0.1113072
000220 39 af 57 bd 78 ce 15 be 01 d2 00 bd ee a9 11 bd
       -0.05265734 -0.14629543 -0.031450275 -0.03556245
000230 ab 15 87 bd 87 eb 57 bc 2a 0d 24 3d cc c3 34 3e
       -0.0659593 -0.013178713 0.040051617 0.17652816
000240 1e 3a f9 3b 99 4b 34 be bb 90 33 3d b7 97 25 3e
       0.007605805 -0.17606963 0.043839198 0.16171156
000250 7d 6e 6c 3d 79 cf 1c 3c 8e ce 1f be c5 b1 54 bc
       0.057722557 0.00957095 -0.15606138 -0.012981837
000260 43 ec a9 3c 0a 9d 2c be 54 c4 46 bc 6e 77 04 3e
       0.020742541 -0.1685678 -0.012131769 0.12936184
000270 b5 b3 24 3e 31 2b 28 3a 0c e2 51 3e 9d 95 dc 3c
       0.16084178 0.00064151274 0.20496386 0.02692681
000280 5b 88 97 3d cc a2 26 be 44 04 3e bd 75 f2 35 be
       0.073990546 -0.1627304 -0.046390787 -0.17768271
000290 35 58 2e 3d 29 97 1d 3e 75 2a 44 3e 6b fc 38 3d
       0.04256459 0.15389694 0.19156821 0.0451626
0002a0 47 d5 ac bd a7 9f c5 bd bd 10 30 be 26 5b bf bd
       -0.08439117 -0.09649592 -0.17193885 -0.09343557
0002b0 4e 5b 88 bd 56 2a 26 bd 82 f9 8e bd 33 54 0d 3e
       -0.0665804 -0.04056772 -0.069811836 0.1380165
0002c0 68 bc 5e 3e 8b 9a d5 3d 0a 7d b0 bc 63 48 d2 bc
       0.21751559 0.10429867 -0.021543998 -0.025669282
0002d0 cf ee 61 3e 77 c3 3f 3e fc 49 05 be 71 9f cc 3d
       0.22063754 0.18726908 -0.13016504 0.099913485
0002e0 2a 06 a0 3d ca 2c 6c bd 9d 76 87 bd 4e 81 0e 3e
       0.07813676 -0.0576599 -0.066144206 0.13916513
0002f0 02 89 37 3d 96 f4 23 3e 0c bb a2 bd 38 ce c4 bd
       0.044808395 0.16011271 -0.079458326 -0.096096456
000300 f1 46 51 be 42 d6 d2 3d 40 ac 86 3c c7 55 10 be
       -0.20437218 0.10294773 0.016439557 -0.14095221
000310 88 fa b0 3d 27 df 00 be 27 50 28 be 56 97 f7 3d
       0.08641535 -0.12585126 -0.16436826 0.12089412
000320 cf 81 78 bd 5f c7 de 3d bd 88 3b 3e 1f b5 0a be
       -0.06067067 0.10877871 0.1831388 -0.13545655
000330 9d df a9 bd 09 16 2f 3e f2 e2 1c 3c 28 36 38 3e
       -0.08294604 0.1709825 0.009575592 0.17989409
000340 13 40 0d bd 56 39 cf bc f1 d2 18 3e c6 e3 74 bc
       -0.034484934 -0.025295895 0.14924218 -0.014946884
000350 58 3f 8e bd 5a 5e ee bb 89 57 6e bc fb 4c 4a bd
       -0.069456756 -0.007274431 -0.014547237 -0.04938982
000360 22 50 22 3d 64 f1 f6 3d fb 77 04 be fc b6 83 3d
       0.0396272 0.1205776 -0.12936394 0.06431386
000370 31 b5 1b 3e c9 e2 0f 3e 59 29 eb bd 93 d6 1b be
       0.15205838 0.14051355 -0.11482496 -0.15218572
000380 98 58 2b 3e 22 cd 3a 3d a7 b3 3d 3e 38 61 fc 3d
       0.16733015 0.045605786 0.18525563 0.123232305
000390 59 5f 25 3e 7f bf e0 bd 07 c3 87 3d e3 2a 33 3e
       0.16149653 -0.10974025 0.066289954 0.17496829
0003a0 5c ab 8b 3d 1c d4 16 3d 9b 76 3b be 39 cd 48 bd
       0.068197936 0.036823377 -0.18306963 -0.04902384
0003b0 76 65 dd bd 49 97 34 be 14 16 43 3e 7a 01 00 3e
       -0.10810368 -0.17635836 0.19051391 0.12500563
0003c0 7f 9c 52 3e 46 a6 3b be 79 16 c5 bd bf 61 0d 3c
       0.20567511 -0.18325147 -0.09623427 0.0086292615
0003d0 4c 06 25 3e 1d d0 0a 3e e7 24 59 bd e8 48 24 3e
       0.16115683 0.13555951 -0.05301371 0.16043437
0003e0 c6 59 18 be d3 8d 0d be 1a f7 37 be 74 3e 08 3e
       -0.14877996 -0.13823633 -0.17965356 0.13305074
0003f0 d5 c5 3f 3c 0e ce 9e bd db d1 3e 3e 82 6d 33 3e
       0.011704882 -0.077541456 0.18634741 0.17522243

fc2.weight f4 [128, 256]
000000 50 31 a7 3c 5f 0f 5b 3c 1f b7 86 bc f8 04 20 3c
       0.020409256 0.013370364 -0.01644474 0.00976681
000010 c4 7b 2f bd 02 66 4b 3d 38 49 24 bc ce 81 a8 3c
       -0.04284264 0.04965783 -0.010027222 0.020569708
000020 02 26 02 bd 06 9b 0c bd 7e 52 58 bd 1a 10 5f bd
       -0.03177453 -0.03432753 -0.052813046 -0.054458715
000030 26 3c c5 3c 2d 82 12 3c c0 db 34 3b 7b 70 49 bc
       0.024076533 0.008942169 0.0027596802 -0.012294884
000040 fd 4b 3b 3d 9d b7 f3 3c 7f f4 51 bd 9a 0a 0e bd
       0.045726765 0.02975064 -0.05125856 -0.03467808
000050 d0 ea 31 3c 78 53 df 3c 50 dc 0c bd 63 79 5e 3d
       0.010859206 0.02726148 -0.034389794 0.054314982
000060 ae bf 07 bd b0 4f 16 bc f3 1a 52 3d 13 d4 8b bc
       -0.033141784 -0.009174272 0.051295232 -0.017068898
000070 09 d1 5d 3d 16 69 06 3d 48 5c ca bc 28 19 7a bd
       0.05415443 0.03281506 -0.024702206 -0.061059147
000080 c0 01 35 bc 9c f4 23 bd f0 37 39 3c ff ba 24 3d
       -0.0110477805 -0.0400282 0.01130484 0.040217396
000090 f4 54 68 bd 80 56 95 bb 9a 2d 0b bd 30 64 e2 3c
       -0.056721643 -0.0045574307 -0.033979036 0.027635664
0000a0 11 d6 4e 3d e1 0e 76 bc 7c 82 f9 bc 5a 2a 50 bc
       0.05049712 -0.015018196 -0.030457728 -0.01270541
0000b0 08 ce 83 3c fd 3e a0 bc a7 5a a6 3c 70 97 0b bd
       0.016089454 -0.019561285 0.020306898 -0.03407997
0000c0 00 f1 b2 bc f5 c5 45 3d 8d b5 27 bc c9 43 a0 bc
       -0.021843433 0.04828449 -0.010236156 -0.019563572
0000d0 88 7f 51 3d 1f 72 4c bd 16 5e 52 3d 79 32 12 bd
       0.051147014 -0.04991352 0.05135926 -0.035692666
0000e0 a6 b3 85 bc cf 00 0c bd 20 28 60 bb 29 9a 69 bc
       -0.016321015 -0.03418046 -0.0034203604 -0.014257946
0000f0 68 19 f3 ba 08 a4 55 3d b2 e4 5c 3d e2 97 7b bc
       -0.0018547 0.052158386 0.05392904 -0.015356036
000100 4b fe 16 bd fa b7 9c 3b 82 8f 2f 3c 93 8d 8e bc
       -0.036863606 0.004782674 0.010715367 -0.017401492
000110 40 17 87 3a c8 55 83 bc 0c 7c c1 bc b2 77 2d 3d
       0.0010306612 -0.016032115 -0.02361872 0.04235048
000120 78 67 4d 3c 65 f7 55 bd 87 df 50 3d 41 ed 41 3b
       0.012536876 -0.052237887 0.050994422 0.0029590877
000130 7b 81 45 3c 0c bb d3 bc 80 79 55 bd c3 53 bf bb
       0.012054796 -0.025846027 -0.052117825 -0.0058388426
000140 30 3f 96 bb c0 5d dc 3a 52 7f 0f bd 11 07 e5 3c
       -0.0045851693 0.0016812608 -0.03503353 0.027957471
000150 f1 a0 82 bd 38 6a 3e 3d 3e 44 3e bd 78 4e 02 bd
       -0.063783534 0.046488017 -0.0464518 -0.031813115
000160 8f 91 38 ba 35 8d 80 bd 26 c8 46 bd dc df 3a bd
       -0.0007040733 -0.06276933 -0.04853072 -0.045623645
000170 e3 84 5e 3d 48 16 3c 3c 3b 73 ac 3c a6 52 7d 3d
       0.05432595 0.011479922 0.02105104 0.061846398
000180 e4 9a 4e 3d 09 2b 4d 3c 8c 9d af 3c c6 10 3c bd
       0.050440684 0.012522467 0.021437429 -0.045914434
000190 7c 44 4e bd 3a 17 65 3d 54 1c 17 3d 97 25 78 bd
       -0.05035828 0.055930354 0.03689225 -0.060582723
0001a0 57 47 1e bd 2e fc 2a bd a6 a2 77 3d a2 54 0d 3d
       -0.038642254 -0.041744404 0.060457848 0.03450454
0001b0 d8 2f 01 bd 3f 61 b7 bc a1 59 3d 3c ea e2 30 bd
       -0.031539768 -0.022385238 0.011557014 -0.043185152
0001c0 d3 bf 5d 3d d6 dd 6b bd be 1f 1e 3d 68 d1 7f bc
       0.054138016 -0.057584606 0.03860449 -0.015613891
0001d0 f5 94 05 3c 46 21 51 bd 30 dc b5 bb 40 1e 15 bb
       0.00815319 -0.051057123 -0.00554993 -0.0022753626
0001e0 3e c8 42 3d 14 da 25 bd 16 e2 20 3d 1a 4d 58 3d
       0.047554247 -0.04049118 0.039278112 0.052807905
0001f0 5c 07 8a bc 80 6a 7e bb 8f 06 82 bd 41 05 0f bd
       -0.016849212 -0.0038820803 -0.06348907 -0.03491712
000200 90 f5 75 3c 7c 67 a2 3c 4c 6b 6d bd fc 06 ce bc
       0.01501216 0.019824736 -0.057963654 -0.025149815
000210 f6 7e 74 3d 18 80 76 3c c6 8b 13 3d 64 48 4c 3d
       0.059691392 0.015045188 0.03602197 0.049873725
000220 f4 af 8f bc 3b 02 f7 3c 45 34 d0 bc 8c c9 8f bc
       -0.017539956 0.03015243 -0.025415549 -0.01755216
000230 aa c9 4f bc f6 c9 0e 3d ee 9e 64 bd 03 1e 47 bd
       -0.012682358 0.034860574 -0.05581563 -0.048612606
000240 54 7e 7d bd d0 d3 52 bd d9 f1 ec 3c e0 6e 08 bd
       -0.061888054 -0.05147153 0.028923916 -0.033308864
000250 3f 2f 30 3d fd d4 80 bd b6 fc 2a bd f0 5e e4 bc
       0.043013807 -0.06290624 -0.04174491 -0.027877301
000260 82 a0 9b 3c ba 18 0f 3d 07 9e 2a 3d 9d 8d 57 3d
       0.018997435 0.03493569 0.041654613 0.052625287
000270 e2 bd 6d bd 30 de d4 3b b8 93 5d bd e8 b3 c1 bc
       -0.058042414 0.0064962134 -0.054095954 -0.023645356
000280 fc 47 8b 3c d2 70 15 3d ec dc 27 3d c5 0b 40 3d
       0.017002098 0.036484547 0.040982172 0.046886224
000290 3f 07 09 3b 56 b2 98 bc 6e a6 5d bd 43 26 2f 3c
       0.002090886 -0.018639725 -0.054113798 0.010690275
0002a0 16 84 5b 3c c9 1b 18 bd 3f a4 4a bd d6 c1 a7 bc
       0.013398191 -0.037135873 -0.049473044 -0.02047817
0002b0 60 f6 ff 3c f0 50 dd bc 00 be 6b 39 f9 d2 1e bd
       0.03124541 -0.027016133 0.00022482127 -0.038775418
0002c0 82 00 4d bc 82 91 22 3c e3 16 5a bd 00 94 43 bd
       -0.012512328 0.009922387 -0.053244483 -0.047748566
0002d0 66 40 26 3d 8e 47 49 3d a8 24 82 bc 9b 69 45 bb
       0.04058876 0.049140505 -0.01588662 -0.003012276
0002e0 04 c4 0f bd 58 a4 48 3d cb bc 33 3d c0 4a 67 bd
       -0.035099044 0.048984855 0.04388122 -0.05646777
0002f0 ac 69 39 3d ce c0 14 bd ee f8 10 bd 80 19 ca bc
       0.045266792 -0.036316685 -0.035393648 -0.024670362
000300 6a c1 59 bd e4 13 c5 3c f8 67 30 3d 52 29 36 3d
       -0.05316297 0.024057336 0.043067902 0.044473
000310 14 f1 1a 3d c4 4f b5 bc 68 a5 58 bd 55 a8 5e 3d
       0.037827566 -0.022132762 -0.05289212 0.054359753
000320 76 61 d3 bc 34 cb 84 bc e0 37 5a 3c a0 83 1f bc
       -0.025803309 -0.016210176 0.013318986 -0.009735972
000330 fa 6d 52 bd 79 08 22 bd 9a 13 08 bd e6 29 19 bd
       -0.051374413 -0.03955886 -0.03322182 -0.037393473
000340 cf 17 39 3d c0 48 60 bb 4b ad 40 bd f8 23 43 bc
       0.04518872 -0.003422305 -0.047040265 -0.011910431
000350 d6 3d 23 bd 78 b7 14 3d 39 0e 1d bd 2e 1b 53 3d
       -0.039853893 0.036307782 -0.038343642 0.051539592
000360 a4 6e 5b bc 88 d9 e9 ba 54 1c eb bc 8b ca 6f bd
       -0.013393078 -0.0017841319 -0.028700031 -0.05854277
000370 75 dd 21 bd 83 dd 80 bb 44 fa ed 3c cb 9a bc 3c
       -0.03951784 -0.0039326563 0.02905 0.02302303
000380 10 a0 c4 bb 73 4d 06 bd 04 b6 72 bd 6c b3 13 bd
       -0.0060005262 -0.032788705 -0.059255615 -0.036059782
000390 3d 73 82 bd 9a 8c 00 3d d1 7a 1e bc 4c 9e 24 bd
       -0.06369636 0.031384088 -0.009672836 -0.040190026
0003a0 78 e6 5a 3c 38 eb 63 bc 68 86 6f 3d 6c 3e 16 3c
       0.013360612 -0.013911061 0.05847779 0.009170156
0003b0 c4 86 cb 3c 90 98 b1 3b d4 b4 20 bd e1 34 29 bd
       0.024844535 0.005419798 -0.03923495 -0.041310195
0003c0 6e a8 6b bd 10 d3 c6 bb 1e 9d df bc 6a 39 43 3d
       -0.057533674 -0.006067641 -0.027296599 0.047662176
0003d0 e8 42 26 bc ae 8c 82 bd 27 e4 8c bc 62 8e 73 bd
       -0.010147788 -0.06374489 -0.017198635 -0.05946196
0003e0 be 04 25 bd 48 c2 47 3d d4 fc 18 bd d5 25 ef bc
       -0.040287726 0.048769265 -0.03735049 -0.029192844
0003f0 52 60 62 bd 9e 92 58 3c 29 cd e0 bc 2a df 35 bd
       -0.05526764 0.01321855 -0.027441578 -0.04440228

fc2.bias f4 [128]
000000 d8 c2 2d 3d f6 0c 03 3d ae b4 d5 bc 9a bd 75 3d
       0.042422146 0.031994782 -0.026087131 0.05999527
000010 9f 74 10 bd b7 b0 2f 3c 20 b3 68 3d d9 aa 68 3d
       -0.03526747 0.010723284 0.056811452 0.056803558
000020 47 f6 a8 bc 36 8d f5 3b fd 9d 11 bd 8b c5 72 bd
       -0.020625247 0.0074936403 -0.03555106 -0.059270423
000030 76 e1 eb bc 85 73 4b 3c 0f 5c b1 3c 03 17 43 3d
       -0.028794032 0.012417679 0.021650342 0.047629368
000040 ef b8 2a 3d 9d 42 09 3d bc 01 aa 3c 61 62 48 bd
       0.041680273 0.033510793 0.02075278 -0.048921946
000050 76 ee ee bb d7 de be bc 96 33 dd b8 6d 09 2a bc
       -0.0072916104 -0.023299618 -0.0001054771 -0.010378224
000060 3b fc 70 3d da 63 4d bc da 45 cb b9 95 e4 1a 3d
       0.058834296 -0.0125360135 -0.0003877122 0.03781565
000070 76 89 4e bd 33 fb 6d bd 1d d0 cb bc 9a 14 0b bd
       -0.05042406 -0.05810089 -0.02487951 -0.033955194
000080 1e f2 ce 3c f1 8b a5 bc 27 1e 72 bd 39 c4 bb bc
       0.025261935 -0.02020833 -0.059110787 -0.022920715
000090 8f cd 64 3d ce 53 97 3d 22 a3 b5 3c ec ce df 3c
       0.0558601 0.07389031 0.022172514 0.027320348
0000a0 20 28 e0 bc 31 44 63 bd 16 27 c4 bc 25 1f 27 bd
       -0.027362883 -0.055484954 -0.023944419 -0.040801186
0000b0 88 c0 c2 bc 98 29 b8 3b 77 65 e8 3c 54 1d 4c bd
       -0.023773447 0.0056201927 0.028368695 -0.049832657
0000c0 4e d9 10 bd 63 3d 6b 3d cb 8d 6c bd c0 43 74 3c
       -0.035363488 0.05743159 -0.05775241 0.014908731
0000d0 57 29 7b 3b 6f 13 9d 3c 7e 6c 21 3d 6b 8b 5d 3d
       0.00383242 0.019174306 0.039410107 0.054088037
0000e0 5d 64 ad 3c 7b 6f 4b 3d ff 6d ad ba 9f 41 f1 bb
       0.021166021 0.049666863 -0.0013231634 -0.007362559
0000f0 7a ed 98 3c 5d 59 41 3d 53 65 0f 3d 2d 84 b9 3c
       0.018667925 0.047204364 0.03500874 0.022646034
000100 9d 44 b4 bb 85 8a 75 3d 5b 95 1f 3d d0 79 5b bc
       -0.0055013434 0.059946556 0.038960796 -0.013395742
000110 a1 63 a2 bc 28 81 17 bd 84 5a 15 bd c1 f4 33 3b
       -0.019822897 -0.036988407 -0.036463276 0.0027459117
000120 87 db a4 3d ac 22 e9 3c d6 fc 23 3d a1 a3 b0 bc
       0.08049684 0.028458916 0.040036045 -0.0215624
000130 b6 57 0b bb e3 7e 1f 3d 90 6d 71 3c bd 6a fc bc
       -0.0021261997 0.038939368 0.014735594 -0.030812616
000140 42 76 7f bd 97 7f 52 bc 73 08 4f bc 3c b9 86 bd
       -0.06236864 -0.012847803 -0.012636292 -0.065782994
000150 94 a2 03 3d c9 66 0e bd 71 1d 36 bd 63 9d ae bb
       0.03213747 -0.034765992 -0.04446167 -0.0053288206
000160 ff 4d 3a 3d 89 94 4a 3d 84 75 ea ba 99 3f 3d 3d
       0.04548454 0.04945806 -0.0017887806 0.04620323
000170 c6 22 db bc 69 d0 3e bc 9d d3 83 bd f3 ed a2 3d
       -0.02674998 -0.011646369 -0.064368464 0.079555415
000180 72 b4 97 3c ef 3c 23 3d a2 37 86 3b ea f5 8a 3b
       0.01851866 0.039853033 0.0040959874 0.004240741
000190 4b b0 0c bc 96 30 b3 3c b5 72 2d 3d 6c ac d0 3b
       -0.008586953 0.021873754 0.04234572 0.0063682105
0001a0 eb ec df bb 1e 56 55 bd 72 ec 12 bd 26 93 e3 3c
       -0.0068336627 -0.05208408 -0.035870023 0.027780127
0001b0 2e c9 67 bd e7 5d 13 3d bf ee f4 3b 03 7e a6 3b
       -0.056588344 0.035978224 0.00747475 0.0050809397
0001c0 24 46 4f bb 24 d1 36 3c df 29 63 3d 2b 3d ed bc
       -0.00316275 0.011158261 0.055459853 -0.028959831
0001d0 49 36 2e bd c1 60 52 3d 2d 1d c0 bc 7f db 87 bc
       -0.04253224 0.051361803 -0.023451412 -0.016584156
0001e0 28 63 f8 3c 21 fb 97 3c c2 b6 2c bc 62 94 6a 3d
       0.030320719 0.018552365 -0.01054162 0.057270415
0001f0 95 ca 52 3d 0f 86 0a 3d 93 f4 cf bc 3d 05 a8 3b
       0.05146273 0.033819254 -0.025385177 0.0051275776

mean.weight f4 [1, 128]
000000 99 37 5d bc c5 4d 5b bd d0 5c 81 bd 3a fd 8d 3d
       -0.013502025 -0.053540964 -0.06316531 0.06933065
000010 3d a8 22 bc fb a5 ee bc af 60 86 bc fc 31 a3 bd
       -0.009927806 -0.02913188 -0.016403524 -0.07968518
000020 68 7f 84 bd 33 0d ae bd 2c d5 c2 3d 60 cb 9e bd
       -0.06469613 -0.08498611 0.095133156 -0.077536345
000030 98 5d e2 3d 56 17 11 bc c2 f5 2f bd a1 d3 69 bd
       0.11053008 -0.008855661 -0.042958982 -0.05708659
000040 09 65 eb bc 0a f6 0d bd 5a e8 64 3d 9c fd f4 bc
       -0.0287347 -0.03465847 0.05588565 -0.029906087
000050 b4 d3 c5 3d ef 71 80 3d 83 68 f4 3d c6 ec 1d bd
       0.0965952 0.06271731 0.119339965 -0.038555883
000060 fd 21 a7 3c 89 46 d6 3d 4f aa 00 bd 72 9e 52 bd
       0.020401949 0.10462672 -0.03141242 -0.051420636
000070 7d 7f 42 3d 50 02 8e bd 82 ab 88 3c 2b 3a a8 3d
       0.047484864 -0.06934035 0.016683344 0.0821422
000080 98 05 0f 3c 8b b4 a8 bd 0f fd 15 bd 94 b6 04 bd
       0.008729361 -0.08237561 -0.03661829 -0.032400683
000090 9b a7 80 bd 99 77 96 3d f5 09 99 3d f9 97 9e bc
       -0.06281968 0.0734703 0.07472602 -0.019359576
0000a0 49 6a 90 bd 78 47 30 bd ea b8 89 bd 01 2d c8 3d
       -0.07051522 -0.043036908 -0.06724723 0.09774209
0000b0 7c 7f fb 3c da 69 85 bd f6 12 b0 3d a8 38 82 bd
       0.030700438 -0.0651433 0.085973665 -0.063584626
0000c0 3f 59 ab bd 40 7a d9 3d 13 7b 8f 3b 81 21 82 bc
       -0.08366632 0.106190205 0.0043786853 -0.015885117
0000d0 03 7a fc bc e9 13 7a bd c2 7d 76 3d bc 44 99 bd
       -0.030819898 -0.061054144 0.060178526 -0.07483813
0000e0 04 b8 8d 3d 94 77 20 3b f8 3c f2 3d 5a 65 94 3d
       0.06919864 0.0024485337 0.11828035 0.07245894
0000f0 45 69 f1 3d 5b c0 24 bd 43 b2 d6 3d 26 db 47 3c
       0.11787657 -0.040222507 0.104832195 0.012198245
000100 e6 e5 ca bb 82 44 8a 3d cc 6f 45 bd 2e 77 a3 bd
       -0.006191957 0.06751348 -0.04820232 -0.07981716
000110 03 20 13 3d 39 7a 0f bc 48 17 28 bd 21 5c d1 3c
       0.0359192 -0.0087571675 -0.041037828 0.025556626
000120 d1 c7 8a 3d 1d da 5f bd e6 1f aa bd 28 1f 9d bc
       0.06776393 -0.05465137 -0.083068654 -0.019179896
000130 98 c6 09 bd b1 da 3d 3d 08 a5 c5 bc b4 86 81 3d
       -0.03363666 0.04635114 -0.024126545 0.06324521
000140 33 00 b4 bd 71 c5 5d bd ea ec 9f bc b8 1e 28 bc
       -0.087891005 -0.054143373 -0.01952215 -0.01026123
000150 cf 84 85 bc b3 33 32 bb ac 24 aa 3d e7 8d d0 bc
       -0.01629868 -0.002719146 0.08307776 -0.02545829
000160 68 95 e7 ba 6b 79 db 3d e4 cb 63 bb 04 23 9a 3d
       -0.0017668428 0.10716518 -0.003475898 0.0752621
000170 bf 58 11 bd 4f 75 69 3d d8 8f 93 3d e4 fc 4f 3d
       -0.035485025 0.05699664 0.072051704 0.050778285
000180 89 b8 6d bc 89 26 ef 3d d7 51 22 bd 39 a4 6c 3d
       -0.014509329 0.11677272 -0.03962883 0.057773802
000190 61 32 cd 3b 35 6c 80 bd 60 29 98 bd 11 ff 5c bd
       0.006262109 -0.06270639 -0.07429767 -0.053954188
0001a0 ab fa 2d 3d 56 11 d5 bc 24 50 57 bd 7f 14 aa bd
       0.042475384 -0.026009243 -0.052566662 -0.083046906
0001b0 44 fb ce bc 0d c4 9f bd ca a7 28 bd a2 00 57 bc
       -0.025266297 -0.078010656 -0.04117564 -0.0131227095
0001c0 d6 e8 64 bd 72 8e a0 3d 3f 17 7c bd 66 75 c3 3d
       -0.055886112 0.07839669 -0.061545607 0.09543876
0001d0 f3 f2 97 bd b3 44 a1 3d 8e 40 08 bd ee a8 cf 3d
       -0.07419386 0.078744315 -0.03326469 0.10139643
0001e0 22 80 9f 3d 3e 9b 8b 3b e0 7a 69 3d b3 1e 70 3d
       0.07788111 0.0042604497 0.05700195 0.058623027
0001f0 00 1e 48 bd af ab c8 3d eb 1a 3a 3c 34 5a 07 bd
       -0.048856735 0.09798371 0.011358957 -0.03304501

fc1.weight f4 [256, 24]
000000 b3 88 15 be fb a5 ab bd 67 7e 36 3e e7 12 26 be
       -0.14602928 -0.08381268 0.17821656 -0.16218148
000010 c3 31 a7 3d 17 c9 01 3d 89 07 14 be 43 f6 3a be
       0.08163788 0.031685915 -0.14456 -0.18258004
000020 f9 e6 bd bd ff 64 72 bd e2 9d b6 3d 99 cc 1e 3e
       -0.0927257 -0.05917835 0.089168325 0.15507735
000030 b2 71 04 bd 24 c7 ac bc 4a 34 f3 bd a2 cf 18 3e
       -0.03233499 -0.021091051 -0.11875208 0.14922956
000040 9e 90 69 3d d7 8b 0f be 2b ae 8c bd 40 a2 b4 3d
       0.057022683 -0.14018188 -0.068691574 0.08820009
000050 8a 33 ee bd 6a da a7 3d 44 aa 3a be ba 2e 1b 3d
       -0.11630924 0.08195956 -0.18229014 0.03788636
000060 21 b7 df bd e6 f0 08 3e e3 81 5e 3e 14 1f 3f bd
       -0.10923601 0.13373145 0.21729235 -0.046660498
000070 ed e9 a9 bd 7f c4 42 be ac f3 c8 3d 22 5c 45 3e
       -0.08296571 -0.1902027 0.09812102 0.19273427
000080 88 e9 f2 3c 5d 2b 0e 3d b3 27 73 3d 52 8d 8d 3e
       0.029652372 0.034709323 0.059364032 0.2764688
000090 57 b5 1b bd 43 4a c1 bd ef f6 e2 bd 20 2d b4 3d
       -0.038014736 -0.094379924 -0.11082255 0.087976694
0000a0 81 c3 5d 3e 72 a1 4a 3e 6a 7e f6 bd 74 d3 0a 3e
       0.2165661 0.19788149 -0.1203583 0.13557225
0000b0 f7 a2 02 3e 9a b6 66 3c ef d2 36 3e 53 82 6d bd
       0.12757479 0.014081622 0.17853902 -0.057985615
0000c0 78 48 4b 3e a2 bb bd 3c f3 7f 41 3e a0 a2 02 bd
       0.19851863 0.02316076 0.18896465 -0.031893373
0000d0 be fc 45 bd 53 bf 82 bc a8 8e a4 3d 1d d6 8e 3b
       -0.048336737 -0.015960371 0.08035022 0.0043590204
0000e0 90 1b 67 bd 86 35 22 3e ed e2 09 bd bb 8d 88 bd
       -0.05642277 0.1584073 -0.03366368 -0.06667658
0000f0 11 f7 18 bd c2 c0 85 bd c8 8e d5 bc 50 09 42 bd
       -0.037344996 -0.06530906 -0.02606906 -0.047372162
000100 a6 3f 46 bd 30 84 87 3e ef 0b 7b 3d 92 d8 01 be
       -0.048400544 0.2646804 0.061290678 -0.12680271
000110 81 85 cc 3d 17 66 af bd fd 8b 88 3d f1 9d 84 3d
       0.09986401 -0.08564394 0.06667326 0.064754374
000120 e1 3f d0 3e 6d bf 98 bd 02 0e 7d 3e ae fd ac be
       0.40673736 -0.074583866 0.24712375 -0.33787292
000130 71 1d 34 3e 74 e7 b4 3e 89 ef ee bb db 37 a5 be
       0.17589356 0.35332835 -0.0072917384 -0.32269177
000140 6a 55 19 3e 44 dd 8d 3d 2d 31 a9 3d 43 af b9 be
       0.14973989 0.06926969 0.08261333 -0.36266527
000150 21 32 d1 3d dc da f8 3d 77 15 24 3d 8f b8 77 be
       0.102146395 0.12151119 0.040059533 -0.24191497
000160 c6 66 2e 3d 0d 1c 84 3d da 44 a8 3e 85 c9 8d be
       0.04257848 0.06450663 0.3286503 -0.2769281
000170 a9 7a 56 3e 55 40 32 3e 21 c8 3d 3d 72 45 2e bd
       0.20945229 0.17407353 0.046333436 -0.042546697
000180 eb e3 db 3d 5b c5 96 bd 44 dd 7a 3e 5b 3d 23 be
       0.10736831 -0.07361861 0.24498469 -0.15941374
000190 26 e1 93 bd 09 4c 3e 3e 72 57 c6 bb 1a b9 1b 3d
       -0.07220678 0.18583693 -0.0060529048 0.038018323
0001a0 51 54 9c bc 55 ab 8b 3e b2 b2 88 3c 3a cc ed bc
       -0.019083174 0.27279153 0.016686771 -0.029028047
0001b0 5b 7e 44 3c 05 cb 44 3e ac ce 2f bb 56 d9 31 3d
       0.011993016 0.19218071 -0.0026826067 0.04342016
0001c0 9d 38 db 3d fc b7 8f bd 39 e1 28 3e 43 23 97 be
       0.107041575 -0.07017514 0.16492166 -0.2951909
0001d0 bc 63 a1 bd 2a 9b 77 bc 60 7d 53 3d 02 03 0a 3e
       -0.07880351 -0.015112678 0.05163324 0.1347771
0001e0 bb 7f 1e 3e d8 ee 9a bd eb 4b a3 3e 9d 8a 89 be
       0.15478413 -0.07565087 0.31893858 -0.26863566
0001f0 0f 8a 8c bc e5 07 92 3e f5 50 a0 3e 4b 17 06 3d
       -0.017155675 0.28521648 0.31311765 0.032737058
000200 eb da ef 3d 21 ab 1e 3e 7f ff 53 3d 8f 5b 74 be
       0.11711677 0.15494968 0.051757332 -0.23863052
000210 a1 44 d5 3d 46 75 4a 3d 51 cd 9a 3e 8e 19 a7 be
       0.104134806 0.049428247 0.3023477 -0.32636684
000220 95 06 53 3e c7 ba 95 3d a2 87 a9 3d 6f 6a 85 3d
       0.2060798 0.073110156 0.08277823 0.06514441
000230 6f 6c b8 3d 4f 90 45 3e 12 9f 9e 3d 22 e8 47 3e
       0.09005057 0.1929333 0.07745184 0.19522145
000240 f5 98 0b 3e 92 96 96 3d e4 f7 b5 3d 59 5b 23 bb
       0.13632567 0.07352938 0.08885172 -0.0024926274
000250 87 06 c8 bc 15 e8 d2 3d f5 7c 27 be 84 9b 51 bd
       -0.024417175 0.102981724 -0.16356261 -0.051173702
000260 ef 93 32 be dd db 0a be bf 49 be 3d 1e 3d fa 3c
       -0.17439245 -0.13560434 0.0929141 0.030546721
000270 41 2a 8e 3d 13 e6 34 be ee ad fd bd 1a 07 fc bb
       0.06941653 -0.17665891 -0.1238669 -0.0076912763
000280 71 ce 22 be 9b 5c 3d be 5c c0 23 3e 77 8c 7b be
       -0.15899064 -0.18492357 0.15991348 -0.24565302
000290 0f 04 aa 3d f7 f3 6a 3e 11 7b d0 bd ba 34 52 3d
       0.08301555 0.22944628 -0.10179723 0.051319815
0002a0 4f ac 80 3e 27 f6 3c 3d c6 21 54 3e 32 38 4c bb
       0.2513146 0.046133187 0.20716009 -0.0031161425
0002b0 9b ce b9 bd 1e 9f 6b 3d b1 a3 ad bc d3 6f b6 be
       -0.0907261 0.057524793 -0.021196218 -0.3563219
0002c0 5d de 0b bd e3 03 9c 3e 6b 26 09 3d bc a4 bd be
       -0.03414761 0.30471715 0.033483904 -0.37039745
0002d0 a9 84 98 3d 2f c5 99 bc 02 13 92 3e f1 53 43 be
       0.07447178 -0.018770782 0.28530127 -0.1907499
0002e0 78 65 1d be 58 32 a4 3e bf 91 38 3e dd ca a8 be
       -0.15370739 0.3206966 0.18024348 -0.32967272
0002f0 c2 2d 68 3e c1 38 d2 3c db c2 82 3d ef 99 5c 3c
       0.22673705 0.025661828 0.06384822 0.013464435
000300 79 b2 8c 3d 3d 4d 72 3d 85 db 95 bd 33 90 2a be
       0.068699785 0.05915569 -0.07317261 -0.1665657
000310 8e c4 b3 3d 8f 6d 93 3e fe a0 37 3e 76 da 6a 3d
       0.08777724 0.28794524 0.17932507 0.057337247
000320 07 6a d9 bd f3 90 a6 3d 45 33 4f bd 64 f4 b9 3a
       -0.10615926 0.081331156 -0.050586004 0.0014187214
000330 08 eb 2c 3e 80 33 68 3e 13 7a a6 bd e9 10 8b be
       0.16886532 0.22675896 -0.081287526 -0.2716134
000340 d3 92 c5 3d d2 2c aa 3e a6 17 61 bd 94 57 d4 bd
       0.09647145 0.3323732 -0.054954194 -0.10368267
000350 6b e3 f4 3d dc 30 c7 3d 07 3c 9d 3d 14 12 9d 3d
       0.11957439 0.09726116 0.07677465 0.07669464
000360 04 ee 17 bd 86 ea 89 3c a2 cd ed bd cf 59 a6 bc
       -0.037092224 0.016835462 -0.11611487 -0.020306496
000370 9a d1 cd bd 27 69 5e bc be 64 7a 3d 87 7e 34 3b
       -0.10049744 -0.013574875 0.06113123 0.0027541236
000380 51 c0 e8 3d 3a 31 d8 3d ba 56 aa 3d 79 7b 05 bd
       0.113648064 0.10556264 0.08317323 -0.032588456
000390 7c 7a 2a 3d 54 d6 89 3e 36 da a5 3c 79 54 94 be
       0.041620716 0.26921332 0.020245653 -0.28970698
0003a0 32 54 1e 3e c2 f3 8b 3e 4a 9e 10 3e 0f e3 42 3d
       0.15461805 0.2733441 0.14122882 0.04757982
0003b0 6c 1d 15 be ba 30 eb bd ce 9f 23 be a2 83 43 3e
       -0.14562005 -0.11483903 -0.1597893 0.19093183
0003c0 03 e2 97 3e 11 ef 0a bc 76 8b 14 3e 4c a5 c5 bd
       0.2966462 -0.008479849 0.14506325 -0.096506685
0003d0 de 83 0b be a6 4b 93 3d 54 fe b3 3c 09 65 88 be
       -0.13624522 0.07192163 0.021971859 -0.26639584
0003e0 43 02 ed bd 1b df 4b bd 12 cb a4 3d da 44 aa bd
       -0.11572697 -0.049773317 0.08046545 -0.08313914
0003f0 c2 5e 18 3e c0 22 c2 3d 51 54 90 3e 7d d3 c2 be
       0.14879897 0.09479284 0.28189328 -0.38051978

fc1.bias f4 [256]
000000 4b 27 25 3c 3f 30 b4 bd 3a 1d 76 3e 51 6c 6c 3c
       0.010080169 -0.08798265 0.24034587 0.0144301215
000010 67 69 f8 3d d5 59 6a bd 74 69 95 bd dd 61 b2 3d
       0.12129479 -0.057214577 -0.07295504 0.08710072
000020 a2 d9 ba 3d 4e 64 3c 3e e8 9c 81 3e 0c 1a 57 bc
       0.091235414 0.18397638 0.25315022 -0.013128769
000030 8d 3c 87 bc c8 f0 53 3d 15 9b a5 3e 87 91 95 3e
       -0.016508365 0.0517433 0.3234488 0.2921259
000040 a2 f0 41 3d 63 40 7b 3e c0 a2 57 3e d5 c9 02 3e
       0.047348626 0.2453628 0.21058178 0.12772305
000050 86 75 54 bd bc 37 c6 bd 64 62 15 be 94 6e 89 3e
       -0.05186989 -0.09678599 -0.14588314 0.26842177
000060 ce ca 2a be a0 42 d5 3d ae 16 ad 3e 3d 9b a5 3d
       -0.16678926 0.10413098 0.33806366 0.0808625
000070 39 72 10 3e 61 76 7d 3d ae c6 80 bc a1 69 cf bd
       0.14106072 0.061880473 -0.015719738 -0.10127569
000080 20 54 cd 3d 42 22 66 3e 51 a4 70 3e 9e 23 01 be
       0.10025811 0.22474006 0.23500182 -0.12611243
000090 fc 5f 3d 3e 5f e9 42 3e 54 60 c1 3d 3e 6e 5c 3e
       0.18493646 0.19034337 0.09442201 0.21526429
0000a0 dc b1 04 be e0 52 92 3b 59 5f 84 3e 48 9a 06 3e
       -0.12958473 0.004465446 0.25853994 0.13144791
0000b0 11 1c 99 bc 17 9d cd 3d 75 1a 38 3e 78 9a 5a 3c
       -0.01869014 0.10039728 0.17978843 0.013342492
0000c0 a5 23 ce 3c c6 92 f0 3d 9b 66 62 3e 0c 89 22 3e
       0.025163481 0.11746745 0.22109453 0.15872592
0000d0 16 08 25 bd cf cb 5d 3d c2 af a0 3e 8d 5e bc 3d
       -0.040290914 0.054149445 0.31384093 0.09197722
0000e0 90 f9 0b be 68 ec ad ba 95 90 ff 3d d4 91 9b bb
       -0.1366942 -0.0013269307 0.12478749 -0.0047476087
0000f0 a9 45 97 3c e6 90 30 3e ab d7 5f 3e d1 32 52 bc
       0.018465834 0.17242774 0.21859615 -0.012829498
000100 27 4a ee 3d 0e 38 af bc bc a2 c9 bd b6 2d a5 3e
       0.11635237 -0.021389034 -0.09845492 0.32261437
000110 99 28 0a 3e 70 a6 70 3d e8 d3 cc 3d 71 19 8e 3d
       0.1349205 0.058752477 0.100013554 0.06938446
000120 a7 16 c3 bc 1a 1a b9 3e 98 71 37 3e 74 6c ce 3c
       -0.023814512 0.36152726 0.17914426 0.025198199
000130 7e be ea bd 80 25 4c 3d 24 64 1f 3d 48 8f 20 3d
       -0.11462115 0.04984045 0.03891386 0.039199144
000140 03 4c 86 3e 86 59 9b bd d4 f8 4a 3c 3f 72 1b 3e
       0.26229867 -0.075854346 0.012388427 0.151803
000150 39 81 3e bd fb ec 5e 3e 54 a6 09 3e 20 25 f7 3c
       -0.046509955 0.21770088 0.13442355 0.03016907
000160 22 41 79 3d c0 dc 77 3c e6 fd ac 3e 0a 62 95 3e
       0.06085313 0.0151283145 0.3378746 0.2917636
000170 d4 bb 6e bd 17 bb 48 3e d1 e4 2f 3e 9e fa 42 3e
       -0.058284596 0.19602619 0.1717713 0.19040915
000180 cd f3 72 3d 40 5d 80 bd e9 1e 7e bd ab bf af 3e
       0.059314538 -0.06267786 -0.062041197 0.3432592
000190 f8 18 18 bd af 99 80 bc 24 d5 75 3e 6b 74 9a 3e
       -0.037133187 -0.015698282 0.24007088 0.30166945
0001a0 ab ff 35 3d 94 03 f3 3d b5 2c 91 bd 72 03 ac bd
       0.044433277 0.11865917 -0.07088605 -0.08399095
0001b0 53 b0 80 3d 53 61 1f be 6e f1 57 3d 6d 5d e8 3d
       0.06283631 -0.1556447 0.05272048 0.113459446
0001c0 e6 24 3f 3e 6e e6 21 3e a6 9e bb bc af f4 8f 3e
       0.1866642 0.15810558 -0.022902798 0.28116366
0001d0 41 c9 47 3d 95 85 47 3e 9d 9b 31 3e d2 2b 6c 3e
       0.048775915 0.19484551 0.17344518 0.23063591
0001e0 f9 0c c0 3d 24 8a 0a be 8a d1 e5 3c 6c ab 7d 3e
       0.09377474 -0.13529259 0.028054018 0.24772424
0001f0 69 32 dc 3d 74 1e 3e 3e 90 44 4c be 44 c2 62 bd
       0.107518025 0.18566304 -0.1994803 -0.055361047
000200 2c 11 44 3e 08 2e b1 bc e1 5d 6b bd ae 77 9f bd
       0.19147176 -0.021628395 -0.057462577 -0.07786499
000210 e6 af 05 be 19 74 a8 3d d0 af f1 3d ae e5 38 3e
       -0.13055381 0.08225269 0.11801112 0.18056366
000220 87 b9 7c 3d d6 a7 64 3e 6d fa 12 3e a0 69 61 3e
       0.06170037 0.2232965 0.14353342 0.22012949
000230 cf 68 a9 3d 20 61 65 3e b8 dc 9b 3d 24 be 14 3e
       0.08271944 0.22400331 0.07610458 0.14525658
000240 6b 5a 52 3e 01 3d 73 3e 88 f5 57 3e 8e 25 f1 bc
       0.20542304 0.2375374 0.21089756 -0.029436853
000250 35 87 ad 3d 8d 88 7e 3e 72 e6 59 3e be 63 86 3e
       0.08473054 0.24856777 0.21279314 0.26247972
000260 93 d9 b6 3c a0 4d 3b 3e 2e 5c 94 3e b7 33 56 3d
       0.022320544 0.1829133 0.28976578 0.052295413
000270 ca ea cf bd 47 c7 b8 3e 0a 03 c6 bd 2c 41 e0 bd
       -0.10152204 0.36089537 -0.096685484 -0.109499305
000280 4d bf 9b bc 89 ca ef 3d cb d8 fb 3c d3 ce a0 3e
       -0.019012118 0.117085524 0.030743023 0.31407794
000290 a7 27 8b 3e 56 71 e7 3d 8a cc 09 3e 9f 62 91 3e
       0.2717869 0.11300914 0.13456932 0.28395554
0002a0 4e 99 7b 3b 3c 74 f7 bd f8 dc 9b 3c 74 a5 68 3e
       0.0038390937 -0.12082717 0.019026265 0.22719365
0002b0 d5 cb 6a 3c 44 b9 6a 3e 44 65 a1 3d ff b1 a3 bd
       0.014330824 0.22922236 0.07880643 -0.079929344
0002c0 55 ed 96 3e a1 f9 0d 3d 63 dd bd 3e ca 4f 02 be
       0.29477945 0.034661893 0.37082967 -0.1272575
0002d0 4d 3f c0 3d 70 e6 57 3d c0 df 37 3e 4f 34 09 be
       0.09387074 0.052709997 0.17956448 -0.1339886
0002e0 f2 19 1a 3e a8 a8 10 3e 5f 1e 51 be 27 4b 74 3e
       0.1504896 0.14126837 -0.20421742 0.23856793
0002f0 13 f7 f6 bd d9 dc 09 3d 77 50 c6 bc cb da 01 3c
       -0.120588444 0.033657882 -0.02420829 0.007925699
000300 9d 0e 3f 3e 25 26 9b 3e 70 83 63 3e a6 a8 1f 3e
       0.18657918 0.3030254 0.22218108 0.15591678
000310 3c c2 83 3e 2a 14 e4 bd 25 ab 12 3d 1f eb 23 3e
       0.25734127 -0.111366585 0.035807747 0.1600766
000320 ea 4e 81 3d 3a 13 84 3e d2 3e d7 bc 01 1a 89 bd
       0.0631388 0.2579592 -0.026275072 -0.06694413
000330 d0 3e 7e 3e 89 48 84 3e f3 41 5b 3e 51 ad b0 bd
       0.24828649 0.2583659 0.21411876 -0.086268075
000340 ec 61 d9 3d f7 8b 99 bd 21 ae 03 3e f4 64 a7 bd
       0.1061438 -0.07497399 0.12859394 -0.08173552
000350 3e 88 77 bd 93 00 d3 bc 21 48 23 3e a3 e3 30 be
       -0.060432665 -0.02575711 0.15945484 -0.17274337
000360 42 38 ce 3c 75 dc 48 3d 49 e1 60 3e b3 57 3b 3d
       0.02517331 0.04903837 0.2196094 0.045737933
000370 b0 b9 82 3e e4 bf ea 3c e1 ed 2e be 4c 8f 50 3e
       0.25532293 0.028655954 -0.17082931 0.20367163
000380 8c 31 77 3e dc 67 f6 3c db db 1d 3c 39 ff 7a bd
       0.24139994 0.03007882 0.009634937 -0.061278556
000390 69 4b 33 3e 06 6d c6 bc b0 37 75 3e 85 d9 35 3e
       0.17509235 -0.024221908 0.23947024 0.17758758
0003a0 a7 e4 03 3e 85 dc 2f 3e 41 ae 82 3e 20 e3 b2 3e
       0.12880193 0.17173965 0.2552357 0.34938908
0003b0 6c 1e 2d 3d 82 7c 5f 3e 75 2a 84 3e 9f f3 65 3e
       0.04226534 0.2182484 0.25813642 0.22456215
0003c0 a7 84 2c 3e 26 9b 3b 3e 9d 29 9d 3e 8a 77 86 3e
       0.16847478 0.18320903 0.3069581 0.26263076
0003d0 89 70 3d 3e 34 64 8c 3e 9c 7e 22 3e d1 0d 23 3e
       0.1849996 0.274202 0.1586861 0.1592324
0003e0 c5 fb d4 3d 57 67 9c 3d 7a 8e 0a 3e 17 c1 59 3e
       0.10399584 0.07636898 0.13530913 0.21265064
0003f0 29 1b 1c 3e 27 88 d4 3d a5 cd 23 3e 49 91 7e 3e
       0.15244736 0.103775315 0.15996416 0.2486011

fc2.weight f4 [128, 256]
000000 c7 23 84 3c ac a4 b7 3d 5b 61 fe 3c cf 1a 95 3d
       0.016130341 0.089669555 0.031052282 0.07280504
000010 15 a5 00 3d 47 80 43 bd c8 f6 1f bd 76 20 53 bd
       0.031407434 -0.047729757 -0.03905371 -0.05154463
000020 b3 13 25 bd a8 a6 d6 bc 4b d9 46 3d 7f 04 95 3c
       -0.04030199 -0.026202515 0.04854707 0.01819062
000030 55 e1 17 3d a7 b1 09 3d 95 c1 18 3c 7f 98 b1 3b
       0.037080128 0.033616688 0.009323497 0.0054197903
000040 b0 57 03 bd 48 c1 5a 3c 3f 14 8c bc 32 68 39 3d
       -0.032066047 0.013351746 -0.017099498 0.045265384
000050 e6 99 91 bb 58 39 26 3c b1 d5 3f 3d f0 33 17 3d
       -0.004443395 0.010145508 0.04683465 0.036914766
000060 14 4c 9f 3c ba a2 10 bd 74 5e 3e bd e5 fa 04 3b
       0.019445457 -0.03531144 -0.046476796 0.0020291146
000070 b6 cd 70 3b 36 72 7a bb 3d 36 e0 3c 91 4f 65 3c
       0.0036743707 -0.0038215048 0.027369613 0.013996021
000080 14 33 5b bd 9a 6c 69 bd ef b9 7f bd 5c 06 e4 3c
       -0.05351551 -0.056988336 -0.06243318 0.027835064
000090 0e 13 9a bc 11 86 46 3d 03 e3 b2 bb 8a fd 28 3d
       -0.018807914 0.0484677 -0.005459191 0.04125742
0000a0 d0 2b 1d bd 0c be 76 3d b7 a7 a3 3a d0 78 42 bc
       -0.03837186 0.060239837 0.0012485896 -0.011869624
0000b0 55 c1 4e 3d 27 a9 8e 3c 4d dd 99 bd 23 ca 3a bd
       0.050477345 0.017414642 -0.07512913 -0.04560293
0000c0 bc 74 71 3d b4 e6 20 bd 67 4a 80 3c 6f 1b 7c 3c
       0.058949217 -0.039282516 0.015660478 0.0153874
0000d0 cd 1b 8f 3d 3d f5 5f 3d d0 ec 45 bd c6 6b e3 bd
       0.069877245 0.054677237 -0.048321545 -0.111045405
0000e0 6d f1 a0 3d 51 cf 64 3c b2 fe 98 bd 91 57 66 3d
       0.07858548 0.013965444 -0.07470454 0.056235854
0000f0 ae b0 93 3c f4 62 3a bc 8c 3d 5f bc 40 c6 8f 3b
       0.018028583 -0.011376131 -0.013625514 0.004387647
000100 ba 61 e7 bc 7c dc 8e 3c 09 aa 9d bc 75 d7 81 bd
       -0.028244842 0.01743912 -0.019246118 -0.06339923
000110 28 ba 92 3c c5 f4 1a 3d 8a b7 b8 bc 99 a1 98 3d
       0.017911032 0.037831087 -0.022548456 0.07452697
000120 54 4d 6a bd d9 23 80 3c a9 99 e1 bc 9a ef 31 bd
       -0.057202652 0.015642093 -0.027539091 -0.043441392
000130 33 b7 49 bd 38 27 22 bd 39 42 21 bd 57 38 98 3c
       -0.049246978 -0.039588183 -0.039369795 0.018581552
000140 c4 14 15 bb c7 33 64 bc 0c 89 94 bc 99 e9 28 3d
       -0.0022747973 -0.01392836 -0.018131755 0.0412384
000150 c0 51 07 3d 63 22 f4 3c 1c bc 6d bc 2c 5f 64 bd
       0.033036947 0.029801553 -0.014510181 -0.055754825
000160 a0 61 db 3c 7d 3f d2 bd 29 6e 02 bd ed 9c ef bc
       0.02677995 -0.10266016 -0.03184334 -0.029249633
000170 08 0d 96 3d 8e 77 ba 3c 84 5b 8a bc ea dd 43 3d
       0.07326704 0.022762086 -0.016889341 0.047819056
000180 9d 62 0e 3d dd 59 1e 3d 1e fa 65 3d 78 eb 59 bd
       0.034762014 0.03865992 0.056146733 -0.053203076
000190 80 c8 32 bc bb 58 2f bc 99 5c a0 bb 19 41 d9 bc
       -0.010912061 -0.010702307 -0.004893851 -0.026520299
0001a0 5a c9 76 bc 8c 65 ed 3c 5c 1b 82 3d 2f 7c 40 3b
       -0.015062654 0.028979085 0.06352875 0.0029370894
0001b0 1f 3e 94 3a 1a b1 ae ba 20 b2 18 3d da 3c 8f bc
       0.0011310017 -0.0013327927 0.03727925 -0.017485071
0001c0 55 70 cd bd 69 8f f6 3a 98 5e 32 bd 8f 43 96 bd
       -0.10031191 0.001881105 -0.043547243 -0.073371045
0001d0 16 24 a6 bd ef b0 ca bb 55 1c 9c bb 70 c5 04 bd
       -0.081123516 -0.006185643 -0.0047641196 -0.032414854
0001e0 83 72 45 3d 69 1b 08 3c df 49 be bd c8 54 27 bd
       0.04820491 0.008307316 -0.092914335 -0.040852338
0001f0 a1 9f 0c bd f7 e2 5b bc d5 bf 4e bd 3a 19 23 bc
       -0.03433192 -0.013420812 -0.050475914 -0.009954745
000200 d2 29 a5 3c a6 87 58 bd 9f e8 a0 3d 4f 6d 0a ba
       0.020161543 -0.05286374 0.07856869 -0.00052805705
000210 92 e8 15 3d 9c 55 bd 3b 7a 99 14 3d 68 0e ad bc
       0.03659875 0.0057780277 0.03627918 -0.021125033
000220 2a 31 83 3d 09 54 35 bd e3 c1 bf 3d 0f 34 8d bd
       0.06405862 -0.044269595 0.09363153 -0.06894695
000230 1d 91 84 bd 4f 61 30 3c ab de 3e bd bb a2 e3 3b
       -0.06472991 0.010765388 -0.04659907 0.006946889
000240 2f 63 f1 bd 81 a9 c5 bd ea fa d9 bb ee 19 87 bd
       -0.11786496 -0.09651471 -0.0066522257 -0.065967426
000250 5e 0a d7 bc 74 ba 95 3c ab 73 67 bd 1c 90 f9 3c
       -0.02625006 0.018277384 -0.056506794 0.030464225
000260 5c 62 b1 3c 84 82 9c bd 0f 20 86 bd f1 f4 a9 3c
       0.021653347 -0.076420814 -0.065490834 0.02074668
000270 6a 80 e6 3c 58 be b7 bc 22 46 40 3d 39 44 14 3d
       0.028137404 -0.02242963 0.046941884 0.036197875
000280 01 ee 56 3d ea 6f 84 bd 2a 5b e1 bc 02 da 25 bd
       0.052473072 -0.064666584 -0.02750929 -0.04049111
000290 31 e4 df bc c7 b7 3a 3d f8 44 c8 bc aa 75 85 bc
       -0.02733049 0.04558542 -0.02444695 -0.016291458
0002a0 2d 4b 44 3b 1e 5c 27 bd 62 b8 97 bd 1e f5 3e bd
       0.0029952035 -0.040859334 -0.07408215 -0.04662048
0002b0 ee 9a 89 3d 41 04 d8 bc 81 b2 98 3b 66 2f ba bc
       0.067190036 -0.026369216 0.004659951 -0.02272768
0002c0 7d 14 8e bd 4c 12 1d 3d 7c 76 06 bd 67 b5 d2 3b
       -0.069375016 0.038347527 -0.03282784 0.0064303163
0002d0 62 c2 21 bd b7 9d 7c bb c6 19 54 bc 17 db a4 3b
       -0.03949202 -0.0038546154 -0.012945598 0.0050310004
0002e0 9e 8d 21 3d 2b c5 b0 3c 83 0d 73 3c 85 45 3f bd
       0.039441697 0.021578392 0.014834764 -0.04669716
0002f0 9b 70 20 3c 81 16 27 bc 12 4b 75 3d b8 37 1f 3d
       0.009792472 -0.010198236 0.059886046 0.038871497
000300 d1 4b 3b 3c e5 16 ea b9 98 be 41 3d a0 3c e8 3c
       0.01143165 -0.00044649016 0.047300905 0.02834922
000310 c4 a9 ed 3b e5 88 bb bb a8 fe dc bb 07 ee 43 bc
       0.0072529037 -0.005723106 -0.0067442246 -0.011958606
000320 58 aa 49 bd d8 3d 2d bd 34 a2 f2 bc bf 6e 1b bd
       -0.049234718 -0.042295307 -0.02961836 -0.037947413
000330 77 cb 5a bd 23 66 31 3d db 68 ce bc 82 cb 3b 3d
       -0.053416695 0.043310296 -0.025196483 0.045848377
000340 54 83 20 bc 4a a1 89 3b 6a e3 5d bd 1a 7a b4 3c
       -0.009796936 0.0042001354 -0.054171957 0.022030879
000350 48 ec d2 bc 7e 2f fd bc 83 d0 fe bc ec e8 4a bc
       -0.025747433 -0.030906435 -0.031105286 -0.012384634
000360 c7 df dd 3b 53 95 25 bd 74 3b 00 3d 0f 10 71 bd
       0.006771061 -0.04042561 0.0313067 -0.058853205
000370 15 c8 f3 3b e7 e1 1b 3d 16 57 85 3d 53 76 55 3c
       0.007439623 0.038057234 0.06510751 0.013028699
000380 6d 59 e8 bc a6 d2 55 bc 22 78 0e bb c6 1a b7 3b
       -0.028362954 -0.013050711 -0.0021739085 0.0055879084
000390 ae d0 56 bd 9d 10 77 3d 47 6e 84 bd b4 e5 8a bc
       -0.052445106 0.060318578 -0.06466346 -0.016955234
0003a0 4d e6 85 bc 67 a1 9e bc 85 cb 8f 3c 2e 3d 48 bd
       -0.016345168 -0.019364072 0.0175531 -0.04888647
0003b0 c1 6e 0c 3d 7d 75 2e be db 9f 94 bd 4a c6 7f bc
       0.03428531 -0.17037006 -0.072570525 -0.015611241
0003c0 1a c1 c1 3c a6 00 25 3d b3 69 6b 3d 56 25 09 3d
       0.023651648 0.04028382 0.05747385 0.033482872
0003d0 e0 68 37 bd 33 82 30 bd 42 80 5b ba 5b ef 55 3c
       -0.04477775 -0.043092918 -0.0008373299 0.013057555
0003e0 bd 07 65 3c f5 4f d3 bd 95 0e 6f bd 04 27 89 bd
       0.013978896 -0.10317985 -0.058363516 -0.06696895
0003f0 b6 8a dd 3b e4 f3 81 3d 4a 2d 3c 3d 11 de 80 bd
       0.0067609204 0.063453466 0.04594163 -0.06292356
