logs/fast_td_policy.pth (torch, 320449 bytes, 10 tensors)

fc1.weight f4 [256, 24]
00000000: d6ea 1dbe 2b9e 90bd 8f92 83bc ed36 c5bd
00000010: 05be df3d 9a68 ae3d 59cb 5d3c 3ff7 93bd
00000020: 621b 58be ec88 033c 49e4 4a3e 241f 433d
00000030: 72d3 d9bd 59eb 8abd 8e43 6abd 6e43 1c3d
00000040: 7767 963d 8365 2dbe 79b4 363e 224b 22be
00000050: 816b 63be 7c35 01be a524 263e f376 b33c
00000060: 7928 63be f3eb 94be a1b7 113e 64a0 2fbd
00000070: 97d0 d3bd f9b0 59be 39d7 663e b555 4a3d
00000080: 1cee e83d 22c4 0b3e 0f41 513e 2ff0 e43d
00000090: fbb9 f3bc 3ffd cabd 0f86 04bc 4976 f63d
000000a0: bc4b db3d e844 8bba 0db5 2e3e 8c62 9cbd
000000b0: 6e8d 163e ac4b df3d dec4 143e 845c a1bc
000000c0: 4229 73be 8719 86bd 56cc 59bd 6e9d b2bd
000000d0: a4dc 193e 714d bf3d 1eca 0fbe 30c2 0fbe
000000e0: e7c2 f53d fea8 30be 449c f93c 0aaa 48be
000000f0: b586 17bd 0c6f 073b 498f c1bd 17d1 573d
00000100: 04ea 2ebe f6ba 26be 4a52 33bd 919b 46bb
00000110: 1c72 d5ba f6c1 c43d 7fcd 52be 947d 75bd
00000120: 8570 f7bd 37b2 2d3e 87ee 90bd 2a0c 40be
00000130: 881b 2f3e 0ac9 103e 7166 be3d 02b3 173e
00000140: 810a 15bd 68e2 e2bd 6d4b afbc c83b 9dbd
00000150: b39f edbd 785a 2abd b3f3 1dbe 8642 14be
00000160: c212 aabd 707d 963d 98dd 8bbe 9139 16bd
00000170: 2d52 05be 03a8 02be 0b03 adbd e0af 03be
00000180: 7c0d b53e 97bd 1c3d 7278 23be 4973 423c
00000190: bda4 a9bd 1fb9 6a3e ef32 3fbd eff9 3ebe
000001a0: 5a00 2d3e b9d9 a3bd 8750 3ebe ba31 42bd
000001b0: 7bad 803c 3c4e 473c 3e8e 753a d8a5 223e
000001c0: 50c8 5d3e 28e2 1f3d 6b8a 3a3d 7989 10be
000001d0: e05b 00be 7250 5a3e e0c2 f1bc cb5d 5dbd
000001e0: fb3b 853c e2a9 653e ce1b a9bd 9e7b 063e
000001f0: 394c 6dbc 62e4 a4bd 8703 e2bd 86d0 00bb
00000200: db05 cabc d786 45bc 23f8 12be df37 f73d
00000210: b082 89bd 2305 1bbe cd48 34be 4eec 9c3c
00000220: 05f0 e63c 34a9 e0bd f743 bc3d c5bb 873e
00000230: 5545 fbbb 5d29 8d3e bff8 b53e 7728 dd3d
00000240: 597a edbb f8dc 3d3e 4901 7dbd e7c1 2c3e
00000250: db97 3bbe f4b0 49bb b90e 31be 3e24 49bd
00000260: f88e 56bd 7d95 37be d2eb 2fbe 2e8c 80bd
00000270: 8810 9f3d a3fd c8bc 1976 333e 2647 273d
00000280: 836d fdbc 885a 4abe 30a2 a33d 704e c23b
00000290: 40ef cfbd 603b 08be 220d 323e c696 993d
000002a0: 9d83 69be 7fd1 91be 4f62 8c3e 7b19 d33d
000002b0: fee4 fa3b 91d8 9c3b 1cc2 453e e396 a5bd
000002c0: d8a1 79bd 25d3 2fbe 583b 8e3e 28c6 b73d
000002d0: 3d9d 22be 0ab8 70bd 79e1 233c 3931 d93d
000002e0: d42d 833d 2042 c33d 598f 633e 4f8f 693e
000002f0: e443 283e 6d03 2dbd 954b 11be 8866 38bd
00000300: 216b 333e 248d b93d 19ee 493c 0754 d33d
00000310: d558 683e 7d3c 0bbe 8c7d 87bd 7ca6 8fbc
00000320: feba 27be 92f1 b53d 094a 65be e968 b5bd
00000330: 34ef 34bc d7f8 a9bb faba d83d d1c0 29be
00000340: 2e07 3abe 916e 8ebd 2bf8 d5bc 655c 91bb
00000350: f041 4c3d e343 233e 9833 04be 5521 743d
00000360: 1a6e 91be 4380 363d 0d99 23bd 1aed e83d
00000370: 4629 43bc 95ad 113e 38c3 6c3e 11cd eb3d
00000380: 615c 2c3e 4066 333e 557c 32bd f295 443d
00000390: 6770 3f3e 743a 32bd 552f 413d 414d 0b3d
000003a0: 89ee 0c3c 3a69 b6bd 678e c93d b94a 36bd
000003b0: d0a2 93bd a414 37be aefc 23be faee 1c3e
000003c0: 3cdf 09be e703 053d 62c0 d0bd 9d9f afbc
000003d0: 3bb7 273e b209 0ebe 0e30 003e 8a83 11be
000003e0: 1c78 45be 5500 95bd bc8b 8b3e 6f42 4c3e
000003f0: d34c 8ebd acf5 c5bd 6088 5b3d 307e 0cbe
-0.15421614 -0.07061418 -0.016061096 -0.09629617 0.10924915 0.08516045 0.013537251 -0.07224893
-0.21104196 0.00802825 0.19813646 0.04763712 -0.10636033 -0.0678317 -0.05719333 0.038150243
0.07343953 -0.16933255 0.17842282 -0.15848973 -0.22208978 -0.12618059 0.16224916 0.021907305
-0.22183408 -0.29086265 0.14230205 -0.04287757 -0.1034252 -0.21258916 0.22543038 0.049398143
0.11373541 0.13649037 0.20434974 0.11178624 -0.029751768 -0.09911584 -0.008088603 0.1203428
0.107078046 -0.0010625394 0.17061253 -0.07635984 0.14702389 0.10903105 0.14528224 -0.019697435
-0.23746207 -0.06547838 -0.053173386 -0.087214336 0.15025574 0.09340943 -0.14041945 -0.1403892
0.12000065 -0.17251965 0.030470021 -0.19596115 -0.0369937 0.0020665554 -0.094511576 0.052689638
-0.17081457 -0.16282257 -0.04377965 -0.0030305127 -0.0016284618 0.096073076 -0.20586203 -0.059934214
-0.12082008 0.16962515 -0.070767455 -0.1875464 0.17100346 0.1413919 0.09296883 0.1481438
-0.03638697 -0.1107834 -0.02139827 -0.07677418 -0.11602726 -0.041590184 -0.15424995 -0.14478502
-0.08304359 0.07348144 -0.273175 -0.036675993 -0.13019629 -0.12759404 -0.08447846 -0.1286006
0.3536185 0.038266744 -0.15963915 0.011868306 -0.082833745 0.2292218 -0.046679433 -0.1865003
0.16894665 -0.08000512 -0.18585406 -0.047410704 0.015707722 0.012164649 0.0009367204 0.15883577
0.21658444 0.03903404 0.045542162 -0.14114942 -0.12535048 0.2131975 -0.029511869 -0.054044526
0.016263952 0.22428086 -0.082572564 0.13133094 -0.014483505 -0.08051373 -0.11035829 -0.001965554
-0.024660995 -0.012056074 -0.14352469 0.120712034 -0.0671438 -0.15138678 -0.17605896 0.019155648
0.028190622 -0.10969773 0.09192651 0.26510444 -0.007668177 0.2757062 0.3554134 0.10798734
-0.007247251 0.18541324 -0.061768804 0.16870843 -0.18319647 -0.0030775638 -0.17290772 -0.04910683
-0.05238244 -0.17928119 -0.17179802 -0.06276737 0.07766825 -0.024535006 0.1752552 0.040839337
-0.030936008 -0.19761097 0.07989919 0.0059297606 -0.10153055 -0.133039 0.17387822 0.07499461
-0.22804113 -0.28480145 0.27418754 0.103075944 0.0076566925 0.004786559 0.19312328 -0.0808542
-0.06094536 -0.17170389 0.2777965 0.08973342 -0.15880294 -0.058769263 0.010002487 0.106050916
0.064052254 0.09534097 0.22222652 0.22808574 0.16432148 -0.042239595 -0.14188989 -0.045019656
0.17521335 0.090601236 0.012324833 0.10318761 0.22690137 -0.13597293 -0.06615743 -0.01753544
-0.16379926 0.088839665 -0.22391523 -0.08857901 -0.011043359 -0.0051871347 0.10582538 -0.1657746
-0.18166801 -0.069546826 -0.026119312 -0.004436063 0.04986757 0.15943865 -0.12910306 0.0596021
-0.28404313 0.044555914 -0.039940882 0.113733485 -0.011911696 0.14226373 0.23121345 0.11513723
0.16832115 0.17519474 -0.043575604 0.04799456 0.18695222 -0.043512776 0.04716428 0.034009222
0.008601793 -0.08906789 0.09841614 -0.044504855 -0.072087884 -0.17878968 -0.16014358 0.15325537
-0.13464063 0.032474425 -0.10192944 -0.021438414 0.1637849 -0.13870886 0.12518331 -0.14210334
-0.192841 -0.07275454 0.27255046 0.19947217 -0.06948247 -0.09665999 0.053596854 -0.13720012

fc1.bias f4 [256]
00000000: 4fe6 583e f24c a83d 3f0f bcbd a810 f83d
00000010: 2567 803d 23c4 0cbe c66b 6d3e 4262 8f3e
00000020: e490 e7bc 1d4e 55bd 7a70 123e 5abd 4c3d
00000030: c896 4dbd fb95 d43d 280c 4f3e a77e c7bb
00000040: 79cc 223d cb95 47be 9a9a aebd 9e27 5e3e
00000050: b700 613e 8550 403e a1c4 5c3e 403b 1a3e
00000060: c055 793d 9dc3 d2bc f0ae 08be 176e 8b3d
00000070: 3e05 8c3c f6c2 053e e667 80be d6d1 eeba
00000080: 3500 813c 0d27 913c 217c 3cbe ff12 5f3c
00000090: f312 743d 0386 103d 13a6 ea3d 9dbd 47bc
000000a0: 8210 8dba 86d9 e5bd a4a8 3cbe b11d f13c
000000b0: 3a5b 1c3e 7d3f 8bbd 85d5 29be 53be f0bd
000000c0: 70d9 c23c 0ecc 973d a4aa 0d3e 23d3 7bbd
000000d0: fd3e 96bd 2a4b 153e 9382 58be 3e15 b4bc
000000e0: de31 213e f11f 903d be3e df3d 65d7 b2bd
000000f0: 0b7a ccbd 7381 453e 1de1 8b3d c311 de3c
00000100: cda9 b23d 3237 ebbd d53f d1bd b4d7 e13c
00000110: 0d7c 3b3e 56ea 26be 2e0d bebd a5c3 d03d
00000120: 90a9 11be 1b22 36be a02b debc 6fa1 ef3d
00000130: 9b80 1dbe b92e 87bc 833c 7f3d dc90 463e
00000140: 7212 09bd 5039 acbc 0e86 473e d2b2 1c3e
00000150: 38da 123e 659d 493e 030c 823e 4b43 03be
00000160: bc49 50be 2929 ddbd 8eaf a7bd ee38 393e
00000170: cf6a e9bd f0ba 33bd a571 08be cce0 2dbe
00000180: 9fd0 5bbd 7676 15be 7806 83bd e7e7 45be
00000190: a1be c43d 7ef5 7d3d a7b1 d73c 4963 1a3e
000001a0: 91b1 7c3d 2cd0 893d b9aa cebd 53fa fd3b
000001b0: 24b0 35be e748 20be 49e4 feba fa51 33bd
000001c0: 70e8 693d 59e6 733d 80ee 553e 1d5f 3e3e
000001d0: 1093 b6bc c38e 3a3e b6ab 923e 5849 613d
000001e0: 1590 0c3c 94bc 7a3c e3ef 5ebd a131 283d
000001f0: 921c 24be dbbb 523d 1698 e4bc c4bf 47be
00000200: 01db 2dbe 3d71 093e 225f 783e 40d0 49be
00000210: 011d 67bd 9a48 8fbd d220 24be d5a6 1f3e
00000220: 4c6c 263d 72f5 b33d 5797 bdbc 1787 683e
00000230: 9dab 4dbe 4cb2 893d 7ec7 4abe 92fa a23d
00000240: 5421 c1bd 0a22 e53b b22a 3cbd 87bf 273e
00000250: cec9 55be 4ce5 ddbd 78fe 193e c13a 1fbe
00000260: e30d ad3d 3faf adbb 5962 323e 6865 c9bc
00000270: 3f62 c2bd 2953 933e d486 533e c63f f0ba
00000280: cfaf d53d 759b acbc ae49 28bd 411b 4abc
00000290: f6aa 3abd d890 563e 83db 03bc 0333 843c
000002a0: b037 2e3e d575 b23b 8009 243d 9fdf 41be
000002b0: ab32 1f3e a311 d9bd 6841 263d e18b 3e3c
000002c0: 86d8 65bd 5b5c 783d 6191 cf3b 76cc 1dbe
000002d0: 21c8 4f3e 3b34 723e ecd2 bebd 49d4 253d
000002e0: ff20 433e cd1e f7bd 1e78 383c 3751 453e
000002f0: 48a5 e7bd c858 81bd 6828 53be 989d fcbc
00000300: 1ac8 823e 3415 4c3e 36fa 923d 04f4 a13d
00000310: 3600 333e 4b49 183e bfdc 543d 971d f0bd
00000320: e0ef 253e d526 4f3e c543 e4bd ce65 373d
00000330: 9c64 acbd fccb edbd fbc5 633e c2ae 2ebe
00000340: 768b 9837 e2a8 593e 5b2d 0b3e aec4 4e3e
00000350: 195a 1a3d 1b7e 98bc 6093 273e b07b 243d
00000360: 7812 3ebe ba79 6cbc 541d 88bd 2fbc f23d
00000370: 6d46 41be 7312 8b3d 637f 07bd 7099 393c
00000380: 9186 53be cf08 98bd 3c9b 30be f31b efbd
00000390: 3176 debd 602e 21bd f666 70be f19d 9a3e
000003a0: 11c8 69be 60c2 54bd b502 ae3d da55 613e
000003b0: 1859 27be 6065 653e a0fb d33d 593b 553d
000003c0: 5a8b 79bd 9207 f33d 346a b3bc c2bd 6bbe
000003d0: 8aec b2bd 3e90 61bd 3542 4a3e 334b f83d
000003e0: f01f 653e 8121 893d 8adb dfbd b39f 90bc
000003f0: 82dd c43d 7b10 b8bd f622 2bbe 2853 923d
0.21181606 0.08217801 -0.091825955 0.12112552 0.06269673 -0.13746695 0.23185644 0.28004652
-0.028267331 -0.052076448 0.14300719 0.049985267 -0.050192624 0.10380169 0.20219481 -0.006088096
0.03974578 -0.19490735 -0.08525582 0.216948 0.21972929 0.18780716 0.21559383 0.15061665
0.060872793 -0.025728041 -0.13347983 0.06808107 0.017092343 0.13062653 -0.25079268 -0.0018220495
0.015747169 0.017718816 -0.18406726 0.013615369 0.059588384 0.035284054 0.114574574 -0.012191203
-0.0010762366 -0.1122313 -0.18423706 0.029433103 0.15269175 -0.06799219 -0.16585357 -0.117550515
0.023785323 0.07411967 0.13834625 -0.061480653 -0.07336233 0.14579454 -0.2114356 -0.021982785
0.15741679 0.07037342 0.10900639 -0.087324895 -0.09984215 0.19287662 0.06830046 0.027108079
0.08723793 -0.11485137 -0.10217253 0.027568676 0.1830904 -0.1630033 -0.092798576 0.10193566
-0.14224839 -0.17786448 -0.027120411 0.11700713 -0.1538109 -0.016501771 0.062313568 0.19391197
-0.033464856 -0.021023422 0.19484732 0.1530259 0.14341056 0.19688947 0.2539979 -0.12818639
-0.20340627 -0.10798866 -0.08187781 0.18088123 -0.11397325 -0.04387945 -0.13324602 -0.16980284
-0.053665753 -0.1459597 -0.06397718 -0.19326745 0.09606672 0.062001698 0.026329828 0.15076937
0.061692778 0.06729159 -0.100911565 0.0077507882 -0.17742974 -0.1565281 -0.0019446696 -0.04377935
0.057106435 0.05954585 0.20891762 0.1859097 -0.022286922 0.18218522 0.2864663 0.055001587
0.008579274 0.01530375 -0.054427993 0.041062955 -0.16026524 0.051448684 -0.027904551 -0.19506747
-0.16978075 0.13422103 0.2425504 -0.19708347 -0.056424145 -0.069962695 -0.16028145 0.15590985
0.040630624 0.08787049 -0.023143454 0.22707783 -0.20084997 0.067234606 -0.19802663 0.07957949
-0.09430185 0.006992583 -0.045939155 0.16381656 -0.20877764 -0.108347505 0.15038478 -0.15549757
0.08449914 -0.005300432 0.17420329 -0.024584487 -0.09491395 0.28774384 0.20656902 -0.0018329553
0.104339235 -0.021070221 -0.04108589 -0.012335599 -0.045573197 0.20953691 -0.008047941 0.016137606
0.1701343 0.0054461756 0.040048122 -0.18932961 0.15546672 -0.10599067 0.04058972 0.011630029
-0.056114696 0.060634952 0.006334469 -0.15410027 0.20291187 0.23652737 -0.09317574 0.040485654
0.19055556 -0.12066422 0.011259107 0.19269262 -0.11310822 -0.06315762 -0.20620883 -0.030836865
0.2554329 0.19929963 0.0717663 0.079078704 0.17480549 0.14871709 0.051968332 -0.11724394
0.16204786 0.20229657 -0.111457385 0.044774823 -0.08417627 -0.116111726 0.22243492 -0.17058852
1.8184754e-05 0.2125583 0.1359152 0.20192215 0.03768358 -0.01861482 0.16364813 0.04015702
-0.18561733 -0.014433319 -0.06646219 0.118522994 -0.18874522 0.06790628 -0.03308047 0.011328086
-0.20656802 -0.07423555 -0.17246717 -0.11675253 -0.10862387 -0.039350867 -0.23476776 0.30198625
-0.22830226 -0.051943183 0.0849661 0.22005406 -0.1634258 0.22401953 0.10350728 0.05205855
-0.06092391 0.11866678 -0.021901228 -0.23021606 -0.087365225 -0.0550692 0.19751818 0.12123718
0.22375464 0.066958435 -0.10930546 -0.017654276 0.09612562 -0.089875184 -0.16712555 0.07144767

fc2.weight f4 [128, 256]
00000000: 92f1 c33c 5d75 86bd 731f 673d e825 063d
00000010: 788e cdbd 2851 5cbc 3517 733d b4f6 9dbd
00000020: 4a12 09bc c492 3f3d 5bf2 a0bc c6c7 e23c
00000030: a848 db3c 2d8e b43b daba 99bd cc13 4cbd
00000040: 2ca1 473c 604b d8bb 2bd2 80bd fb85 15bb
00000050: 01cf 32bd 3471 d83c 16e0 673d 30b6 72bd
00000060: 3315 133d 3b6d 2bbd 3502 efbc f206 0a3d
00000070: 7b2e 89bd f5d5 b13c 8530 e93c b946 87bd
00000080: 95e3 fcbb cc9e 7bbd e8b4 6abd 8294 46bd
00000090: b24c 1ebd d503 fcbc 24a9 e73c 1396 5b3c
000000a0: 8a3e 2e3c 947f 5ebd 1ac9 753d 87ec dabc
000000b0: 0c02 493c 7975 2fbd a02c 77bc 0038 7e3d
000000c0: e256 393a 9a18 3bbd 1757 08bd 4925 11bc
000000d0: 0c84 d7bd c7aa 0dbd 8cf7 b9bd d84d 3b3d
000000e0: 1c10 52bc 932a 853c 0f0b 97bd 6609 ccbd
000000f0: 6612 9dbc 95f6 c6bc f656 43bc 09b8 d93c
00000100: a040 d8bc e4f4 20bd 42c3 e43c 3289 aebb
00000110: 54e4 1a3d 66cd 48ba d869 323d 184f 5fbd
00000120: 4ae1 983c 1586 b8bd 0820 8a3c 8146 c2bc
00000130: 36dd 44bd 800d 093d 1569 e6bc 3bd4 87bd
00000140: 1a4b a5bd 9edd 2c3d fe9a 4b3c 0e69 033c
00000150: d97e 65ba 9d2d 2a3d 6606 39bd df31 233d
00000160: 29b3 3bbd 0270 843c 0ad8 06bd 374d 17bd
00000170: 9fc8 8c3d 1018 2dbd 6258 a4bd 6d13 f4bb
00000180: 5331 7fbd ec73 d2bd 9387 0d3d 1f51 82bd
00000190: 74cf efb9 9b18 56bb 88e7 c43b fe8f 5bbd
000001a0: 36b2 17ba ba97 aebb fa40 093d b58d 2a3c
000001b0: 7f18 333b d569 0fbd 5cdf 5fb9 d068 9ebd
000001c0: ab8d 07bd 9c88 10bd 78d2 603c b7da f13c
000001d0: 2339 bcbd 21de d33c 44bf 23bd e5c0 343d
000001e0: d3b0 91bd 2a74 1fbc 17dc 5c3c 1846 e73b
000001f0: 9f96 a73c 00f1 0f3d 569f 133d 7177 de3c
00000200: 9bd1 e53b 693e 0cbd 9c21 7d3b 6748 f7ba
00000210: 7e47 96bd 98fc 27bd 0c77 8cbd a4e6 bf3c
00000220: f5d4 86bc 591a 1abd 6716 0abd 4859 443d
00000230: 1946 803c 6812 4c3d 6734 84bd 8f8d 9a3c
00000240: ad7a f03c 92b7 303a f88e 303d 2447 4d3d
00000250: e395 85bd b81c 36bc bf7a 313c 7300 503d
00000260: f59a a3bc 527f 923d 5259 73bd 77ac cd3c
00000270: 6688 b4bc dc1a 373d a7bc 513d b43d f9bc
00000280: 63ae 0b3d 4de5 5dbc f40a 24bc 27df 83bd
00000290: cf07 943c d707 523d 27b9 993b d2e4 c4bc
000002a0: eefb 63bd 46af 473d 95cb 15bd f185 b73c
000002b0: 02af a3bc 6b77 263d 44f9 3ebd a230 443d
000002c0: 8b1d e33b bb85 81bc 46e0 babd 8e51 4ebd
000002d0: 8e2c 883b 5a5b 713c 7088 173c 256d 323d
000002e0: fe29 4d3d c175 c43c c8d2 3a3d da4c 693d
000002f0: 974f 2f3b 4ce4 3ebb 78d7 78bd 8598 d53c
00000300: 471b abbc d7b6 063d 5c01 8a3c 7b12 36bd
00000310: 2bdf 7bbd c5cd 98bd 0e4e 673d 6584 9fbc
00000320: 5378 4bbd 4b47 02bd ea14 0ebd fbd5 6d3c
00000330: 0bd3 7b3b 9d3a 733b dfeb a23c 2f80 04bc
00000340: 8b23 88bd a91d 91bc 5272 c1bc 3c51 223d
00000350: 0a41 183d 4658 95bc d23f 22bd 0ba7 76bd
00000360: 0cef 23bc 6ed4 f3bc 73d5 40bd 4a63 3abd
00000370: 9dba 6cbd 3c8d 39bb 708a 2cbc ff77 27bd
00000380: 1c34 8c3c 70dc abbc 1f8c 36bb 1977 aa3c
00000390: 74ae c23c 692f d2bc b1d4 67bd 9020 353d
000003a0: 05e8 a8bd d58d 0e3b f613 373d f2be 1b3d
000003b0: d752 553c 2301 153d f527 aabb 7546 b6bc
000003c0: ba99 11bc 5b56 0abc b3b5 09bb 3f97 4c3d
000003d0: d02b 31bd c801 96bc f967 05bd beaf 763c
000003e0: 72c4 523d 3999 98bb 0257 d1bd 22f3 0e3d
000003f0: 61a0 91bc 47a7 253d c055 e5bc 502d 96bc
0.0239189 -0.06565354 0.056426477 0.032750994 -0.100369394 -0.0134470835 0.059348304 -0.077130705
-0.008366177 0.046770826 -0.019646814 0.02768315 0.026768044 0.0055101127 -0.07506342 -0.049823567
0.012184422 -0.0066007823 -0.06290086 -0.0022815454 -0.043654446 0.026421167 0.05661019 -0.05925578
0.03590889 -0.041852217 -0.029175857 0.03369803 -0.066983186 0.021708468 0.028465519 -0.06605286
-0.0077175596 -0.061430737 -0.057301432 -0.04848147 -0.03864736 -0.030763546 0.028278895 0.01340248
0.010635028 -0.054320887 0.06000624 -0.026724113 0.012268554 -0.04283664 -0.015086323 0.062065125
0.00070701365 -0.04567776 -0.03328618 -0.008858987 -0.10523233 -0.034586694 -0.09080419 0.045728534
-0.012821224 0.016255653 -0.07375156 -0.0996273 -0.019173812 -0.024287501 -0.011922589 0.026577013
-0.026398003 -0.039296046 0.027925137 -0.0053264135 0.037815407 -0.0007660001 0.04355797 -0.05451879
0.018662114 -0.09009949 0.016860977 -0.02371526 -0.048062526 0.03346014 -0.028126279 -0.066322766
-0.08070965 0.042203538 0.01242709 0.008020652 -0.00087545585 0.041547406 -0.045172118 0.039842483
-0.045825157 0.01616669 -0.032920875 -0.036938872 0.06874203 -0.042259276 -0.0802467 -0.007448605
-0.0623029 -0.102760166 0.03455312 -0.06363129 -0.00045740197 -0.0032668475 0.006009046 -0.05360412
-0.00057867484 -0.005328146 0.033509232 0.010409762 0.0027327833 -0.03501304 -0.00021350145 -0.07734835
-0.03309409 -0.03528653 0.013722055 0.029523237 -0.091905855 0.025862755 -0.039977327 0.04412927
-0.07113805 -0.0097322855 0.013480208 0.0070579164 0.020457564 0.035141945 0.036040626 0.027156563
0.0070135123 -0.034239206 0.003862477 -0.0018866182 -0.07337855 -0.041012377 -0.06858644 0.023425408
-0.016458968 -0.037622783 -0.03371277 0.047936708 0.015658425 0.04982224 -0.064553075 0.018866329
0.029355371 0.00067412213 0.043105096 0.050116673 -0.06522729 -0.0111152455 0.010832488 0.05078168
-0.01997135 0.07153191 -0.059411354 0.025106652 -0.022037696 0.04470335 0.051205304 -0.03042493
0.034101855 -0.013543439 -0.010012377 -0.06439047 0.01807013 0.051277008 0.0046912613 -0.024034891
-0.05566018 0.04875114 -0.036571104 0.022402735 -0.019980911 0.04064123 -0.046624437 0.047897942
0.006931012 -0.015810838 -0.09124808 -0.050370745 0.004155702 0.014731253 0.009248838 0.04356112
0.050088875 0.02398193 0.045611173 0.056958057 0.002675032 -0.0029127775 -0.060752362 0.026073704
-0.02088703 0.032889213 0.016846351 -0.044451218 -0.061492126 -0.074611224 0.056470923 -0.01947231
-0.049675297 -0.03180627 -0.034687914 0.014516349 0.0038425352 0.0037113794 0.019887863 -0.008087202
-0.06647404 -0.017714338 -0.023614082 0.039628252 0.0371714 -0.018230569 -0.039611645 -0.0602179
-0.010005724 -0.02976438 -0.04707856 -0.045504846 -0.057795156 -0.0028312942 -0.010531053 -0.04088592
0.017114691 -0.020979136 -0.0027854515 0.020808743 0.023764826 -0.025657373 -0.056599323 0.044220507
-0.08247379 0.002175202 0.04469677 0.038023897 0.013020239 0.036378037 -0.0051927515 -0.022250393
-0.008886749 -0.00844344 -0.0021012842 0.049948927 -0.043254673 -0.018311396 -0.03256986 0.015056549
0.051456876 -0.0046569374 -0.102216735 0.03489984 -0.01777667 0.04044273 -0.02799499 -0.018332154

fc2.bias f4 [128]
00000000: 4957 87bc 63c3 f63c e6e2 f5bc e4ae 7abd
00000010: 3b3a cb3d 351e 13bd 4d87 913b 42a5 513d
00000020: aa0b 993c 6786 983c ad63 79bc 8630 c1bb
00000030: ca41 4f3d 2dad 7dbd 17cd acbb 8518 16bd
00000040: bbc4 c4bc f6f2 1f3d 33e5 27bd bead 533d
00000050: 1884 ff3c b38f 8cbb 60ca 29bd e0c4 29bd
00000060: 70a0 1bbd 17f3 243b f346 713c 011b e93c
00000070: b3e0 dc3d f10d c43c 9220 9d3d 9b59 84bd
00000080: da38 dd3c 3838 b2bc c41c 32bc ace1 073d
00000090: 67d5 8fbc ce60 35bb 425b 083d d2b4 54bb
000000a0: 846f 043e a480 12bd c1b1 bd38 26f8 14bc
000000b0: 3824 12bd 4baa 543d 9249 62bd 505e 263d
000000c0: 7419 8fbd 5c26 0cbc ab17 313d 377e 013e
000000d0: 5cc8 08bd e1fe 93bd ca90 66bd 7712 8cbd
000000e0: 6092 273d 6600 c63c 7f32 d7bb 16f1 443d
000000f0: 6408 c0bc 5ab8 2dbd d03a 34bd 1311 5dbd
00000100: 0131 4ebc 4e0c 913c 533e 62b9 8de9 0c3c
00000110: aec2 e63c 4be1 d43c e2bb 0b3e ae45 b13b
00000120: e219 a7bc fe75 1cbd 8fbb 8e3c b140 87bd
00000130: 6cf1 8b3c 52f8 23bc 79ca 423d 69a6 e7bb
00000140: 7e3c c93c ddb5 d13b c68a c7bc 110e a33c
00000150: b064 173d 94b9 833c 8cb6 183d 1a4e 2f3d
00000160: e973 843b 0072 90bc 88ab 9fbd e535 8d3c
00000170: 684a 8cbd f4e2 72bd 63d5 083d e140 c9bd
00000180: 2387 99bc cba5 293d bab9 bdbc 90b5 dabc
00000190: 9e3f 28bd ffb1 97bd 6813 edbb 7b68 a53d
000001a0: 9c4c 1cbd edb5 4abd 09df 83bd 35de d23c
000001b0: 2359 b3bc 8a9b f9ba 7342 19bd f4d2 68bc
000001c0: 7eff 1fbd 721c 29bd e595 5fbd 80e3 953d
000001d0: 1503 b03b 08bf 003e 6773 7abd c7de 52bd
000001e0: b044 e23c 5c61 7e3a 73f9 73bd 1f79 8fbd
000001f0: 6cba 263c 1e90 923c 3d67 09bd 8b94 44bc
-0.016521113 0.030122465 -0.03001542 -0.061201945 0.09923216 -0.03591748 0.004441178 0.051182993
0.01868232 0.018618776 -0.015221518 -0.005895677 0.05059985 -0.06193273 -0.005273472 -0.036644477
-0.02401959 0.039050065 -0.040990066 0.051679365 0.031190917 -0.004289591 -0.041452765 -0.04144752
-0.037994802 0.0025169307 0.014726388 0.02845526 0.107850455 0.023932429 0.07672228 -0.064624034
0.027004648 -0.021755323 -0.010871116 0.0331742 -0.017557813 -0.0027676108 0.033290155 -0.003245641
0.12933165 -0.035767213 9.0453315e-05 -0.009092366 -0.035679072 0.051920217 -0.055245943 0.040617287
-0.06987277 -0.008554067 0.043235462 0.12645803 -0.033394203 -0.07226349 -0.056290425 -0.068394594
0.04091108 0.024170112 -0.006567299 0.04808148 -0.023441501 -0.04241214 -0.0440014 -0.05397136
-0.012584926 0.017706063 -0.00021576257 0.008600605 0.028169002 0.025986334 0.1364589 0.005409918
-0.020398084 -0.038198464 0.01742342 -0.06604136 0.017082892 -0.010007935 0.047556374 -0.007069398
0.024564978 0.0063998536 -0.024358165 0.019904168 0.036961257 0.016079701 0.037283465 0.042799093
0.004042138 -0.017632484 -0.07796389 0.017237613 -0.06850129 -0.05929847 0.033406626 -0.09826828
-0.018741196 0.041417878 -0.02315985 -0.026697904 -0.041076295 -0.07406997 -0.0072349794 0.08076569
-0.038158998 -0.049489904 -0.06439025 0.025740722 -0.02189309 -0.0019043547 -0.037416887 -0.014210451
-0.039062016 -0.041286893 -0.05458631 0.07318783 0.005371461 0.12572873 -0.061145213 -0.05148199
0.027620643 0.0009703839 -0.059564065 -0.07005524 0.010176282 0.017890986 -0.03354572 -0.011998306

mean.weight f4 [1, 128]
00000000: 3bdd 7abd 6be5 96be c20c b2be 5ac2 b8be
00000010: 6f8e a23e c640 4abb 9880 6bbd 35a5 aebd
00000020: eb33 473d 53a2 24bd 9b89 e13c 19e8 f3bc
00000030: f1bd 33bd 4292 673d b033 913d 957d a2bc
00000040: ca60 15be b248 17bc da31 b4bd 6c1b 95bd
00000050: d642 6b3d 4248 b13d 5fbe 953d ba77 ceba
00000060: 6a85 8e3d 8df9 703b c3d7 b33d 3497 dcbc
00000070: e17d 233e 3926 05bc 10a2 af3e 14df 783d
00000080: 2e7a be3d ada1 f6bc e530 a9bc 2140 8dbe
00000090: 4a70 95be 3f7d 38be 70e9 393d 4290 a23c
000000a0: cedd 733e aa53 833d 2ca9 8f3d 2f6a 86be
000000b0: cdfb 1f3d c94e 633d 1176 96bc 1691 353d
000000c0: 6adf a23d c52f 0bbd 52f9 33bd 2fc3 933e
000000d0: 203d aebd a078 39bd f0e9 06bd 554d 833d
000000e0: b97f 40bd d62f 763d b220 7c3d 467d c4bc
000000f0: 913c 86bb 8b7a 1a3d 98e4 843d d951 97bd
00000100: a3b0 45bd ca8f bc3c 595b 30bd ee85 eb3c
00000110: 80e7 cc3c 9384 433d 171a 953e 3402 99bd
00000120: 0d4e b23c 68f4 c33c 30db 5f3b 88ac 0d3d
00000130: ccd1 893c 71e7 4e3c 927a 3cbe f343 973d
00000140: 848e 6a3e 1310 81bc b638 cf3d bdd0 283d
00000150: 119c 1a3d d22f 473d b158 a93d ea6a 883d
00000160: 389a 363c b97b 20bd 019c 92bc 7cbf 8bbe
00000170: c1f5 acbd afa9 8fbd dac4 8fbc 5e98 9abe
00000180: 2a28 c03c 48f0 1cbd 95f4 b0bc ed0d 7a3d
00000190: 05e3 7ebd 24f3 743b 4f85 dabc ebe8 6e3d
000001a0: 1fce 8dbd 448e 47bd 2c6d aabd 4bcd a13d
000001b0: 9f6d a0bd ceb8 1ebd 88bb 0f3d 79fb 79be
000001c0: 8f40 033d 283e 503c 05ab c13d bf09 4e3e
000001d0: d145 93bd 64f6 803e a12a 4fbd bb9c d73d
000001e0: 38ba 98bc 30ab 85bd 2cf2 81bb 1013 073d
000001f0: 8551 4abd 0a82 9c3d c271 35bc 1480 6dbe
-0.061246138 -0.29471907 -0.34775358 -0.36085778 0.31749293 -0.0030861362 -0.057495683 -0.085276045
0.048633497 -0.040193867 0.027531436 -0.029773759 -0.043882314 0.056535967 0.07089937 -0.019835273
-0.14587703 -0.0092336405 -0.08798571 -0.07280621 0.057436787 0.0865636 0.07311701 -0.0015752234
0.069590405 0.0036769838 0.08781388 -0.026927568 0.15965988 -0.008126789 0.3430333 0.06075962
0.09300648 -0.03010639 -0.020653198 -0.2758799 -0.29187232 -0.18016528 0.04538864 0.019844178
0.2381508 0.06412442 0.07014689 -0.26252887 0.039058495 0.055495057 -0.018366845 0.044327818
0.07952769 -0.033981103 -0.043938942 0.2885985 -0.085077524 -0.045281053 -0.032937944 0.06411234
-0.046996806 0.060104214 0.06155462 -0.023985516 -0.0040965755 0.037714522 0.06488913 -0.07388658
-0.048264157 0.023017783 -0.043055866 0.028750386 0.025012732 0.047733855 0.29121467 -0.07471123
0.021765733 0.023920253 0.0034157746 0.034588367 0.016823672 0.012628422 -0.18406132 0.07386007
0.22905928 -0.015754735 0.10118239 0.041214693 0.037746493 0.04862959 0.0826887 0.06661017
0.011145167 -0.03918049 -0.017896654 -0.27294528 -0.08445311 -0.070147865 -0.01754992 -0.30194372
0.023456652 -0.038315088 -0.021601 0.061048437 -0.06222822 0.0037376368 -0.026674895 0.058327597
-0.0692408 -0.04871966 -0.08321604 0.07900485 -0.078334086 -0.038750462 0.035090953 -0.24412335
0.03204399 0.012710132 0.094564475 0.20120905 -0.07191051 0.2518798 -0.050577763 0.10527941
-0.018643484 -0.06526792 -0.0039656367 0.032977164 -0.04939415 0.076419905 -0.011074485 -0.23193389

fc1.weight f4 [256, 24]
00000000: 3bf2 cdba 07cc 80be 46d0 d03d 2e8c fa3e
00000010: 821f ec3d bcb4 313d c0ea 5e3d e42c 3dbf
00000020: b2e9 a13c 17bc 0a3e 1f46 0ebd 91c0 ebbe
00000030: ee57 a1bd b452 043e e717 243d 100f bdbe
00000040: 4df7 05bd 8860 703d 7b1e d83d 8f90 bdbe
00000050: 2adf 373d e354 2dbc 39bc 1b3d 4b40 97be
00000060: 94e0 343e fc9a b53d 2912 3abd ff1e 653e
00000070: 0715 c3ba a9ba 62be 13be a93b c2c4 903e
00000080: 092f a2bc 71e0 8fbe d11d 8f3d d229 8a3d
00000090: a83d 9ebd 6b0c 25be a32b d6bd 5003 1f3e
000000a0: 687b 823d a8f9 51be 1441 69bd 8494 e23d
000000b0: e4e5 883d ef57 0ebe 7be0 613f 1701 8e3e
000000c0: d23b b23d 0ac2 0e3e 9af2 a43e 1791 1d3f
000000d0: a492 9f3d a04e 45be eaee 003e a247 4f3e
000000e0: 6c51 60bd b278 6abe 17fb 6b3b 07a2 e8bc
000000f0: dd83 253d 002c 07bc 8faf 943e 5bcc f63d
00000100: 08f3 ea3c 2272 85be 05c7 e83d a702 213e
00000110: 5d40 a43d a0b6 45be 5a6f b63b c0eb b9bc
00000120: 648c 3b3e a765 6cbe 2efc 753d 96fc 98bc
00000130: d928 843d dcad 0bbe b26a 13be ec78 ba3d
00000140: aca2 72be 8dfc 243e ac17 ad3d cba8 08be
00000150: 696e 22be 08d7 31bd 43d2 fabc 7344 133e
00000160: 14d7 c23d 3dfb 21bb bc6c 0dbe c233 04be
00000170: 34e3 50bd 3cec e4bc db5d ce3e 0c2e a8be
00000180: 8faf 02be 98c5 05be 20d3 5a3d 864b d0bd
00000190: ad17 263e a38a bc3d 9445 373d 62a2 f9bd
000001a0: 372b d63d 5019 05be 2f1e 13be 0bd3 d8bc
000001b0: 9416 49be 1316 08be 6269 723d 26f5 ad3d
000001c0: 15c1 12be 7f3f d8bd 0bfb 84bd 69a8 dabd
000001d0: a272 993d c7f3 1fbd f2f4 933e 0f62 6dbe
000001e0: 3465 113e 8f55 9abe d89c 3a3d 0531 f1bd
000001f0: be2e 77be 1773 fd3d 6f9f f2ba 5963 903d
00000200: 94ef 8fbc 47b9 9cbc e518 99be 545a 553d
00000210: 67f7 b5be a050 9ebd b582 0cbd 10aa 56be
00000220: bf54 6cbe 8b81 92be de10 dcbd e066 4f3d
00000230: c171 bcbd 591d cdbc 0070 09be ac6e 18bd
00000240: 1d53 b9bd 31ef 8b3d c2d6 9e3d 5633 2ebd
00000250: ed6f ac3d d865 08bd 2cb9 3ebe 84a1 2cbe
00000260: 69bd 1cbe 3b2f 203e b455 81be 7b96 53be
00000270: c268 d0bd d91d 7e3d 8c14 5f3d 2f8b 96bd
00000280: 5eba 043e 234a 41be 31b2 2abc 05ff 80be
00000290: 7635 953d 521f 763d 1564 bdbd 6e34 1ebc
000002a0: 3f7c 11bf 6e6d e1b8 9d05 eb3d 019d 85bd
000002b0: 6da9 d3bd 3cc0 eb3d e8f4 d0bc 2a16 343e
000002c0: a709 393d a085 acbd 326e 4d3e e92a 403e
000002d0: 887d a73d 226a b2bd 185d 53bd 6cfa d6bd
000002e0: aeb6 3ebd 8ed7 863c 0ca3 953c 723f 013e
000002f0: 3f0a bbbd 8b52 3dbe deba 173f 4a11 0c3e
00000300: 3493 d73d 7959 3fbe d6f8 69be b3e6 ae3d
00000310: 6eac 0ebe dc15 1fbe 3398 9fbe b481 cd3d
00000320: ece3 5fbe c525 88be 9923 d03d d8b6 f83d
00000330: d8da 98bd 98a2 a7be 59ce d03b d2a8 4b3e
00000340: a7cb 11be 25a9 bc3d 394f 68bc 30b4 153e
00000350: 3511 aebe 3edd bfbb a979 59be e717 86bd
00000360: 7b18 303d 6ee4 473e 0476 f33c 68af 10bc
00000370: 6072 9a3d df42 30bc 083f 323d 4985 b23d
00000380: 1462 36bd 8714 d5bd 81e8 7f3d ee1a 34bd
00000390: a4b6 333d 2359 053d 44a5 233e e6ed 0b3e
000003a0: 3c45 f4bd 11e5 cbbd 8ef8 1dbd 8d91 2438
000003b0: b3d3 343e 6b94 b4bd 12cc b63e a3f2 fdbe
000003c0: f5dd 593e bb13 bb3d 68a2 16bd f4b6 f5bd
000003d0: 769a 503d c8f5 debd 4bd3 3bbe 7fef 4f3c
000003e0: 2e84 b1bc d1ce debd d6c1 c43d 1f4b 023e
000003f0: 5ecd 83be 15c3 56be 1f5a 98bd cad6 39be
-0.0015712449 -0.2515566 0.10195975 0.48935074 0.11529447 0.043385252 0.054423094 -0.7389662
0.019764755 0.13548313 -0.03473484 -0.46045354 -0.078780994 0.12922174 0.040061858 -0.36925554
-0.032706548 0.05868581 0.10552689 -0.37024352 0.04489056 -0.010579321 0.0380213 -0.2954124
0.17663795 0.088674515 -0.045427475 0.22375105 -0.0014883586 -0.22141518 0.0051801293 0.28275114
-0.019797819 -0.28100923 0.06988109 0.06746258 -0.07726604 -0.16118018 -0.10457542 0.15528607
0.06371194 -0.20505393 -0.05694683 0.11063483 0.06684473 -0.13900732 0.88233155 0.27735206
0.08702816 0.13941208 0.3221634 0.61549515 0.07791641 -0.19268274 0.12591138 0.2024217
-0.05476515 -0.22897604 0.0036007816 -0.028397573 0.040408958 -0.0082502365 0.2904019 0.120506965
0.02868034 -0.2606364 0.11366085 0.15723668 0.08020089 -0.19307947 0.0055674734 -0.022695422
0.18315274 -0.23085652 0.06005495 -0.01867513 0.064531036 -0.13640541 -0.1439617 0.09105095
-0.23694867 0.16111965 0.08451781 -0.1334564 -0.1586243 -0.04341796 -0.030617839 0.1438158
0.09513679 -0.00247164 -0.1381101 -0.12910369 -0.050997928 -0.027944677 0.4030598 -0.3284763
-0.12762283 -0.13063657 0.053424 -0.10170655 0.16219969 0.0920613 0.04474409 -0.12189175
0.10457461 -0.12997937 -0.14366983 -0.02646782 -0.19637519 -0.1328967 0.059182532 0.08494024
-0.14331467 -0.10558986 -0.06493195 -0.10676653 0.074925676 -0.039050844 0.28897816 -0.23181938
0.14198762 -0.301434 0.045559734 -0.11776928 -0.24138924 0.12375467 -0.001851065 0.07050199
-0.017570294 -0.019131316 -0.29901806 0.052088097 -0.35540316 -0.07730222 -0.03430434 -0.20963311
-0.23079203 -0.28614458 -0.10745405 0.05063522 -0.09201384 -0.025038408 -0.13421631 -0.03721492
-0.09049056 0.068327315 0.077558056 -0.042529427 0.08419786 -0.03330025 -0.18625325 -0.16858488
-0.15306629 0.15643017 -0.252607 -0.20662872 -0.10176231 0.062040184 0.054462954 -0.07350766
0.12961718 -0.18875937 -0.010418461 -0.25194564 0.072855875 0.060088463 -0.09247605 -0.009656055
-0.5683021 -0.00010749219 0.1147568 -0.06524087 -0.1033505 0.11511275 -0.025507405 0.1758658
0.04517522 -0.084239244 0.20061567 0.18766369 0.0817824 -0.087116495 -0.051602453 -0.10496983
-0.046560936 0.016460206 0.018266223 0.12621859 -0.09132814 -0.18488519 0.5926951 0.1367847
0.10526124 -0.18686475 -0.2284883 0.08540096 -0.13932964 -0.15535682 -0.31170806 0.100345045
-0.21864289 -0.26591316 0.1016304 0.1214425 -0.07463616 -0.32741237 0.006372255 0.19888619
-0.14237843 0.09211949 -0.014179044 0.14619517 -0.33997503 -0.0058552315 -0.21237816 -0.06547528
0.042992096 0.19520733 0.02971936 -0.008830883 0.075413465 -0.010758131 0.043517143 0.087168284
-0.04452713 -0.10404306 0.062477592 -0.043970995 0.04387535 0.03255571 0.15981013 0.1366497
-0.11927268 -0.099558 -0.03856712 3.92362e-05 0.17658882 -0.08817371 0.35702568 -0.4959918
0.21276076 0.09134623 -0.036775976 -0.11997786 0.050928555 -0.10886723 -0.1834232 0.012691378
-0.021669473 -0.10879291 0.09607284 0.12723969 -0.2574262 -0.20972855 -0.07439064 -0.18148342

fc1.bias f4 [256]
00000000: ce43 07be 56e7 0fbe d735 19be d9a5 893e
00000010: 6542 b53e 5931 253e 6930 2ebd 2023 b6bd
00000020: 3257 1d3e 4084 983e 1d7d 263d 2518 0f3e
00000030: f7a7 e8bd 03d5 013e c7ab ac3e aa68 993e
00000040: 2e54 82bd 77f6 aa3e b1d5 583d 0882 693e
00000050: d2d2 dbbd 5cc7 353e 0fa1 0a3e a145 18be
00000060: 2c5c 5fbe f1d7 c33e 4d58 e23c f618 ffbd
00000070: 2ddb 9b3e cb00 10be 936e 3cbe 4eac 2cbe
00000080: 702b 1abc 102f f1bd 411c da3d dd88 9b3e
00000090: 0327 23be 5acb 4a3b 079a fd3d 679e a53d
000000a0: 4399 c43e bb5b b23e c6bb e1bd 2742 ae3e
000000b0: 5af4 443e 9e63 cf3c 7794 683d 1268 5dbe
000000c0: 549b 6b3e e758 683e 4c11 d5be 58ce 093e
000000d0: 88bf ba3c 7b54 8d3c 0b81 05be ee6b cb3e
000000e0: 1018 333f baa2 a6bd 8c02 5f3e bbc0 083e
000000f0: eb79 88bd 3465 093e d009 1a3e 11ad f63e
00000100: e2b7 143e d133 323d 5d0f d13e 9243 90be
00000110: c349 c4bc 878a eabd d83b e83d 66a4 6e3e
00000120: 4848 c4bd aee8 5cbd 147a d5bd 0113 95ba
00000130: 1ae9 34be 0b2a a23e 6fe9 153d db48 1fbe
00000140: b59d 833e a65d b4bd 4ce9 f63d 3263 3f3e
00000150: f684 893e 1b3f dbbd 4e08 33bd 629a 8d3e
00000160: 4b1f 03bd 2943 8f3e 324e 3d3e 2e95 9dbd
00000170: e823 d0bd d759 4f3e b3b9 84bd ecdb 033e
00000180: 1e02 8d3b 38af 8a3e 8079 f23d 6035 2a3e
00000190: a23d 473e ef8d c0bd 2bd4 c33d e403 6b3e
000001a0: f746 103e bba4 873d 433b b83e cd12 15be
000001b0: 35e9 05be a491 c63e 45e9 bd3e 0c40 c7bd
000001c0: d37c c0bd 3d64 0cbe 4a66 523e a43f 453e
000001d0: 110d 1f3e 6b5b 33be 2316 893e 182c b0bd
000001e0: 325c 5f3e f348 27be f182 ab3e fb37 a63d
000001f0: 1514 d33e 78b7 0c3f 3ded 273f c9f4 803e
00000200: 0334 41bd bb73 06be 0e47 3abe 64c9 a53e
00000210: c4c6 a63e 46ce 25be 07aa f73d f64b b93e
00000220: e63c a4bd 4bab f6bc ec5e a93e b2e8 64be
00000230: 66b8 d4bd 8d29 fcbd 88f8 3a3e 2a3f 31bc
00000240: bd1c f33d 4c08 26be 9a67 bb3e 12ff b93e
00000250: 9a5e f4bd 4e32 c63e 557f 613e 6e42 d43c
00000260: cfc4 7a3d 49ad d03b fca3 00be 14ff 84bd
00000270: f6dd 4f3e 0bff 413e b271 2fbe c6fc a53e
00000280: ab45 a8bd 8ddf 1bbd bf42 b73d bb2c f8bc
00000290: be23 013e 5719 73be f2d6 af3e 26b8 da3e
000002a0: 6f92 91bd 87db 42be 4964 ccbd 7a76 f1bd
000002b0: b9fe 72bd bff0 883e 77d9 f63d 8b55 5bbe
000002c0: b730 923d a05d 94bc ce3b 123e 22ff 45bc
000002d0: f739 0e3d 0682 563d 8515 09ba 4bbd 103d
000002e0: 13e4 e83c 0028 c3bd 3a7a 38be 3795 753e
000002f0: d12c b63b 33d5 ed3d b27b 48be 890d 1d3e
00000300: f786 a53e 7564 3a3e cece a33c fc6c 683b
00000310: f18a 34bd 143a bb3e 7095 603e 2ec4 36be
00000320: 84bf 9fbd fa66 46bd 8a66 91be 1a81 bb3d
00000330: 5f64 34be 44b4 c33e 9e6e 683e f0ac c5bd
00000340: 3355 98bd 2209 c13e f149 ce3e fd6b 063e
00000350: a209 943d be83 7c3e a859 f5bd 603f 3abd
00000360: 7162 e03e f429 aa3e e0e4 983e c262 083e
00000370: 677d c5bd d202 8ebd 368c 613e 296d 243e
00000380: 2291 d43d 4a87 5f3c 86b2 553e e6ff 6e3e
00000390: 3f0b ba3d f28c 9f3d c26f 843e 0f56 e43d
000003a0: f25c d1bd 1557 7c3e 620c 6b3e e870 da3c
000003b0: cdaa 77bd 23e9 69be 71fc 263e 8da3 b73d
000003c0: c896 8f3e efac e83b a19f 603e c258 163e
000003d0: b424 213e 2f7f d3bd 6556 f63c 5621 6dbd
000003e0: 26e2 37bd 9d0d cc3d 6543 c73d 3c0d e23e
000003f0: a588 83bd 3144 5dbe 57bd b4be 6992 1e3f
-0.13209459 -0.14053091 -0.14961945 0.26884344 0.35402218 0.16132106 -0.042526636 -0.08893418
0.15365294 0.297884 0.04064666 0.13974054 -0.11360162 0.12678914 0.33724806 0.29962665
-0.06363712 0.33391163 0.052938167 0.22803509 -0.1073357 0.17751831 0.13538001 -0.14870311
-0.21812505 0.38250688 0.027629996 -0.12455933 0.30440655 -0.14062802 -0.18401556 -0.16862604
-0.00940977 -0.117765546 0.1064992 0.30377856 -0.1593285 0.003094396 0.12382894 0.080868535
0.3839818 0.3483561 -0.11022143 0.34034845 0.19233838 0.025316056 0.056782212 -0.21621731
0.23008472 0.22690164 -0.4161476 0.1345762 0.022796407 0.017252197 -0.13037507 0.3973078
0.6995859 -0.081365064 0.21778315 0.13354771 -0.06663879 0.13417512 0.15042806 0.48178914
0.1452327 0.043506447 0.40832034 -0.28176552 -0.023960954 -0.11452203 0.11339539 0.233049
-0.09584099 -0.05393284 -0.10423675 -0.0011373461 -0.17667046 0.316727 0.036599573 -0.15555136
0.25706258 -0.088069245 0.120562166 0.18690184 0.26859254 -0.10705396 -0.04370909 0.27656847
-0.032012265 0.27980927 0.1848686 -0.076944694 -0.101630986 0.20249115 -0.06480732 0.12876862
0.004303231 0.27086806 0.118395805 0.16621923 0.19457105 -0.09402072 0.09561952 0.22950703
0.14089571 0.06623217 0.35982713 -0.14557953 -0.13077243 0.3878299 0.37092033 -0.09729013
-0.09398808 -0.13710113 0.20546833 0.19262558 0.15532328 -0.17515342 0.267747 -0.0860216
0.21812513 -0.16336422 0.33498338 0.08116146 0.4122626 0.5496745 0.6559637 0.25186756
-0.047168743 -0.13130085 -0.18191168 0.3238021 0.3257352 -0.16191968 0.12092977 0.36190766
-0.08019428 -0.030110976 0.33080232 -0.22354391 -0.10386734 -0.12312613 0.1825887 -0.010818282
0.11870716 -0.16214103 0.3660248 0.36327416 -0.11932106 0.38710254 0.2202123 0.025910582
0.061222848 0.0063683135 -0.12562555 -0.06493965 0.20299515 0.18944947 -0.17133215 0.32419413
-0.08216413 -0.03805499 0.08948278 -0.030294767 0.12611291 -0.23740135 0.34343678 0.4271862
-0.07108008 -0.19029056 -0.099800654 -0.11790176 -0.059324954 0.26746175 0.12053197 -0.21419351
0.07138198 -0.01811105 0.14280626 -0.012084754 0.03472325 0.052370094 -0.0005229342 0.035336774
0.028429067 -0.09529114 -0.18015376 0.23982702 0.0055595418 0.1161293 -0.19578436 0.15337195
0.32329533 0.18202384 0.019996073 0.003546535 -0.044077817 0.36567748 0.21932006 -0.17848274
-0.078002006 -0.04843805 -0.28398544 0.091554835 -0.17616414 0.3822347 0.22698447 -0.09652126
-0.074381255 0.3770228 0.40290788 0.13127132 0.072284 0.2465963 -0.11979991 -0.045470595
0.43825105 0.33235133 0.29862118 0.13318923 -0.09643059 -0.06934132 0.22026142 0.16057266
0.103792444 0.013643095 0.20868883 0.23339805 0.09084176 0.07790555 0.25866514 0.11149227
-0.10222806 0.24642594 0.22953942 0.026665166 -0.060465623 -0.22842841 0.16307236 0.08966742
0.28044724 0.0071006934 0.21935894 0.14682296 0.15736657 -0.10326993 0.030070493 -0.05789312
-0.044893406 0.09963534 0.09729651 0.44150722 -0.06422547 -0.21608044 -0.35300705 0.61942154

fc2.weight f4 [128, 256]
00000000: c1c1 053d 30e4 79bd e08d cf3c efe1 febc
00000010: aee2 dc3c 0ed0 8abd 4575 c4bb ce0a 9bbd
00000020: c2cd 353d db2e 853c a4a3 19bd a0b5 26bd
00000030: 5c88 413d edfa c7bc 4990 67bd 10c2 46bb
00000040: df0d 30bc 9e9b 80bd b2c6 7ebd 78d7 a33c
00000050: 9af1 963c a7fe 79bd b452 783c 1724 9e3b
00000060: 4a14 d53b 63fb 7bbc c824 5ebd e484 65bd
00000070: 5651 b9bc a846 13bd 303b 3abd d561 c1bb
00000080: 236f dbbc a071 22bb e368 73bd 345d 143d
00000090: ea13 7dbc 5b85 ef3c 1a8f 28bd e5f3 9dbc
000000a0: c064 a7ba 5c23 423d 32b9 6cbd 5c8e 66bd
000000b0: 26de deba d78f 293d 5343 2cbd 7f3a 2fbd
000000c0: 5a63 82bc 4807 ebbc c0c0 bbbc 49f8 dbbc
000000d0: d0b3 bdbd 61ac 66bd b506 6cbd b8d2 ddbc
000000e0: 16e8 bb3c 0faa 9fbd a2ad 9d3c 683d 773d
000000f0: 4e53 143d b6a4 95bc a5cc 65bd dc4a bebd
00000100: dac9 82ba baf2 963b 6320 893c b848 a43c
00000110: 1bd4 193d fff0 27bd 0a96 b6bc 3ebc dbbc
00000120: f832 90bc 684c 5e3d 25c4 883b f59e 6ebd
00000130: 0b64 22bd 8295 0dbd bf3d f83c 6f35 a33c
00000140: f698 bdbd ec0e 14bd 23d9 79bd c437 a83c
00000150: 10a9 84bd 4cf9 d93c 28a9 6cbd e84b e5bc
00000160: 4ecc 5f3d 7ad0 8ebd f08f 853c 7d30 49bd
00000170: b47d 5aba 67ea 1ebd a7c9 aa3c a0e6 333c
00000180: 8033 483d d84c 533d 400a 193d af72 283d
00000190: 3e78 93bc 7760 e53b e606 8f3c 52a9 81bd
000001a0: bca3 713d a390 3ebc 7a4d 84bd 9ce8 37bc
000001b0: 142f b1bc 48f9 fe3c 3311 9dbc f0bc 55bc
000001c0: 5060 29bc c0f6 823c 96f0 2d3d 8ccb bc3b
000001d0: 2312 14bd 14b2 ddbc 7f13 833d d779 31bd
000001e0: 2465 74bd cc16 d4bc 12a4 5a3c 3dff f93c
000001f0: a862 bbbc cbe5 c73c dac0 1fbd d04d 4b3d
00000200: 566e b2bc d54a 503c cfda 35bd 824b 8fbd
00000210: 76f0 8a3c 60fe 64bd bd6e 3ebc d283 5fbc
00000220: a081 a7bb 690e 113d 8d80 82bd 6144 9bbc
00000230: f983 8cbd a407 dd3c d9e4 9ebd bc87 eebc
00000240: ce05 b0bc b0d9 47bd 43d1 c2bd efcf f8bc
00000250: c5b1 64bd 4029 beba a481 643d 4d96 963b
00000260: 9587 453d edb9 463d 53a5 c33a fad9 433d
00000270: 1ada fabc d825 10bc 4d4b 3fbd e310 27bd
00000280: b0bb f9bc e935 c73c 8acb 17bb 4725 6f3c
00000290: 2c34 8cbc 10e3 44bc 4411 13bd de69 80bd
000002a0: 8a0d f83b d004 1dbc ec3b 12bd 44d3 2d3d
000002b0: 5ccd c93c 7b31 55bc 1d93 70bd bcad ffbc
000002c0: b148 213d 79e2 3b3c 18db 8cbc d85a efbc
000002d0: 27ca 58bd 9edc 84bd 715f 40bd 36fd 16bd
000002e0: 6bec 0d3c d0a6 0e3c 0efb 5cbd d2cc 54bd
000002f0: ecc2 dabc f03d f2bc d3cf 703c 2c8e 593c
00000300: 652a 2bbd 195b 51bd 0205 0d3d 1585 cb3c
00000310: 434a 1dbd 8f55 dabc 9625 a63c c3f4 b6bc
00000320: 2044 dd3c c269 cdbb 4a8b 0a3d a7fa 7ebb
00000330: 9593 3a3d 774c 27bd 2464 ab3c 4da1 51bd
00000340: 4ee4 67bd 162b 373c b306 03bd 968d cf3c
00000350: 0b10 8cbd 6212 36bd 1c25 48bd 163c 4b3d
00000360: 273f 113c 0195 f1bc 3585 2cbc 4b80 e5bc
00000370: 2f6e 82bd d8b1 9a3c 1f55 0ebd 68e6 953c
00000380: 6a18 ba3c 3fb3 71bd c210 75bd 1410 54bd
00000390: ca50 8e3c 7156 993b 4237 fe3b 149c ccbc
000003a0: b7d9 afba edac 043d d50e 8abd c84b 243c
000003b0: 7831 01bd 38b7 963b fb7c 90bd c8e8 55bd
000003c0: 3f90 443d aa7a d53c 66d5 85bd a74b 7fbd
000003d0: c329 69bd 4d42 f6bc d983 9abc 1114 55bc
000003e0: 29cd 4bbc 7b3d f23c 0ecf 53bd d596 7d3b
000003f0: aa1b 9abd b8fb 093d fe1a 373d de24 773d
0.03265548 -0.061008632 0.025336206 -0.031113593 0.026963558 -0.067779645 -0.005995425 -0.0757042
0.04438568 0.016257694 -0.037509575 -0.040700555 0.047249183 -0.024411643 -0.056534085 -0.0030328073
-0.010745495 -0.062796816 -0.06220121 0.020000204 0.018425751 -0.06103387 0.015156437 0.0048260796
0.006502663 -0.0153797595 -0.054234296 -0.056034938 -0.022621792 -0.035956055 -0.0454666 -0.005901555
-0.026786393 -0.0024786964 -0.0594262 0.036221698 -0.015446642 0.029238394 -0.041152097 -0.019281337
-0.0012771115 0.047397003 -0.057793804 -0.05628811 -0.0017003461 0.041396942 -0.042056393 -0.042780396
-0.015916515 -0.028689995 -0.022919059 -0.02685179 -0.09262812 -0.056316737 -0.057623584 -0.027078018
0.022937816 -0.07796108 0.019247834 0.060361296 0.036212258 -0.018267017 -0.056103367 -0.09291622
-0.0009978369 0.004606572 0.016739076 0.020054206 0.037555795 -0.041001316 -0.022288341 -0.02682316
-0.017602429 0.054272085 0.004173773 -0.058257062 -0.03964619 -0.03456641 0.03030288 0.01992294
-0.092576906 -0.036147043 -0.060998093 0.020534404 -0.064775586 0.026608132 -0.057778507 -0.027990296
0.0546382 -0.069733575 0.016303986 -0.049118508 -0.0008334771 -0.038797762 0.020848108 0.010980278
0.04887724 0.051586956 0.03736329 0.041124996 -0.018001672 0.007000025 0.017459344 -0.063311234
0.05899404 -0.011631164 -0.0646009 -0.011224892 -0.021628894 0.031124726 -0.01917324 -0.0130455345
-0.010337904 0.0159868 0.04246577 0.0057615694 -0.03615011 -0.027062453 0.06400203 -0.043329086
-0.059666768 -0.025889777 0.0133447815 0.030517215 -0.022874191 0.024401566 -0.039002277 0.049634755
-0.021781128 0.012713154 -0.044398125 -0.06996824 0.016960364 -0.055906653 -0.011623082 -0.013642268
-0.005111888 0.035414133 -0.06372175 -0.018953504 -0.06861109 0.026981182 -0.07758493 -0.029117458
-0.021487143 -0.048791587 -0.0951257 -0.030372588 -0.055833597 -0.0014508143 0.055787697 0.004595554
0.048225004 0.048517156 0.001492659 0.0478153 -0.030621577 -0.008798085 -0.04670267 -0.04078759
-0.030485004 0.024317699 -0.002316209 0.01459629 -0.017114721 -0.012017027 -0.035905138 -0.062701926
0.0075699734 -0.009583667 -0.035701677 0.042437807 0.024634056 -0.013012285 -0.05873405 -0.031210773
0.039375965 0.0114675695 -0.017194316 -0.029218122 -0.052927162 -0.06487392 -0.04696602 -0.036862575
0.0086623235 0.008706763 -0.053950362 -0.051953144 -0.026704274 -0.02957055 0.014697987 0.013278525
-0.041788477 -0.051112268 0.034428604 0.024843732 -0.0384009 -0.026652126 0.020281594 -0.022333508
0.027010024 -0.006268711 0.033824243 -0.0038906725 0.0455509 -0.040844407 0.020921774 -0.05117922
-0.056614213 0.011179706 -0.03198881 0.025336068 -0.068389975 -0.044451125 -0.048863515 0.04961785
0.008865154 -0.029489996 -0.010529806 -0.028015276 -0.06368672 0.01888363 -0.034749147 0.018298343
0.02271672 -0.059008833 -0.059830435 -0.051773146 0.017372508 0.004679494 0.007758052 -0.024976768
-0.0013416325 0.032391477 -0.0674111 0.010027833 -0.031541318 0.004599478 -0.07055088 -0.05222395
0.047989126 0.026059467 -0.06534843 -0.062328007 -0.056924593 -0.030060912 -0.018861698 -0.0130052725
-0.012439051 0.029570332 -0.051711135 0.003869464 -0.07524808 0.033687323 0.044703476 0.060337894

fc2.bias f4 [128]
00000000: dfc7 b6bd 37b9 96bc 52a7 95bc df0e 32bd
00000010: 4dee 7ebd 6428 953e 14b7 b83c b8a7 88bd
00000020: 2720 453c e131 9a3b 3d02 a2bb 5214 9f3e
00000030: 793b 9c3e 9247 f8bc 0b52 0e3b bd50 85bd
00000040: e1e6 cbbc fbaf 3ebe 9400 1e37 46df 95bd
00000050: c572 883e 7fa6 d1bd ee40 b23e c4aa 3fbd
00000060: d20a e4bd 512f 1fbd 9824 debc c7e1 c33d
00000070: 1154 21bb 8f6d 943e 7f5a e9bd b8dc 04be
00000080: 2251 883c a4dc 7e3e fa11 9abd 59e9 ba3e
00000090: a826 febd e581 833e 86b0 813e 4c90 d13e
000000a0: 5208 9fbc 4b77 ccbd fe3f 093c a6f0 91bc
000000b0: 56c0 6dbc 0605 18be c8b9 e2bc 69cb a6bd
000000c0: 836d 8a3e e9e5 e4bb f2e2 863e 2e8b 0f3d
000000d0: e8f9 2c3e 726b ee3e c78e 793e 6b9f 8e3e
000000e0: d9a2 80bd 2476 84bd 0585 963e 9a75 81bd
000000f0: 251d 693e e97c f5bd c36f 17bc dcff 8abd
00000100: 5105 97bd eab0 a63e 629d b13e b06f 13be
00000110: d8d5 13bc ef23 df3e 1c5e c2bc f4b5 8dbc
00000120: be10 c83e 5636 293c f855 c1bd cb73 29bd
00000130: 3582 4ebd 5fa4 943b 5d68 3cbd 2a07 603e
00000140: 8b5a afbd 2f30 183e 08f7 6f3e 5da0 a9bd
00000150: 40bf 2c3e 97a7 26be 0a89 fabd c2bb 06bc
00000160: f6eb 723e 465e 823e d2e8 fb3c a45f febc
00000170: f0dd 8b3e b3e5 753e fce7 fe3c 0662 903e
00000180: c267 31bc 1ce6 a13e 8f2b d4bd 309b 6a3e
00000190: 0ac2 473e 80c6 f6bd 4970 85bd 0320 9c3e
000001a0: 32f1 723e 3037 a43e a5f7 dd3e a538 9d3e
000001b0: 2a63 e93c f91a 503d 1074 af3b d055 02be
000001c0: aacf c3bc 09f6 583e 275b 273d 919e 3cbd
000001d0: 581a 8d3e 7d6a 24bd 1e37 29bd 656c c63e
000001e0: 4807 4e3d b561 18bd 8788 f7bc bf5e 4abd
000001f0: 36c8 923e 7e2d b93e 774e 633d 8c91 c33b
-0.08924841 -0.018398864 -0.018268261 -0.043471213 -0.06223898 0.29132378 0.022548236 -0.06672615
0.0120315915 0.004705653 -0.0049441145 0.3107019 0.30514124 -0.030307565 0.0021716382 -0.0650954
-0.024890365 -0.18621819 9.4176685e-06 -0.07317977 0.26650062 -0.10236835 0.34815162 -0.046793714
-0.11134876 -0.038863484 -0.027117059 0.09564548 -0.0024616758 0.28989837 -0.11394214 -0.12974823
0.01664025 0.24888855 -0.0752296 0.36506155 -0.12409717 0.2568504 0.2532999 0.40930402
-0.019413147 -0.09983691 0.008377073 -0.017814945 -0.0145111885 -0.14845666 -0.027676478 -0.08144266
0.27036676 -0.0069854152 0.2634502 0.03504484 0.16892207 0.4656635 0.24370871 0.27856
-0.06281061 -0.06467846 0.2939836 -0.06321259 0.22765024 -0.11986715 -0.009242955 -0.067870826
-0.07374061 0.3255685 0.34690386 -0.14398074 -0.009023152 0.43582103 -0.023726515 -0.017298676
0.39075273 0.010327896 -0.09440225 -0.041370194 -0.050417144 0.004536196 -0.045997966 0.21877733
-0.085621916 0.1486213 0.23434079 -0.0828254 0.16869831 -0.16274868 -0.122331694 -0.008223476
0.23722824 0.2546255 0.030750666 -0.031051464 0.27317762 0.24013405 0.031116478 0.28199786
-0.01082796 0.31620872 -0.10359871 0.22910762 0.19507614 -0.120495796 -0.06515557 0.30493173
0.23724821 0.32073355 0.43353 0.3070728 0.028489668 0.050806973 0.005354412 -0.12728047
-0.023902733 0.21187605 0.040858414 -0.04604966 0.2755916 -0.040140618 -0.04131233 0.38754573
0.050299913 -0.037202556 -0.030216468 -0.049406763 0.28668374 0.3616752 0.05549475 0.0059682783

value.weight f4 [1, 128]
00000000: 2f62 aebc c9f2 233f e309 643a b471 103f
00000010: 3a68 063f c6f8 edbe 82c0 2e3f 1a50 223f
00000020: 7cd3 b9bc 7c60 04bd 284b 8fbd f613 bcbe
00000030: edfc 2dbf e472 3d3f 7d5b 96bd 8e56 e33e
00000040: 3aa3 13bd 7764 d53e f5e0 ef3e ad61 3dbd
00000050: b82c f6be 8cab 223f 2a81 26bf 1d8f 8bbd
00000060: a4b3 033f 4ee1 0d3f 6895 21bd cfb2 23be
00000070: de9a 9e3e 7c54 f3be ed88 203f 1760 cc3e
00000080: 69a3 38bc f407 bcbe bb77 7b3e 63f7 a1be
00000090: 4f6c c33d 1d41 d1be 3c09 ecbe 911f 2abf
000000a0: fe0c a93e 9a5d cd3e 4053 53bc 92d4 e0bc
000000b0: 0c7c 1c3f 3bfb a13e d67b a43e 1319 b13c
000000c0: f5dd bdbe 9eab 11bd 9ef2 c8be 1062 d1bc
000000d0: 7909 c6be c123 11bf 11d5 cdbe 3e07 b3be
000000e0: a283 2f3f 6ee5 d6bc f7e4 f8be 5d46 163f
000000f0: 7718 f0be cd08 e73e 68e3 3a3e c554 c43e
00000100: 0ebe ff3c 859c b4be 8019 b6be 7df9 e23e
00000110: 1301 0f3f 817d 07bf f952 77bd 1018 593d
00000120: a69b 1dbf 8614 cdbc ae67 9a3e a166 c93e
00000130: 156d 6d3e aaa2 0bbc 223b dabc 0383 cdbe
00000140: 651d 1f3f e786 d2be e44b c8be c246 9bbd
00000150: 1347 d9be dc42 a63d 30fa 3a3f b4a9 353f
00000160: d4f7 dcbe 3a0e cebe 22fd 1cba 83d8 d53e
00000170: 1dae c9be 514d d6be 3327 003f 48ea 10bf
00000180: 28d3 203f 6466 f5be 372d 323f dae5 c7be
00000190: 5813 ffbe a05b e83e 498a 4a3e 067f c9be
000001a0: 8fbd d0be 6c96 d9be eabf 46bf 6887 edbe
000001b0: 03b9 da3e ad2d 1cbc f9c0 81bd be6a cd3e
000001c0: c746 2d3f 4d32 e1be d3b7 133f baaf ae3e
000001d0: 8410 04bf 101c d73e 2cf1 1f3f 789e 20bf
000001e0: 38bb 27bd 5cd8 ef3e a83a c9bc badb dabc
000001f0: 3c59 fcbe 7a09 10bf 27d0 1d3f 7eb3 f2bb
-0.021287052 0.64042336 0.0008698983 0.564235 0.5250279 -0.46478862 0.68262494 0.63403475
-0.022683851 -0.032318577 -0.06996757 -0.3673398 -0.6796406 0.74003434 -0.07341669 0.44401973
-0.036044337 0.4167821 0.46851316 -0.04623573 -0.48080993 0.6354301 -0.6504084 -0.06814406
0.51445985 0.5542191 -0.039449126 -0.15986179 0.3097753 -0.47525394 0.6270893 0.3991706
-0.011269429 -0.36724818 0.24557392 -0.31634054 0.095421426 -0.4086999 -0.46100795 -0.66454417
0.33017725 0.40110475 -0.012898266 -0.027445111 0.6112678 0.31636986 0.3212573 0.021618402
-0.37083402 -0.035564058 -0.39247602 -0.025559455 -0.38679102 -0.5669518 -0.4020162 -0.34966463
0.6856023 -0.026232447 -0.48612186 0.58701116 -0.46893665 0.45123902 0.18250811 0.38345924
0.031218555 -0.35275665 -0.3556633 0.4433097 0.55861014 -0.5292588 -0.060381863 0.053001463
-0.61565626 -0.0250342 0.30157226 0.39336112 0.23186143 -0.008522669 -0.026639525 -0.40139017
0.6215423 -0.41118547 -0.391204 -0.07581855 -0.42437038 0.08118221 0.73038006 0.7096207
-0.43157828 -0.4024523 -0.00059886475 0.41766748 -0.3939065 -0.41855863 0.50059813 -0.56607485
0.628222 -0.4792968 0.6960024 -0.3904255 -0.49819446 0.45382404 0.19779314 -0.39354724
-0.40769622 -0.42497575 -0.7763659 -0.4639237 0.42719278 -0.009532374 -0.06335635 0.401205
0.6768612 -0.4398369 0.5770237 0.34118444 -0.515877 0.42013597 0.62477374 -0.62741804
-0.04095003 0.46844757 -0.024564102 -0.026716102 -0.4928683 -0.5626446 0.6164574 -0.007406651
