logs/td_actor_policy_v2.pth (torch, 292549 bytes, 30 tensors)

fc1.weight f4 [128, 24]
0	0xbe1c8aae	-0.15287277
1	0xbe6d8111	-0.23193766
2	0x3daec807	0.08534246
3	0x3de44b80	0.11147213
4	0x3d457993	0.048211645
5	0x3d2fba6e	0.042902403
6	0xbd20152d	-0.039082695
7	0x3e051846	0.12997541
8	0x3e0956b8	0.13411987
9	0x3e0386d3	0.128444
10	0x3d88ccc8	0.06679684
11	0x3dcba1fa	0.09943004
12	0x3e28329f	0.1642556
13	0xbd70c1c6	-0.058778547
14	0x3e5741dc	0.21021217
15	0xbdea3fbf	-0.1143794
16	0x3cb2abc7	0.021810425
17	0xbd8aca11	-0.06776822
18	0xbda0717e	-0.07834147
19	0xbe240355	-0.16016896
20	0xbceb2480	-0.028703928
21	0xbdce654a	-0.10077913
22	0xbc8bdaf2	-0.017072175
23	0x3e45c9c4	0.19315249
24	0xbd196310	-0.03744799
25	0x3dbd4dcb	0.092433535
26	0xbcb42568	-0.021990493
27	0xbe53ca97	-0.2068275
28	0xbc4f5856	-0.012655338
29	0x3e05084f	0.1299145
30	0xbde85cf3	-0.11345854
31	0xbe1142a2	-0.14185575
32	0xbdd998f7	-0.10624879
33	0xbdf992d5	-0.12186209
34	0xbe592d96	-0.21208796
35	0x3e0c840b	0.13722245
36	0x3e3677e9	0.1781918
37	0xbe33360e	-0.17501089
38	0xbd19812d	-0.037476707
39	0x3d546a18	0.05185899
40	0xbbca98f6	-0.006182785
41	0xbe10e214	-0.14148742
42	0xbdc456b4	-0.0958685
43	0xbdd37b27	-0.10326224
44	0xbc140a42	-0.009035649
45	0x3d9fa3b8	0.07794899
46	0xbe5a414a	-0.21313968
47	0x3c9706dc	0.018435888
48	0x3d814b82	0.0631323
49	0x3e7ad113	0.24493818
50	0xbdcdb242	-0.100437656
51	0x3d11f9b7	0.035638537
52	0xbd2e44eb	-0.042546194
53	0x3db8677a	0.090041116
54	0xbdd0f98e	-0.10203849
55	0x3e1e29f9	0.15445699
56	0x3d4a3732	0.049369045
57	0xbdfb29d9	-0.12263841
58	0x3e1b8850	0.15188718
59	0x3df9ddeb	0.122005306
60	0xbc7e909e	-0.015537409
61	0x3d4b734b	0.0496705
62	0x3e07f1e0	0.13275862
63	0xbdd4d4a1	-0.10392118
64	0xbdce543a	-0.10074659
65	0xbe0a866e	-0.13527843
66	0xbd292c3a	-0.041301943
67	0x3e2fc575	0.17165168
68	0x3e05515f	0.13019322
69	0x3d986d5f	0.07442736
70	0x3e227ef7	0.15868746
71	0xbe2e428c	-0.17017573
72	0xbcf22031	-0.029556366
73	0xbe2d0649	-0.16896929
74	0xbe4bfc19	-0.19920386
75	0x3e24a883	0.16079907
76	0xbde176f7	-0.11009019
77	0x3d5e5050	0.05427581
78	0x3d76ff42	0.060302027
79	0xbdccc1cd	-0.09997902
80	0x3e49849c	0.19679493
81	0x3e381325	0.17976053
82	0xbd800aec	-0.06252083
83	0xbda9414a	-0.08264406
84	0x3dc93ae2	0.09825684
85	0xbe3f775d	-0.18697877
86	0x3d283ef7	0.041075673
87	0xbc5b2e0a	-0.013377676
88	0xbe15caf1	-0.14628197
89	0xbe4eb4bb	-0.2018613
90	0xbd50705b	-0.0508884
91	0xbd9e5191	-0.07730401
92	0x3e158d3c	0.14604658
93	0x3e325f64	0.17419201
94	0xbdc1470e	-0.09437381
95	0xbe10a042	-0.14123634
96	0x3e0cc0e8	0.13745463
97	0x3e52e42b	0.20594852
98	0x3cdb01d9	0.02673428
99	0x3e3731d6	0.17890105
100	0x3be79d3a	0.0070683034
101	0x3e3fa127	0.18713818
102	0x3e343b25	0.17600687
103	0x3e0982a1	0.13428737
104	0xbe03bc0f	-0.12864707
105	0xbde01cf2	-0.10943021
106	0xbe0c0e2d	-0.13677283
107	0xbcbe4b4b	-0.023229262
108	0xbc9a2200	-0.01881504
109	0xbd2e32c0	-0.042528868
110	0xbd68cb61	-0.056834582
111	0x3ccfcf12	0.025367294
112	0x3e3da6e0	0.18520689
113	0xbe36a3ad	-0.17835875
114	0xbd65d7a6	-0.05611386
115	0x3dfd1af6	0.12358658
116	0x3da81514	0.08207145
117	0xbe2e1253	-0.16999178
118	0x3e30f078	0.17279232
119	0x3df57ae4	0.1198633
120	0xbe831bc8	-0.25607133
121	0xbdafae33	-0.08578148
122	0x3e1893c2	0.14900115
123	0xbcb8ba15	-0.022549668
124	0x3d66b8fd	0.056328762
125	0x3db6f3a8	0.089331925
126	0xbcfc52c3	-0.030801183
127	0xbd200dba	-0.03907559
128	0xbe1ffb9e	-0.15623328
129	0xbd6ad76c	-0.05733435
130	0x3e3d1f55	0.18468983
131	0xbd5b8c86	-0.05360081
132	0x3e0bd2d2	0.1365464
133	0xbd11bfef	-0.035583433
134	0x3e4fa188	0.20276463
135	0x3d80f005	0.0629578
136	0xbab63420	-0.0013901033
137	0xbdc867db	-0.09785434
138	0x3c884ae4	0.016637273
139	0xbe177123	-0.14789252
140	0x3e573503	0.21016316
141	0x3e104d46	0.14091977
142	0xbe11c0fc	-0.14233774
143	0x3e218fa3	0.1577745
144	0x3df860a7	0.1212781
145	0x3eafe4db	0.3435429
146	0xbc98eb40	-0.018666863
147	0xbbac1329	-0.0052513075
148	0x3de24a66	0.110493466
149	0x3d28483e	0.04108452
150	0x3da5c268	0.08093721
151	0xbd3c30d6	-0.04594501
152	0x3e45f23d	0.19330688
153	0x3e19d074	0.15020925
154	0x3e0323ae	0.1280658
155	0x3d2e6f31	0.04258651
156	0x3e567405	0.20942695
157	0x3db523a4	0.088446885
158	0x3c98c73d	0.018649692
159	0x3e14c50d	0.14528294
160	0x3c70b6f6	0.014692059
161	0x3ccf5a20	0.02531153
162	0x3d1696a8	0.03676477
163	0x3c524efe	0.012836216
164	0x3e411386	0.18855104
165	0x3e45d174	0.19318181
166	0xbdf71682	-0.1206484
167	0x3c230357	0.009949527
168	0xbe277b06	-0.16355523
169	0xbe155fea	-0.1458737
170	0x3e211f5b	0.15734617
171	0x3e4b716c	0.19867486
172	0xbde26bdc	-0.11055729
173	0xbd31aa06	-0.043375038
174	0xbd027202	-0.031847008
175	0xbe45f5a8	-0.19331992
176	0x3e27ddc9	0.16393198
177	0xbd5b3955	-0.053521473
178	0x3e8af80e	0.27142376
179	0x3e3e5437	0.18586813
180	0xbe26cc1b	-0.16288798
181	0x3e722734	0.23647767
182	0x3d9b1782	0.07572843
183	0xbdacd893	-0.08439746
184	0xbe0ab673	-0.13546161
185	0xbdb8e59c	-0.090281695
186	0x3c1788a8	0.00924889
187	0xbe1737a8	-0.14767325
188	0xbdab9e76	-0.083798334
189	0xbd96dc35	-0.0736622
190	0xbe199392	-0.149977
191	0x3e0be117	0.13660084
192	0x3ca14ddd	0.019690448
193	0xbe89a74d	-0.26885453
194	0x3e803e61	0.2504759
195	0xbd715db7	-0.058927264
196	0xbe03fc53	-0.12889223
197	0x3dc3efce	0.095672235
198	0xbcd9054c	-0.026491784
199	0x3e435f3c	0.19079298
200	0x3d819103	0.06326487
201	0xbe09fa03	-0.13474278
202	0xbd32774a	-0.043570794
203	0x3e4cd496	0.2000297
204	0xbe161030	-0.14654613
205	0xbde763c6	-0.11298327
206	0x3dee398c	0.1163207
207	0xbcef13b3	-0.029184198
208	0xbba00553	-0.004883447
209	0xbdf09e6a	-0.11748965
210	0xbd893574	-0.066996485
211	0xbbf2aa58	-0.0074055605
212	0x3de3197f	0.11088847
213	0xbde332d0	-0.11093676
214	0x3e64830d	0.22315617
215	0x3e33131b	0.17487757
216	0xbe6be581	-0.23036768
217	0xbe87d60e	-0.26530498
218	0xbe08a2e8	-0.13343394
219	0xbc976278	-0.01847957
220	0xbd54a6d2	-0.051916905
221	0x3e3f832f	0.18702386
222	0xbdcd324a	-0.100193575
223	0x3c6c0cee	0.01440738
224	0xbddfb7d5	-0.10923735
225	0x3e0ebda9	0.13939537
226	0x3e3058be	0.17221352
227	0x3cf23a7f	0.029568909
228	0x3e501458	0.2032026
229	0xbe4217eb	-0.18954436
230	0x3e0b16fc	0.13582987
231	0x3d0ccce2	0.03437508
232	0xbe08c269	-0.13355412
233	0x3dc9f526	0.098612115
234	0x3e64ab49	0.22330965
235	0xbd5495ee	-0.051900797
236	0x3d77514b	0.06038026
237	0xbced242d	-0.028947914
238	0x3e833888	0.25629067
239	0xbd9bce58	-0.07607716
240	0xbe358f2b	-0.17730395
241	0x3d541c54	0.05178483
242	0xbe05d2d1	-0.13068701
243	0x3e31e287	0.1737157
244	0xbded382b	-0.11582979
245	0xbd8b77d8	-0.06809968
246	0x3e040a0e	0.1289446
247	0x3a06e858	0.0005146316
248	0xbd690acf	-0.056895074
249	0xbdb89438	-0.090126455
250	0x3e3f3851	0.18673827
251	0x3df58c0d	0.11989603
252	0xbe1498a1	-0.14511348
253	0x3d987728	0.07444602
254	0x3e302bfd	0.1720428
255	0x3e462f62	0.19354013

fc1.bias f4 [128]
0	0xbd7a5cd5	-0.061123688
1	0xbd4a880b	-0.049446147
2	0xbdaf816f	-0.085696094
3	0x3d516f89	0.05113176
4	0xbdaecbf2	-0.08534993
5	0x3e0a0522	0.1347852
6	0xbdea6fe5	-0.114471234
7	0x3e68099f	0.2265992
8	0x3e7128b2	0.2355068
9	0x3dd016ed	0.10160623
10	0xbdf352c1	-0.118810184
11	0xbd90ca9a	-0.07069893
12	0x3da4b154	0.08041635
13	0x3d9c205e	0.07623361
14	0x3b4e2474	0.0031454833
15	0xbdd4c867	-0.10389786
16	0xbe395924	-0.1810041
17	0xbe10c3f5	-0.14137252
18	0x3e017ba9	0.12644829
19	0x3d28ac30	0.041179836
20	0xbe135df3	-0.14391308
21	0x3dfb99a2	0.122851625
22	0x3d8d27ae	0.06892334
23	0x3de70851	0.11280883
24	0xbd02f206	-0.031969093
25	0x3e319c2e	0.17344734
26	0x3dfb9926	0.1228507
27	0x3d9d5b4d	0.0768343
28	0x3d83fb0a	0.06444366
29	0xbdddf930	-0.10838544
30	0x3d0c3d0b	0.034237903
31	0x3dea50f9	0.114412256
32	0x3cc9c575	0.024630288
33	0x3d8d7bc9	0.06908376
34	0xbe1d4698	-0.1535896
35	0xbd411f6d	-0.04714911
36	0xbd4dbbcf	-0.050227936
37	0xbe163053	-0.14666872
38	0xbdf061e4	-0.11737421
39	0xbdff3485	-0.12461189
40	0xbe4720ab	-0.19446056
41	0x3dce687c	0.100785226
42	0x3e2a9b3b	0.16660778
43	0x3d89bcf7	0.06725495
44	0xbd1aac31	-0.03776187
45	0xbde140b3	-0.109986685
46	0xbe44a58a	-0.19203773
47	0xbe0ee56b	-0.13954704
48	0x3d87fc02	0.066398636
49	0xbe371bbd	-0.17881675
50	0x3da0de25	0.07854871
51	0xbe0fd8da	-0.14047566
52	0xbe2670ac	-0.16253918
53	0xbca89252	-0.020577583
54	0x3e2bf685	0.16793258
55	0x3d8d9a3c	0.069141835
56	0x3db5984a	0.088669375
57	0xbe178905	-0.14798363
58	0xbe4bae43	-0.19890694
59	0x3e0b68e6	0.13614234
60	0xbda2eee4	-0.07955721
61	0x3c9587ad	0.018253172
62	0xbd81fa05	-0.063465156
63	0xbd731cd5	-0.05935367
64	0x3c5a2b95	0.013316055
65	0xbd7da1f1	-0.061922017
66	0xbe0432ef	-0.12910055
67	0xbe55ba4e	-0.20871851
68	0x3dfcdc97	0.12346762
69	0xbe2a6eaa	-0.16643777
70	0xbc95f8b4	-0.018307067
71	0xbe0fb09c	-0.14032215
72	0xbd4e5b65	-0.05038013
73	0xbdbc714e	-0.09201299
74	0x3ddcc51c	0.10779783
75	0xbb96d65f	-0.0046031917
76	0xbe287e32	-0.1645439
77	0x3da78df7	0.081813745
78	0x3e628b33	0.22123413
79	0x3dac3c9c	0.08409998
80	0x3d92be0f	0.07165157
81	0x3e47a4cc	0.19496459
82	0x3e0dc7b1	0.13845707
83	0x3dc8385c	0.09776375
84	0xbdeb998d	-0.11503897
85	0xbe2e8d0d	-0.17045994
86	0xbcc6174a	-0.024181027
87	0xbd38c097	-0.045105543
88	0xbd826130	-0.06366193
89	0xbc9f02dc	-0.019410543
90	0x3d8bf6a6	0.06834154
91	0xbdd099d4	-0.101855904
92	0x3d5cf449	0.053943906
93	0x3e25ef9f	0.1620469
94	0xbd9cb92f	-0.076525085
95	0x3d92d335	0.07169191
96	0x3ddcebe2	0.107871786
97	0xbe17f1a7	-0.14838277
98	0xbdbeea3d	-0.09322021
99	0x3c5c4b02	0.013445618
100	0x3ca37fd4	0.019958414
101	0xbe5cf80d	-0.21578999
102	0x3e43ceef	0.19121908
103	0x3d3b675c	0.045752868
104	0xbe219977	-0.15781198
105	0x3e110e66	0.14165649
106	0x3ccf453a	0.025301564
107	0xbd04a9ed	-0.032388616
108	0x3e42afcb	0.19012372
109	0xbe0f5d52	-0.14000443
110	0x3e249054	0.16070682
111	0x3e1cf0d7	0.15326248
112	0x3e04295d	0.12906404
113	0x3d106809	0.035255466
114	0xbd6176f0	-0.05504507
115	0x3d6ccca3	0.057812344
116	0x39d7b96b	0.00041146143
117	0xbe153eed	-0.14574786
118	0x3c2d14dc	0.010564055
119	0x3de5b074	0.112152964
120	0x3d4fbe63	0.050718676
121	0xbe20b6c6	-0.15694723
122	0x3e20c699	0.15700759
123	0xbe3f689c	-0.18692249
124	0x3d8cde05	0.06878284
125	0xbdca2764	-0.098707944
126	0xbde75eea	-0.112974
127	0x3cab925f	0.020943819

fc2.weight f4 [64, 128]
0	0x3c8bdc3e	0.017072793
1	0xbd77f5de	-0.06053721
2	0x3d39df83	0.045379173
3	0xbd145f3f	-0.036223646
4	0x3d2cf42e	0.042225055
5	0x3ba971a2	0.005171017
6	0x3d3cfa0e	0.04613691
7	0xbe0bec80	-0.13664436
8	0xbdf3690b	-0.1188527
9	0xbdbf6f96	-0.09347455
10	0xbd09ad02	-0.03361226
11	0xbba8e41c	-0.005154146
12	0x3db22302	0.086980835
13	0x3d9cb026	0.07650785
14	0x3d945447	0.07242637
15	0xbd146f56	-0.03623899
16	0x3e1967da	0.14981022
17	0x3d9a92ca	0.07547529
18	0xbd5ab942	-0.053399332
19	0xbce56059	-0.028000044
20	0x3d076fc9	0.03306559
21	0xbdb63cb5	-0.08898298
22	0xbd12bcfb	-0.035824757
23	0x3a946abc	0.0011323313
24	0xbc8ee2ce	-0.017442133
25	0x3dd4e732	0.103956595
26	0xbdfe179b	-0.12406846
27	0xbddcb1ae	-0.10776077
28	0x3cc3e4f3	0.023912882
29	0x3c79b8fb	0.015241857
30	0xbde261b3	-0.11053791
31	0xbbddc9a9	-0.0067684245
32	0xbd45f0e4	-0.048325434
33	0x3cd79a40	0.02631867
34	0x3d80c72c	0.06287989
35	0x3dc1f68d	0.09470854
36	0x3cac246a	0.021013457
37	0x3da98208	0.082767546
38	0x3bf76c02	0.0075507173
39	0x3c41858d	0.011811626
40	0x3bccf872	0.006255203
41	0xbcd3e93d	-0.025868053
42	0xbd1358f5	-0.035973508
43	0xbdcb56ee	-0.0992869
44	0x3db3e005	0.08782963
45	0xbd5f6c76	-0.054546796
46	0xbdab1ff4	-0.08355704
47	0xbd0b07f8	-0.033943146
48	0x3e2a8da4	0.16655594
49	0x3c098eb5	0.00839584
50	0x3dfa2263	0.1221359
51	0x3d178669	0.036993418
52	0xbdf7721c	-0.120823115
53	0x3d195b0c	0.037440345
54	0xbc93853f	-0.018007873
55	0xbd829dad	-0.063777305
56	0xbdb48396	-0.088141605
57	0x3c7bbdb9	0.015365058
58	0xbd9a181d	-0.075241305
59	0x3ca31ed9	0.01991217
60	0xbd02b0a5	-0.031906743
61	0xbdfa5a4d	-0.12224255
62	0x3d037664	0.032095328
63	0x3dc0e930	0.09419477
64	0xbbca8a96	-0.0061810715
65	0x3d7b2a6e	0.06131976
66	0xbcc2a97a	-0.023762453
67	0x3d86f353	0.06589379
68	0x3dc99a66	0.09843902
69	0xbd48493c	-0.048897967
70	0xbcee0f93	-0.02906016
71	0xbc5f756a	-0.013638834
72	0xbb81b133	-0.0039578914
73	0x3d82313c	0.06357047
74	0xbc9bdf7b	-0.019027462
75	0x3c6b7588	0.014371283
76	0x3dfaaa66	0.12239532
77	0x3d53db26	0.051722668
78	0xbd24c047	-0.040222432
79	0xbdab9d90	-0.08379662
80	0xbd301f5d	-0.04299866
81	0xbd79c767	-0.06098118
82	0x3b0d16b7	0.0021528432
83	0x3cc39f69	0.023879724
84	0xbded8f34	-0.115995795
85	0x3ddffbca	0.10936697
86	0x3d0eb9ca	0.03484515
87	0xbc890075	-0.01672385
88	0x3ceb017e	0.028687235
89	0x3dc5b31c	0.09653303
90	0x3db7a7b7	0.08967536
91	0x3cc1e749	0.023669856
92	0x3dde9a1f	0.1086924
93	0x3d3c98e9	0.046044264
94	0x3d52e4b6	0.051487647
95	0xbcf418aa	-0.029796917
96	0xbd57a312	-0.05264575
97	0x3bc40e8f	0.005983181
98	0x3c5f1575	0.013615956
99	0xbd2cfc73	-0.04223294
100	0x3dbb2d5e	0.091395125
101	0xbbd74d0d	-0.0065704645
102	0xbd18dd5f	-0.03732049
103	0xbcdd0bc1	-0.026983144
104	0xbd4ca8c3	-0.04996563
105	0xbd6ce4a8	-0.05783525
106	0x3e0c9123	0.1372724
107	0x3d381bb2	0.044948287
108	0xb9fb858b	-0.00047973948
109	0x3c28a141	0.010292352
110	0x3bfa247f	0.007633745
111	0xbe3ab6bb	-0.18233769
112	0x3b3aa010	0.0028476752
113	0x3c6ca670	0.014443979
114	0x3e02c477	0.12770258
115	0x3dd0eabd	0.10201023
116	0x3d57a785	0.052649993
117	0x3b24f450	0.0025170036
118	0x3d40799a	0.04699097
119	0x3cb61614	0.022227325
120	0x3dce1abe	0.100636944
121	0xbd687d3c	-0.056760058
122	0x3cce9a23	0.025219982
123	0xbcf4f1ba	-0.02990042
124	0x3d836b52	0.06416954
125	0xb9c654d6	-0.0003782871
126	0xbdad4146	-0.084597155
127	0xbc849a7c	-0.016186945
128	0xbd1a39c2	-0.03765274
129	0xbd06ca07	-0.032907512
130	0xbd79a681	-0.060949806
131	0xbc8bdbd0	-0.017072588
132	0x3cf1a08b	0.029495498
133	0xbd2bad60	-0.04191339
134	0x3cbbe838	0.022937879
135	0x3d7254a0	0.059162736
136	0x3c3f4799	0.011674785
137	0x3d9a0b47	0.07521682
138	0x3b85cb30	0.0040830597
139	0xbc14b865	-0.009077166
140	0x3c4c347f	0.012463688
141	0x3ce0b94d	0.027432108
142	0x3c22f719	0.009946608
143	0xbc3f46f0	-0.011674628
144	0xbd10adaa	-0.03532187
145	0xbca4b6e8	-0.020106748
146	0xbd1d7fb3	-0.03845186
147	0x3ccfbb73	0.025357937
148	0x3d3553f7	0.04426953
149	0xbd98f46d	-0.074684955
150	0xbcbfc3fd	-0.023408884
151	0xbcb39e7d	-0.021926159
152	0xbc1b5181	-0.009479881
153	0xbd13ad33	-0.036053848
154	0xbbb6e11b	-0.005581034
155	0x3cdd03a7	0.02697928
156	0x3b95064c	0.00454787
157	0x3d5d6b0c	0.054057166
158	0x3d7749c5	0.060373086
159	0x3da724cd	0.08161316
160	0xbdb73d09	-0.089471884
161	0x3da2af84	0.07943633
162	0x3c9f7982	0.01946712
163	0x3d8c3491	0.06845964
164	0x3d751e23	0.059843194
165	0xbd6814eb	-0.056660574
166	0x3c9df330	0.019281
167	0x3d6091c9	0.05482653
168	0x3cb90fe4	0.022590585
169	0xbdad77f6	-0.08470146
170	0x3d89f3a1	0.06735922
171	0x3d272aff	0.04081249
172	0x3b5062e8	0.0031797234
173	0xbd1285e2	-0.03577221
174	0x3da7c1e1	0.08191276
175	0x3c349cfc	0.011023756
176	0xbc130862	-0.008974167
177	0xbd9453d2	-0.0724255
178	0xbd4c29f9	-0.049844716
179	0x3d888c83	0.066674255
180	0xbd5d0115	-0.05395611
181	0xbcf3b80e	-0.02975085
182	0xbdabba87	-0.08385187
183	0x3c8676a6	0.016413998
184	0x3d8c2114	0.06842247
185	0x3d3b303f	0.045700308
186	0x3da4c58f	0.08045494
187	0xbd9bc313	-0.07605567
188	0xbd327a2b	-0.04357354
189	0xbd0641bb	-0.03277753
190	0x3cd4afe4	0.025962777
191	0xbdb58213	-0.088627
192	0x3d0974b8	0.033558577
193	0x3d8d8bd6	0.06911437
194	0xbc58ca5e	-0.013231842
195	0x3c08795f	0.008329718
196	0xbc862e68	-0.01637955
197	0x3d467347	0.04844978
198	0xbd11c9b9	-0.03559277
199	0xbd6d169f	-0.0578829
200	0x3d86098e	0.06544791
201	0x3a992980	0.0011685342
202	0xbce6d2de	-0.028176721
203	0x3cce265d	0.025164777
204	0x3d704695	0.058661062
205	0xbcc12793	-0.02357844
206	0x3d99cb6f	0.07509505
207	0x3c91bf7f	0.017791508
208	0x3d24a8f9	0.040200207
209	0x3d20376d	0.03911536
210	0xbd760172	-0.060059972
211	0xbd49ca48	-0.049265176
212	0xbd923fbb	-0.07141062
213	0xbd450747	-0.048102643
214	0xbce2d1e8	-0.027687982
215	0x3d3b94bf	0.045796152
216	0xbd6a7062	-0.057236083
217	0xbdae0ac5	-0.08498148
218	0xbc977c25	-0.018491814
219	0x3dac553b	0.08414694
220	0x3d917836	0.071030065
221	0x3d116978	0.035500973
222	0xbda30c81	-0.07961369
223	0x3cd70675	0.026248196
224	0xbd01c771	-0.031684343
225	0xbc5074e9	-0.012723186
226	0xbd625af8	-0.055262536
227	0xbd8771b0	-0.06613481
228	0x3da12038	0.07867473
229	0xbd56cc7d	-0.05244111
230	0xbd939bdb	-0.072074614
231	0xbdbb5438	-0.09146923
232	0xbd29ca93	-0.041452955
233	0xbd7dbc99	-0.06194744
234	0xbd87068f	-0.06593048
235	0xbce0ad10	-0.027426273
236	0xbd201840	-0.039085627
237	0xbc2f3231	-0.010693119
238	0x3c646cc9	0.013941952
239	0xbd702655	-0.058630306
240	0x3d80dbec	0.06291947
241	0x3c9937b2	0.018703315
242	0x3cfbf2ec	0.030755483
243	0xbdadd055	-0.08487002
244	0xbcce00a1	-0.025146784
245	0xbd3ab6a7	-0.045584347
246	0xbc465c64	-0.012106989
247	0x3d63f472	0.055653043
248	0x3d051e4e	0.032499604
249	0x3c5facd8	0.013652049
250	0x3d903f5d	0.070433356
251	0xbd0b2d11	-0.033978526
252	0xbc76b0f0	-0.015056834
253	0xbcd598a4	-0.026073761
254	0xbd144c85	-0.036205787
255	0xbd070886	-0.032967113

fc2.bias f4 [64]
0	0xbd38e021	-0.04513562
1	0xbd36fe60	-0.044676185
2	0xbc9ab896	-0.018886846
3	0xbd818372	-0.06323899
4	0xbd0e757e	-0.034780018
5	0x3d7ea7e2	0.062171824
6	0xbc47468c	-0.012162816
7	0x3d3e2b5d	0.046428073
8	0x3d8983fc	0.06714627
9	0xbca72c3b	-0.020406833
10	0xbd26232b	-0.040560883
11	0xbb8cdb0e	-0.0042985743
12	0x3dc8c990	0.0980407
13	0xbd715a19	-0.058923814
14	0x3d888b24	0.06667164
15	0xbd5f3cdb	-0.054501396
16	0x3d608882	0.054817684
17	0x3c0e7216	0.008694192
18	0x3d81590b	0.06315812
19	0xbd8ffc70	-0.070305705
20	0xbbd0e70e	-0.0063752
21	0x3c0c0b3e	0.008547602
22	0x3d5dc95a	0.054147102
23	0x3c94152e	0.018076506
24	0x3d4cfc88	0.05004552
25	0x3d88d032	0.06680335
26	0xbd341b31	-0.043971244
27	0x3be79fe1	0.0070686196
28	0xbdae0027	-0.08496123
29	0xbd820577	-0.063486986
30	0xbd659e05	-0.056058902
31	0xbc72b6e8	-0.014814116
32	0xbd350424	-0.044193402
33	0x3d92ae24	0.07162121
34	0xbce8359b	-0.028345874
35	0x3caf8917	0.021427674
36	0xbcd677bb	-0.026180139
37	0xbd632ad9	-0.055460785
38	0x3d2c1569	0.042012606
39	0xbd3269d8	-0.04355797
40	0x3d7fe05a	0.062469818
41	0x3de8a9a1	0.11360479
42	0x3cee51d1	0.029091747
43	0x3c778633	0.015107679
44	0x3d46780c	0.04845433
45	0x3d649892	0.055809565
46	0xbd658174	-0.05603166
47	0x3db0b136	0.0862755
48	0x3d1d12a8	0.03834787
49	0x3d860ed7	0.06545799
50	0xbda5b624	-0.08091381
51	0x3dbaa483	0.09113409
52	0xbc9922a8	-0.018693283
53	0xbd1e4de7	-0.038648512
54	0xbc301188	-0.010746367
55	0x3db2286a	0.086991146
56	0xbd833cfd	-0.06408117
57	0xbc43316e	-0.01191364
58	0xbcf8aebe	-0.030356761
59	0xbd8e515c	-0.06949112
60	0x3c2c8d16	0.010531684
61	0xbd1816f6	-0.037131272
62	0xbd1a7b80	-0.037715435
63	0x3d53711c	0.05162154

mean.weight f4 [1, 64]
0	0xbe395775	-0.18099768
1	0xbdefa9d9	-0.11702318
2	0xbe28ba51	-0.16477324
3	0xbe04dadc	-0.12974113
4	0xbe3e470f	-0.18581794
5	0x3e47f13c	0.19525617
6	0xbe6a3fb5	-0.22875865
7	0xbc898873	-0.016788697
8	0x3e1684c1	0.14699079
9	0xbdd997f5	-0.10624687
10	0x3d234840	0.039863825
11	0x3d6ba2b5	0.057528216
12	0x3e2a59b4	0.16635782
13	0xbe3e2e91	-0.18572451
14	0x3e49a610	0.19692254
15	0x3e2e1d56	0.17003378
16	0xbe40134d	-0.18757363
17	0xbdd9460e	-0.10609065
18	0xbde55a97	-0.11198919
19	0xbd4827ae	-0.048865966
20	0xbe2fee5a	-0.17180768
21	0x3ddf28e5	0.10896472
22	0x3e004174	0.12524968
23	0x3e4a6fb1	0.1976917
24	0xbde53bdb	-0.11193057
25	0xbe37393f	-0.17892931
26	0x3e04dd2c	0.12974995
27	0xbd854332	-0.06506957
28	0x3b883590	0.004156776
29	0xbc252c40	-0.010081351
30	0xbc23dd70	-0.010001525
31	0xbbf8c49c	-0.007591797
32	0xbd613f3f	-0.054991957
33	0xbe691ecd	-0.22765656
34	0xbe5f0a2b	-0.21781223
35	0xbe2386c7	-0.15969382
36	0xbe227739	-0.15865792
37	0xbde56a40	-0.11201906
38	0x3e1f87e4	0.15579182
39	0xbd56c2e7	-0.052431967
40	0x3e26c5a4	0.16286331
41	0x3e46f542	0.19429496
42	0xbdde50e0	-0.108552694
43	0x3e5a54f8	0.21321476
44	0xbd83de62	-0.064389005
45	0xbe449749	-0.19198336
46	0xbe1dda09	-0.15415205
47	0x3e65564b	0.223962
48	0x3d3448e5	0.04401483
49	0xbe10faee	-0.14158222
50	0x3d9834ec	0.07431969
51	0x3e498b9b	0.19682162
52	0xbd398c43	-0.04529978
53	0x3df6a763	0.12043645
54	0x3dc1bce1	0.09459854
55	0x3e2306a8	0.15920508
56	0x3dd252f3	0.102697276
57	0xbc1ed661	-0.009694667
58	0xbbd0e880	-0.0063753724
59	0xbdbf7654	-0.09348741
60	0xbe232520	-0.15932131
61	0x3e3de5eb	0.18544738
62	0x3ddb1595	0.10697476
63	0x3e438da2	0.19096997

fc1.weight f4 [128, 24]
0	0xbe59ec94	-0.21281654
1	0x3de492bc	0.111608
2	0x3e4ba0c1	0.19885541
3	0xbd1cdb31	-0.038294975
4	0x3db5b1c1	0.088717945
5	0xbe47eac1	-0.19523145
6	0xbdfe2b2a	-0.12410577
7	0x3e2c5298	0.16828382
8	0x3c99c3f8	0.018770203
9	0xbe48dea6	-0.19616184
10	0xbd81508f	-0.063141935
11	0xbda69769	-0.08134348
12	0x3dc1d2c5	0.09464029
13	0x3bd95eda	0.0066336216
14	0x3cdf6ee2	0.027274553
15	0xbdd0d966	-0.101977155
16	0x3dead49a	0.11466332
17	0xbdc9ef86	-0.098601386
18	0xbd811343	-0.06302502
19	0xbe099fac	-0.13439816
20	0xbd481aae	-0.04885357
21	0x3d8c439f	0.06848835
22	0x3d5ee1f6	0.054414712
23	0xbdb33d55	-0.087519325
24	0xbcc153be	-0.023599502
25	0xbe107782	-0.14108089
26	0xbdf31f37	-0.11871188
27	0x3db0a284	0.086247474
28	0xbdc4e2d6	-0.09613578
29	0xbdd15106	-0.10220532
30	0x3e2b8cd3	0.16752939
31	0x3f1de9d1	0.616849
32	0x3ddbdb31	0.10735167
33	0x3dd6dac7	0.10490947
34	0xbd9c65b4	-0.07636586
35	0xbd6ebeed	-0.05828755
36	0xbc992dfc	-0.018698685
37	0xbda40ef4	-0.080106646
38	0x3dbfd521	0.09366823
39	0x3e07cd1b	0.13261835
40	0xbd7c8730	-0.061652362
41	0xbe511c9a	-0.20421067
42	0x3c8fecc9	0.017568963
43	0x3e69c065	0.22827299
44	0xbd50a446	-0.050937913
45	0xbe433faf	-0.19067262
46	0x3dafb42f	0.08579289
47	0xbd985288	-0.074376166
48	0x3bc436ce	0.0059879785
49	0xbe728d6c	-0.2368676
50	0xbdce02c9	-0.10059125
51	0x3ece6048	0.40307832
52	0xbd1e8ab6	-0.038706504
53	0xbd63fbfd	-0.055660237
54	0x3e0d601a	0.13806191
55	0xbe309983	-0.1724606
56	0xbdd1216e	-0.10211454
57	0xbd942551	-0.0723368
58	0x3dfa4f3e	0.122221455
59	0x3ef1c76c	0.4722246
60	0xbccd9a2f	-0.025097935
61	0xbe893330	-0.26796865
62	0x3df24e6d	0.11831365
63	0x3e781081	0.24225046
64	0xbd9a917a	-0.07547279
65	0xbdc678a4	-0.09690979
66	0xbe3d766f	-0.1850221
67	0x3c98d575	0.018656472
68	0x3da136a0	0.07871747
69	0x3c7dbb80	0.015486598
70	0x3e3a22c6	0.18177328
71	0xbe19ba02	-0.15012363
72	0xbddcba52	-0.10777725
73	0x3d22785b	0.03966556
74	0xbd266378	-0.040622205
75	0x3dafea0f	0.08589565
76	0x3df38c07	0.118919425
77	0xbe11c946	-0.14236936
78	0xbe40198b	-0.18759744
79	0x3e849a90	0.25899172
80	0x3c9934f5	0.01870201
81	0xbe128500	-0.14308548
82	0xbe030938	-0.12796485
83	0xbe5c4f95	-0.21514733
84	0xbe302788	-0.1720258
85	0x3da1f06b	0.07907184
86	0xbe36ce0e	-0.17852041
87	0x3eb760cf	0.35816047
88	0xbe26c5fd	-0.16286464
89	0xbe0c8a6c	-0.13724679
90	0xbd20a09a	-0.03921566
91	0x3e59da52	0.21274689
92	0x3dce66c9	0.100781985
93	0xbe3d13a3	-0.18464522
94	0x3edf7a0e	0.43647808
95	0xbda3eae5	-0.08003787
96	0x3d8cdd3f	0.06878137
97	0x3e407959	0.1879629
98	0xbe2e417b	-0.17017166
99	0x3ca847c8	0.02054204
100	0xbe448682	-0.19191936
101	0x3d09e6b0	0.033667266
102	0xbe4336d4	-0.19063884
103	0x3e75814c	0.23975104
104	0xbe1748b7	-0.14773832
105	0xbdd0c175	-0.10193149
106	0xbdb9978a	-0.09062107
107	0xbd71eb54	-0.059062317
108	0xbe283ea5	-0.16430147
109	0x3c8738ad	0.016506517
110	0x3cba20ed	0.022720778
111	0xbd073a3d	-0.033014525
112	0x3dd273b6	0.10275976
113	0xbe774029	-0.24145569
114	0x3c136c31	0.008997963
115	0x3e99a163	0.3000594
116	0x3cf8e743	0.030383712
117	0xbe6e5fa0	-0.23278666
118	0x3f1ced67	0.6129975
119	0x3dceaa0d	0.10091028
120	0x3d85aaf6	0.06526749
121	0xbd9872dc	-0.07443783
122	0xbe059e70	-0.1304872
123	0x3e4ca129	0.19983353
124	0x3cf41419	0.02979474
125	0xbe8baa22	-0.2727824
126	0xbd180ea2	-0.03712333
127	0x3e363047	0.17791854
128	0x3d7794db	0.060444694
129	0xbe32bb4b	-0.17454259
130	0x3de3a42b	0.11115297
131	0x3ea26b75	0.31722608
132	0xbe373fdc	-0.17895454
133	0xbe8a49ce	-0.27009434
134	0xbe096b0c	-0.13419741
135	0x3e99a8df	0.3001165
136	0x3e1db6c3	0.1540175
137	0xbe691346	-0.22761258
138	0x3b946c71	0.004529529
139	0xbd207df8	-0.039182633
140	0x3e3517ed	0.17684908
141	0xbe79846b	-0.2436692
142	0x3f1114b3	0.5667221
143	0xbdb8234c	-0.08991107
144	0xbd033d85	-0.03204109
145	0x3db295f0	0.087200046
146	0x3e2fc1f9	0.17163838
147	0x3df5f084	0.12008765
148	0xbce99194	-0.0285118
149	0xbd2b5d78	-0.041837186
150	0xbe24f7eb	-0.16110198
151	0x3ce07c1b	0.027402928
152	0x3c76aa08	0.015055187
153	0xbe894159	-0.2680767
154	0x3cca21f6	0.024674397
155	0x3e093e2b	0.13402621
156	0x3e087299	0.13324966
157	0xbd4af06e	-0.049545698
158	0x3e294d6f	0.16533445
159	0xbe16b0a0	-0.14715815
160	0xbe1c7a15	-0.15280946
161	0xbdfa00ab	-0.12207159
162	0xbd577212	-0.05259902
163	0xbdf8a4e0	-0.121408224
164	0x3de78bc3	0.11305954
165	0x3b9e3f8b	0.0048293523
166	0x3f0fa625	0.5611289
167	0xbdaeae09	-0.08529288
168	0x3e5c8c31	0.21537854
169	0x3daa7353	0.083227776
170	0x3e546f29	0.20745529
171	0xbda32820	-0.079666376
172	0xbde86624	-0.11347607
173	0x3e71c450	0.23610044
174	0x3d985e12	0.074398175
175	0x3eaa02ae	0.3320517
176	0x3e75ffa2	0.24023297
177	0x3e7a6c56	0.2445539
178	0x3e174588	0.14772618
179	0xbda44cdc	-0.08022472
180	0xbe39317c	-0.18085283
181	0x3e66cdee	0.22539493
182	0x3dad8054	0.08471742
183	0x3e90d80a	0.28289825
184	0xbcaaba46	-0.020840775
185	0x3e14b050	0.14520383
186	0xbd8742ef	-0.066045634
187	0x3e069c8b	0.13145654
188	0xbcecc13f	-0.02890074
189	0x3e0d726c	0.1381318
190	0xbec37bf9	-0.3818052
191	0xbd4affbf	-0.049560305
192	0xbe7964a8	-0.24354804
193	0x3da2f691	0.07957185
194	0xbd66f564	-0.056386366
195	0x3ebb3dcd	0.36570588
196	0xbd3e938f	-0.04652744
197	0xbdbe5aee	-0.09294687
198	0xbd40d70a	-0.047080077
199	0x3e318d6d	0.17339106
200	0xbcbbf7b2	-0.022945259
201	0xbdf52f92	-0.11971964
202	0x3d497a60	0.04918897
203	0x3edb4648	0.42827058
204	0xbe33b80d	-0.17550679
205	0xbd97b00a	-0.07406624
206	0xbdf18741	-0.11793376
207	0x3eba7072	0.36413914
208	0xbdcf70db	-0.10128947
209	0xbd001a1a	-0.031274892
210	0x3e0e415b	0.13892119
211	0x3e95c972	0.29255253
212	0x3e0dd7a6	0.13851795
213	0xbe81d482	-0.25357443
214	0x3ed9a01b	0.42504963
215	0xbcce1fc0	-0.025161624
216	0xbd066bab	-0.032817524
217	0xbd58effb	-0.05296324
218	0x3c25ac76	0.010111919
219	0xbd3474c1	-0.044056658
220	0x3d97ae4f	0.074062936
221	0xbd446c7a	-0.047955014
222	0x3c40c820	0.0117664635
223	0xbe2704b6	-0.16310391
224	0xbe206fc0	-0.15667629
225	0xbd9b10de	-0.075715765
226	0xbda77b44	-0.08177808
227	0x3dccdeb2	0.10003413
228	0x3c8bc668	0.01706238
229	0x3c91785f	0.017757593
230	0x3e27a0a6	0.16369876
231	0xbdf26f5f	-0.118376486
232	0x3dfa24f5	0.1221408
233	0x3d1490c3	0.036270868
234	0xbaca2323	-0.0015421849
235	0xbd279baf	-0.040919956
236	0xbe373a9f	-0.17893456
237	0x3bb3ba81	0.0054848795
238	0xbe4f866e	-0.20266125
239	0xbde3e925	-0.11128453
240	0x3cb49dac	0.02204784
241	0x3dc97778	0.0983724
242	0xbb9b4563	-0.004738496
243	0xbdb6f8e0	-0.08934188
244	0xbde252e5	-0.11050967
245	0x3cacb987	0.02108456
246	0xbe3825d0	-0.17983174
247	0x3db8629d	0.09003184
248	0xbe13dcfa	-0.14439765
249	0xbcede072	-0.029037688
250	0x3e3196ec	0.17342728
251	0x3e1de510	0.15419412
252	0x3bba63a7	0.005688149
253	0xbe9b50f6	-0.30335206
254	0xbe0f90e5	-0.14020117
255	0x3e31a2ce	0.17347261

fc1.bias f4 [128]
0	0xbdc2614d	-0.09491215
1	0xbe18c643	-0.14919381
2	0x3e665431	0.22493054
3	0x3e2e87a9	0.17043938
4	0x3e412d4b	0.18864934
5	0x3e85ab75	0.26107374
6	0x3e82eb6e	0.25570244
7	0x3c299d0e	0.010352386
8	0xbd834e3b	-0.06411406
9	0xbe590751	-0.21194197
10	0x3de689d7	0.112567596
11	0x3e7c583e	0.24643037
12	0x3e711568	0.23543322
13	0x3e630aba	0.2217206
14	0x3e900020	0.28125095
15	0x3cad6fa4	0.021171398
16	0x3e617395	0.22016747
17	0x3e5769bf	0.21036433
18	0x3e8978db	0.26850018
19	0x3c5a1268	0.013310052
20	0x3e002f14	0.12517959
21	0x3e2db338	0.16962898
22	0x3dbce9bc	0.09224269
23	0x3dff4a07	0.124652915
24	0x3de23064	0.11044386
25	0xbc152dec	-0.009105187
26	0x3e494ae3	0.19657473
27	0xbe1f89ff	-0.15579985
28	0x3e7e44ef	0.24830984
29	0x3e9f9d25	0.3117458
30	0xbe3c5b1a	-0.18394127
31	0xbdb5df80	-0.0888052
32	0x3e9f7c9a	0.3114975
33	0x3ea465c8	0.32108903
34	0x3e0f249d	0.1397881
35	0xbcc4e7ff	-0.024036406
36	0xbd4476a9	-0.047964726
37	0x3ce177b3	0.027522897
38	0x3df3b009	0.118988104
39	0x3da37faf	0.07983338
40	0x3cf0fd59	0.02941768
41	0xbd8cc000	-0.068725586
42	0x3d88c9ee	0.0667914
43	0x3e6f1253	0.23346834
44	0x3e4fb6cc	0.20284575
45	0x3e9a9c01	0.30197147
46	0x3e72a12c	0.23694295
47	0x3e17eca6	0.14836368
48	0x3e435e0b	0.19078843
49	0xbd360887	-0.044441726
50	0x3dd27a9e	0.102772936
51	0x3d004b79	0.031321976
52	0x3e5d543c	0.21614164
53	0x3e01505b	0.1262831
54	0x3ec0d511	0.37662557
55	0xbaa7d478	-0.001280441
56	0xbdf69d87	-0.12041765
57	0x3e94e009	0.29077175
58	0x3cfc4dff	0.03079891
59	0xbe1ed0d6	-0.15509352
60	0x3e8c5644	0.27409565
61	0x3e7de551	0.24794509
62	0x3e80824c	0.2509941
63	0x3e047170	0.12933898
64	0x3e57aaa0	0.21061182
65	0x3e44f011	0.19232203
66	0xbd8a8902	-0.067644134
67	0x3ebe192c	0.3712858
68	0xbb89bd58	-0.0042034797
69	0x3b69ba78	0.0035664123
70	0x3dc477c3	0.09593155
71	0xbe211c02	-0.1573334
72	0x3e5f1e4d	0.21788903
73	0xbd27f1a7	-0.041001942
74	0x3d300d5d	0.042981494
75	0x3dabca1f	0.08388161
76	0x3dd25378	0.10269827
77	0xbe35aeea	-0.17742506
78	0xbe568d89	-0.20952429
79	0x3e8c5909	0.27411678
80	0x3e1935e6	0.14961967
81	0xbd2b1171	-0.04176468
82	0xbdc83a46	-0.0977674
83	0x3e5e5780	0.21713066
84	0x3e7a0900	0.24417496
85	0x3e97979f	0.29607865
86	0x3dcf33d5	0.10117308
87	0x3d47c149	0.048768315
88	0xbda1dbf4	-0.07903281
89	0xbc4e0eda	-0.012576783
90	0xbc91be09	-0.017790811
91	0x3e7c0b44	0.24613672
92	0x3e1d69a1	0.15372325
93	0xbcc71b45	-0.024304995
94	0x3e1fbbdc	0.15599006
95	0x3e993e59	0.2993038
96	0x3e24f717	0.16109882
97	0x3df5e905	0.120073356
98	0xbe0d625f	-0.13807057
99	0x3e413578	0.18868053
100	0x3e2b9e83	0.16759686
101	0xbe2752ad	-0.16340132
102	0xbcb05eab	-0.021529516
103	0x3c383e86	0.0112453755
104	0x3ea5f6de	0.32414907
105	0x3e94087e	0.2891273
106	0x3bf006aa	0.007325013
107	0x3e1f941f	0.15583847
108	0xbb7de829	-0.0038743115
109	0x3dc6bfdb	0.09704562
110	0xbd596142	-0.053071268
111	0x3e372c57	0.17888008
112	0x3ea858ee	0.32880348
113	0x3e812a77	0.2522771
114	0x3e4936ad	0.19649763
115	0x3e179b15	0.14805253
116	0x3e953b31	0.29146722
117	0x3ea8a200	0.32936096
118	0x3e4836b7	0.19552122
119	0x3e3b7c8c	0.1830923
120	0xbd9e9f5f	-0.077452414
121	0x3e162d1c	0.14665645
122	0x3e4c2301	0.19935228
123	0x3e0f8640	0.14016056
124	0x3e31d6e9	0.17367138
125	0x3e97ddd1	0.2966142
126	0xbd727e03	-0.059202205
127	0xbcfc92ac	-0.030831657

fc2.weight f4 [64, 128]
0	0xbd8dd2d9	-0.069249816
1	0x3f09f569	0.5389009
2	0x3e153ef0	0.1457479
3	0x3e87d6aa	0.26530963
4	0x3e693c1a	0.22776833
5	0x3e70287d	0.23452945
6	0x3e363716	0.17794451
7	0xbdf1a2c6	-0.11798625
8	0x3e8a85ac	0.2705511
9	0x3d911358	0.07083768
10	0x3e9b0089	0.30273846
11	0x3e2f507b	0.17120545
12	0x3e9ce4c9	0.306433
13	0x3dfd097c	0.123553246
14	0x3e0018ef	0.12509511
15	0x3eca1cc3	0.39475068
16	0xbe420919	-0.18948783
17	0x3ed21b95	0.41036668
18	0x3e377311	0.17914988
19	0x3db29b00	0.0872097
20	0x3ea06671	0.31328157
21	0x3e8634b4	0.26212084
22	0x3e26af14	0.16277725
23	0x3ee73f16	0.45165318
24	0x3e3b2493	0.1827567
25	0x3ed42183	0.41431817
26	0x3eae6d36	0.34067696
27	0x3b6461ab	0.0034848254
28	0x3e32d0b0	0.1746242
29	0x3ed7dc5e	0.42160314
30	0xbe254f62	-0.16143563
31	0x3eb7667b	0.35820374
32	0x3eb1ffcf	0.3476548
33	0x3e810f4c	0.25206983
34	0x3ed85af0	0.4225688
35	0x3e649e0e	0.22325918
36	0xbe0d4621	-0.13796283
37	0x3e81cf36	0.25353402
38	0x3e90c6b1	0.2827659
39	0x3e49b91b	0.19699518
40	0x3e0a97c8	0.13534462
41	0x3e348755	0.1762975
42	0x3eb258c1	0.3483334
43	0x3eb40fab	0.35168204
44	0xbdadce7c	-0.084866494
45	0x3ead31f5	0.33827177
46	0x3e4bc37f	0.19898795
47	0x3db7aef7	0.08968919
48	0x3e9a4b62	0.30135638
49	0xbe93ca9c	-0.28865516
50	0x3ea792e6	0.32729262
51	0x3d9945ef	0.07484042
52	0x3e89a918	0.2688682
53	0x3e7d1598	0.24715269
54	0x3e7d96a8	0.24764502
55	0x3e44e4cd	0.19227906
56	0x3d9f8982	0.077898994
57	0x3e1f5c6b	0.15562598
58	0xbc410657	-0.011781297
59	0xbca4b7d5	-0.02010719
60	0x3ec4aa12	0.38411003
61	0x3ec8d49f	0.39224717
62	0x3e2610ec	0.16217393
63	0xbda8f267	-0.082493596
64	0x3e026ade	0.12736079
65	0x3e99c7a6	0.30035132
66	0x3df7b6c2	0.12095405
67	0x3d99d520	0.075113535
68	0xbe8a5e5e	-0.2702512
69	0x3e7355a1	0.23763134
70	0x3e1e68f8	0.1546973
71	0x3db39c7a	0.0877008
72	0xbdabca4f	-0.08388197
73	0x3e672b6b	0.22575156
74	0x3eb4495c	0.3521222
75	0xbe298224	-0.16553551
76	0x3e800ccc	0.25009763
77	0x3cca41d4	0.024689592
78	0x3d6e6a96	0.058207117
79	0x3e5d078d	0.21584912
80	0x3eb3971d	0.35076228
81	0x3e5a5e30	0.21324992
82	0xbd72e33e	-0.059298746
83	0x3e87401c	0.264161
84	0x3db8669a	0.09003945
85	0x3dd42b78	0.103598535
86	0x3e2c71e0	0.16840315
87	0x3eb128ce	0.34601444
88	0x3e592c0e	0.21208212
89	0x3eefbc5a	0.46823388
90	0x3e8e6758	0.2781322
91	0x3d76aaab	0.060221355
92	0x3e4d116f	0.20026182
93	0x3e9bdfec	0.30444276
94	0x3e8e6c3e	0.27816957
95	0x3d980b4a	0.07424028
96	0x3f002545	0.5005687
97	0x3da1956b	0.07889827
98	0x3b4f2924	0.0031610215
99	0x3e8ed245	0.27894798
100	0x3e217bd2	0.1576989
101	0xbd5daa4c	-0.054117486
102	0x3e8b3aa8	0.2719319
103	0x3e653dac	0.22386807
104	0x3e49daa5	0.19712313
105	0x3ea66169	0.32496193
106	0x3eeada08	0.4586947
107	0x3d618656	0.055059753
108	0x3ec7e2f9	0.39040354
109	0x3e868834	0.2627579
110	0xbe156fd9	-0.14593448
111	0x3eaaf668	0.33391118
112	0x3e3a6067	0.18200837
113	0x3ef1a5eb	0.47196898
114	0x3e7b12c9	0.24518885
115	0x3e52fc29	0.20604004
116	0x3dcd3d18	0.10021418
117	0x3e900726	0.28130454
118	0x3e9b1f6c	0.3029741
119	0xbd8b620e	-0.06805812
120	0x3a598d85	0.0008298981
121	0x3ea81ea6	0.32835883
122	0x3c7ac22c	0.015305083
123	0x3b0e0802	0.0021672253
124	0x3e08ab10	0.13346505
125	0x3e0a38b8	0.13498199
126	0x3e23697e	0.15958211
127	0x3e2156d2	0.15755776
128	0xbdce69d1	-0.10078777
129	0xbeca20fb	-0.39478287
130	0xbe3d6df1	-0.1849897
131	0xbdc2ffdd	-0.09521458
132	0xbde8fdb8	-0.11376518
133	0xbdf8e4c0	-0.121530056
134	0xbd8bc48e	-0.06824599
135	0x3e711621	0.23543598
136	0xbebbe6a1	-0.36699393
137	0xbde2ad77	-0.11068242
138	0xbe3163b6	-0.17323193
139	0xbd6ab882	-0.057304867
140	0xbe1e2c3c	-0.15446562
141	0xbd5eae4d	-0.054365445
142	0x3dd1861d	0.10230658
143	0xbe5a1171	-0.21295716
144	0x3e6855de	0.22689006
145	0xbe2d64ba	-0.16932955
146	0xbe33e42a	-0.17567506
147	0x3dcca30d	0.09992037
148	0xbdb6d110	-0.08926594
149	0x3bc7ee5e	0.0061014136
150	0xbdc9291c	-0.09822294
151	0xbea5a990	-0.32355928
152	0x3dfa4c77	0.12221616
153	0xbea307f2	-0.31842
154	0xbe7e19b7	-0.24814497
155	0xbcf6e3bc	-0.03013789
156	0x3db7b6f1	0.0897044
157	0xbe61e640	-0.2206049
158	0x3e8248b6	0.254461
159	0xbe2d3915	-0.16916306
160	0xbe0c1f33	-0.13683777
161	0xbe620a42	-0.22074226
162	0xbe9fafe1	-0.31188872
163	0xbe1b323b	-0.1515588
164	0x3e6a0c39	0.22856225
165	0x3a32103a	0.0006792579
166	0xbe47515d	-0.19464631
167	0xbdd48c6f	-0.10378348
168	0xbdff91c8	-0.124789774
169	0x3b81adf4	0.0039575044
170	0xbe88b3bc	-0.26699626
171	0xbe6f1c5b	-0.2335066
172	0x3e92fc54	0.28708136
173	0xbe992c2c	-0.29916513
174	0xbe436323	-0.19080786
175	0x3d93c123	0.07214572
176	0xbe7c5286	-0.24640855
177	0x3ea86a31	0.32893518
178	0xbe003e7d	-0.12523837
179	0x3b98ce30	0.0046632513
180	0x3c9ad876	0.018902045
181	0xbcdc0542	-0.026857976
182	0xbe4bf99e	-0.1991944
183	0xbd0a5963	-0.033776652
184	0x3de2c1d7	0.11072128
185	0x3dc7ba09	0.0975228
186	0x3dc41b16	0.09575479
187	0x3dceea6e	0.10103308
188	0xbe44e3b3	-0.19227485
189	0xbe683162	-0.22675088
190	0x3d338e8f	0.043837126
191	0x3e598a08	0.21244061
192	0xbc8bbef4	-0.017058827
193	0xbe620d2f	-0.22075342
194	0x3df25b15	0.11833779
195	0x3d687083	0.056747925
196	0x3eb08c80	0.34482193
197	0xbdb9c5c9	-0.09070928
198	0xbdabb930	-0.08384931
199	0xbbd9e058	-0.0066490583
200	0x3e8e22ab	0.27760825
201	0xbd13f197	-0.03611907
202	0xbe23037d	-0.159193
203	0x3e5b2746	0.214017
204	0xbe5be1f9	-0.2147292
205	0xbc80e204	-0.015732773
206	0x3d581b6a	0.05276052
207	0xbd3e3006	-0.046432517
208	0x3b0aa0f7	0.0021153071
209	0xbd926995	-0.071490444
210	0x3e179819	0.14804114
211	0xbd241873	-0.04006238
212	0x3da0c578	0.07850164
213	0x3b3a6d9f	0.0028446687
214	0xbdf89c17	-0.12139147
215	0xbdc2b109	-0.09506423
216	0xbd394175	-0.04522844
217	0xbeac3165	-0.33631435
218	0xbe11024b	-0.14161031
219	0x3da92e22	0.08260752
220	0xbd011504	-0.031514183
221	0xbe845456	-0.25845593
222	0xbdda6a8b	-0.10664853
223	0x3d7b2311	0.06131274
224	0xbe59321b	-0.2121052
225	0xbc6a4e73	-0.01430093
226	0xbdda9682	-0.10673238
227	0xbdaf13f5	-0.085487284
228	0xbe070ad5	-0.13187726
229	0x3ca89926	0.02058084
230	0xbdb8d2bc	-0.090245694
231	0xbccbf1de	-0.024895605
232	0x3da06c49	0.07833154
233	0xbe772167	-0.24133836
234	0xbeb9a693	-0.362599
235	0x3e15d033	0.14630203
236	0xbe4d94ea	-0.20076337
237	0x3c6cf814	0.014463443
238	0x3e0d0a1d	0.13773389
239	0xbe4db325	-0.2008787
240	0x3c8c53e0	0.017129838
241	0xbed99717	-0.42498085
242	0xbd4a77c8	-0.04943064
243	0x3dc798a9	0.097459145
244	0x3db7f879	0.08982939
245	0xbe2804fc	-0.16408151
246	0xbe618b4c	-0.22025794
247	0x3e7ab8b7	0.24484526
248	0x3d734a4b	0.059397023
249	0xbe198ddd	-0.14995523
250	0x3e2d99a3	0.16953139
251	0x3da4db02	0.08049585
252	0xbc894ad9	-0.016759323
253	0x3dea67e6	0.11445598
254	0xbdd8ed3b	-0.10592123
255	0xbe1588bc	-0.14602941

fc2.bias f4 [64]
0	0x3df257ff	0.1183319
1	0x3dcb8a0c	0.0993844
2	0x3d79f63d	0.061025847
3	0x3dde10cd	0.10843048
4	0x3e150d7c	0.14555925
5	0x3e20d032	0.1570442
6	0x3e07f76f	0.13277982
7	0x3d5e5e5e	0.054289214
8	0xbbf59964	-0.007495092
9	0x3dc89d41	0.09795619
10	0x3d859b85	0.065238036
11	0x3d0f0de6	0.034925364
12	0x3d79c4d8	0.06097874
13	0x3def403c	0.116821736
14	0x3cd992d4	0.02655927
15	0xbd08c186	-0.033387683
16	0x3cf14b69	0.029454904
17	0x3e0535e2	0.13008836
18	0x3d26a246	0.0406821
19	0x3e349041	0.17633153
20	0x3c99037b	0.018678417
21	0xbdc0b0ba	-0.09408708
22	0x3e0b6cd9	0.13615741
23	0x3e22cc7e	0.1589832
24	0x3dc33e99	0.09533424
25	0xbc3cfa79	-0.011534327
26	0x3d7fd748	0.062461168
27	0x3e0862b7	0.13318907
28	0x3e1c0249	0.15235247
29	0x3defeb2c	0.11714777
30	0x3e097ef7	0.1342734
31	0xbd30bd50	-0.043149292
32	0x3d1531e3	0.03642453
33	0x3d4d433c	0.050112948
34	0xbb770338	-0.0037691128
35	0x3c9d298c	0.01918485
36	0x3dd0dd63	0.10198476
37	0x3de4523e	0.11148499
38	0x3d968331	0.073492415
39	0xba93a652	-0.0011264777
40	0x3d49a22c	0.049226925
41	0x3d81fe8e	0.063473806
42	0x3d17bffe	0.037048332
43	0x3dcfdbff	0.10149383
44	0x3e2b97db	0.16757147
45	0x3d96aec4	0.07357553
46	0x3e25b9c9	0.16184153
47	0x3dcba01d	0.099426486
48	0xbd55e42f	-0.052219566
49	0x3dc7e29e	0.09760021
50	0x3c31acec	0.01084445
51	0x3e1ae3b9	0.15125932
52	0xbc594c41	-0.013262809
53	0xbd49050a	-0.04907707
54	0xbd9fbe34	-0.0779995
55	0xbd53ff06	-0.05175688
56	0x3c970b24	0.01843793
57	0x3df328fb	0.11873051
58	0xbd74ee8f	-0.05979782
59	0xbb994597	-0.004677485
60	0x3e052a11	0.13004328
61	0x3e2eda18	0.17075384
62	0x3d5c5f4c	0.05380182
63	0x3df1356c	0.117777675

value.weight f4 [1, 64]
0	0x3eb620f4	0.35572016
1	0xbeacfb39	-0.33785418
2	0xbead1766	-0.33806914
3	0x3ea4a15a	0.3215435
4	0x3ec5e498	0.38650966
5	0xbee589c2	-0.44831663
6	0xbec358aa	-0.38153583
7	0x3ed9d6c7	0.42546675
8	0xbdc3b50b	-0.095560156
9	0x3ec93eb1	0.39305642
10	0xbd8726c9	-0.065991946
11	0x3ed1223e	0.40846437
12	0x3f123daa	0.5712534
13	0x3ec0e6bd	0.3767604
14	0x3ebb5626	0.36589164
15	0xbddcbf42	-0.10778667
16	0xbcb2016a	-0.02172919
17	0x3ed0c9d6	0.4077899
18	0xbdb4fca9	-0.088372536
19	0x3ea4f888	0.32220864
20	0xbdb84591	-0.08997644
21	0xbdd6b036	-0.10482828
22	0xbea08f7d	-0.31359473
23	0xbef50e26	-0.47862357
24	0x3ed8fb0c	0.42379034
25	0xbdb2a370	-0.087225795
26	0x3e9ddb76	0.30831498
27	0xbed321c0	-0.41236687
28	0x3ec47682	0.38371664
29	0x3eb9433c	0.36184108
30	0xbedf78a3	-0.43646726
31	0xbd899301	-0.06717492
32	0x3eb2a0d2	0.3488832
33	0xbe9fabfa	-0.31185895
34	0xbe8f3814	-0.27972472
35	0x3ed754a1	0.42056754
36	0x3ed156ba	0.4088648
37	0xbe84213b	-0.25806603
38	0xbeecbe39	-0.46238878
39	0xbc1ca9e5	-0.00956199
40	0x3ec3f22d	0.38270703
41	0x3eb97371	0.36220887
42	0xbd948d3e	-0.07253502
43	0x3e9ea7d7	0.30987427
44	0x3eab30f0	0.33435774
45	0xbee5ac52	-0.44858032
46	0xbf092e56	-0.5358633
47	0x3ea4fd7a	0.32224637
48	0x3dcf6775	0.10127155
49	0x3ec03365	0.3753921
50	0xbcd72fcc	-0.026267909
51	0x3e9e85e2	0.3096152
52	0xbd150066	-0.036377333
53	0xbd6c2b20	-0.057658315
54	0xbb05dfbd	-0.0020427548
55	0xbd57b6f5	-0.052664716
56	0x3d5b2c4a	0.053509034
57	0x3eca07d3	0.39459094
58	0xbdd2f0d0	-0.102998376
59	0x3eb0f6b4	0.3456322
60	0x3eaf0b31	0.34188226
61	0x3ea7bc4b	0.32760844
62	0x3ecab90a	0.395943
63	0x3eca35e1	0.3949423

exp_avg f4 [128, 24]
0	0x3886103e	6.392643e-05
1	0x395fa935	0.00021329972
2	0x3983c2e7	0.0002513148
3	0xb76ef123	-1.42420495e-05
4	0x39054aa6	0.00012711677
5	0x39c31723	0.00037210537
6	0x3980c1c6	0.00024558435
7	0x38c83f5d	9.5485455e-05
8	0x38e2488e	0.00010790034
9	0x3a10012c	0.00054933387
10	0x385a55f8	5.2055315e-05
11	0xb89914ed	-7.299506e-05
12	0xb9253580	-0.00015755557
13	0xb8ac5852	-8.21805e-05
14	0x3a1f8b8e	0.0006086164
15	0x39568b77	0.00020460585
16	0x39c82840	0.0003817696
17	0x3a80aeed	0.0009817757
18	0xb7da981a	-2.6058453e-05
19	0xb920d517	-0.00015338171
20	0x38976dc1	7.220684e-05
21	0xb90a7ae7	-0.0001320649
22	0x39b4dcb6	0.00034496718
23	0x396a8e5d	0.00022369013
24	0x00b50898	1.6625308e-38
25	0x00dbc681	2.0183183e-38
26	0x007d305e	1.1496788e-38
27	0x0023037d	3.215494e-39
28	0x00394086	5.25777e-39
29	0x01362808	3.3456842e-38
30	0x00000004	6e-45
31	0x80000004	-6e-45
32	0x00000004	6e-45
33	0x00000004	6e-45
34	0x0001ff4a	1.83416e-40
35	0x0006191f	5.60025e-40
36	0x00059461	5.12406e-40
37	0x0005dad3	5.37677e-40
38	0x80000004	-6e-45
39	0x80000004	-6e-45
40	0x80000004	-6e-45
41	0x80000004	-6e-45
42	0x00ba98f5	1.7136273e-38
43	0x0046bf7b	6.497175e-39
44	0x0110927b	2.6553717e-38
45	0x0135d737	3.339886e-38
46	0x00aa6d40	1.5651226e-38
47	0x00f477a1	2.2450776e-38
48	0x39c305ff	0.00037197766
49	0x38db3a20	0.000104535604
50	0x398d6e12	0.00026975624
51	0xb89ea082	-7.563924e-05
52	0x398abdda	0.00026462862
53	0x39f70426	0.00047114602
54	0x38908a5f	6.892229e-05
55	0x37d1aea0	2.4996058e-05
56	0x37b12408	2.1116823e-05
57	0x389870d6	7.268942e-05
58	0x3903e451	0.00012578188
59	0x3a3f0ed0	0.0007288279
60	0x39cfc04e	0.00039625395
61	0x3a5c38fd	0.0008400826
62	0xb9937c95	-0.00028130846
63	0xb9ec0844	-0.00045019586
64	0xb9035252	-0.000125238
65	0xb9eb9bf6	-0.00044938893
66	0x39af62e3	0.00033452277
67	0x3a8a2ceb	0.0010541951
68	0x39fd86ba	0.000483563
69	0x3a43c248	0.000746761
70	0x398708e0	0.0002575582
71	0x393f09f5	0.00018218889
72	0xb946fbea	-0.00018976597
73	0xb80301ff	-3.1234693e-05
74	0xb91cf6b6	-0.00014969226
75	0xb8c95a3a	-9.601233e-05
76	0xb91cf324	-0.00014967896
77	0xb9871d86	-0.00025771203
78	0x37841ec2	1.5749949e-05
79	0x389156d6	6.930313e-05
80	0xb93eb108	-0.00018185761
81	0xb944ecba	-0.00018780204
82	0xb983fbbb	-0.0002517382
83	0xb9e511d3	-0.00043691564
84	0xb8debf8f	-0.000106214655
85	0xba216501	-0.00061567134
86	0x39dcd8a0	0.00042123068
87	0x397299d8	0.0002313623
88	0x3913915f	0.00014073167
89	0x3a335e99	0.0006842404
90	0xb915cc20	-0.0001428579
91	0xb9f8b16d	-0.0004743444
92	0xb99bf0e2	-0.00029743375
93	0xb94f28bc	-0.00019756233
94	0xb9400db4	-0.00018315652
95	0xb9358d36	-0.0001731411
96	0x38de2ff3	0.00010594716
97	0x37b5233e	2.1593292e-05
98	0x38299022	4.0426974e-05
99	0xb5801980	-9.544165e-07
100	0x379ceb2b	1.8706158e-05
101	0x3816257c	3.5797697e-05
102	0xb84ed460	-4.9312017e-05
103	0xb753bb91	-1.2620251e-05
104	0x38aabb65	8.141137e-05
105	0xb88f0c4f	-6.821064e-05
106	0x38889ac8	6.5138156e-05
107	0x3995cc35	0.0002857164
108	0x393fd0be	0.00018292942
109	0x39ba0da6	0.00035486853
110	0xb9194d23	-0.00014619953
111	0xb91ab685	-0.00014754578
112	0xb9152b4d	-0.00014225878
113	0xb98c4cb0	-0.00026760017
114	0x38e40fae	0.00010874808
115	0x39c35cde	0.0003726249
116	0x39714079	0.00023007569
117	0x39986c6e	0.00029072486
118	0x37f98169	2.9743374e-05
119	0x375cadcc	1.3153487e-05
120	0xba235473	-0.00062305405
121	0x393a9024	0.00017792039
122	0xb972be63	-0.00023149843
123	0x38f10329	0.00011492364
124	0xb9002b2c	-0.00012223114
125	0xb956cd59	-0.00020485128
126	0x3a05f416	0.0005109919
127	0x384be182	4.8608992e-05
128	0xb9a9630e	-0.00032307993
129	0x3a23ac55	0.0006243636
130	0xb9d0700a	-0.00039756327
131	0xbaf8593d	-0.0018947494
132	0xba6c553f	-0.0009015388
133	0xbb173b6a	-0.0023076185
134	0x3ab0c893	0.001348751
135	0x3abae855	0.0014259914
136	0x3a7c405e	0.00096226286
137	0x3b15848d	0.0022814602
138	0xba4f5847	-0.00079095777
139	0xbb2f67ce	-0.0026764753
140	0xba9e1fe7	-0.0012063951
141	0xbae9ca6b	-0.0017836815
142	0x3904649f	0.00012625985
143	0x39af763c	0.00033466693
144	0x399d24b9	0.00029972734
145	0xb730a21d	-1.0528162e-05
146	0x391c32a1	0.0001489618
147	0xb73df496	-1.1322225e-05
148	0x38a9d39a	8.097962e-05
149	0x391a050b	0.00014688463
150	0xb956841b	-0.00020457843
151	0xb87adb49	-5.980887e-05
152	0x39174d7d	0.00014429349
153	0xb996d4b1	-0.00028768697
154	0x392dd7d6	0.00016578971
155	0x3a655b4b	0.00087492605
156	0x39ce2f8c	0.00039326807
157	0x3a81a956	0.0009892385
158	0xba0b6c44	-0.0005318562
159	0xba09e91c	-0.0005260871
160	0xb9beb572	-0.0003637481
161	0xba6377fe	-0.0008677243
162	0x39b0c644	0.00033717055
163	0x3a9fb3ec	0.0012184358
164	0x3a0c4133	0.00053502916
165	0x3a54c4de	0.00081164937
166	0x384aafab	4.8324157e-05
167	0xb867059d	-5.507992e-05
168	0xbaaf7d26	-0.0013388738
169	0xba8e3d55	-0.0010852019
170	0xbaf8ff8d	-0.0018997059
171	0xba0d5680	-0.00053916126
172	0xbad498e3	-0.001621988
173	0xbb438bf8	-0.0029838067
174	0xba474a34	-0.00076023047
175	0x393ffc3d	0.00018309146
176	0xba4b940a	-0.0007765895
177	0xbaa2b137	-0.0012412433
178	0xb9c61340	-0.00037779845
179	0xbb1785b9	-0.0023120476
180	0xba7c0aa4	-0.00096146227
181	0xbb16f8cc	-0.0023036478
182	0xb8fe2151	-0.000121178695
183	0x3a064883	0.00051224994
184	0x39990ffc	0.00029194343
185	0xb977e12f	-0.00023639643
186	0xbad13605	-0.0015961534
187	0xbb50033f	-0.0031740216
188	0xbb19de90	-0.0023478605
189	0xbb5f00a9	-0.0034027493
190	0xba9e52fc	-0.0012079175
191	0xba6b3ca5	-0.00089735753
192	0xba3310e6	-0.0006830826
193	0xb8cf6df1	-9.891007e-05
194	0xb9a4225d	-0.0003130612
195	0x38740ee9	5.818802e-05
196	0xb913bec7	-0.00014090083
197	0xb991fc1c	-0.0002784439
198	0x398b6a4f	0.00026591352
199	0x391cfc12	0.00014971223
200	0xba19f7e3	-0.0005873425
201	0x39e5023e	0.00043679954
202	0xb9eca7d2	-0.00045138464
203	0xbb0632bd	-0.002047702
204	0xbaa7df38	-0.0012807613
205	0xbb231a25	-0.002488741
206	0x3a964d11	0.0011467059
207	0x3a9a01de	0.0011749824
208	0x3a815730	0.0009867903
209	0x3b0468a9	0.0020203984
210	0xba656f4d	-0.0008752242
211	0xbb2a4d91	-0.0025986175
212	0xbad7e4d2	-0.0016471392
213	0xbb09ea0d	-0.0021044046
214	0xb89e3afb	-7.545013e-05
215	0x39058fb7	0.00012737406
216	0xba9dee85	-0.0012049234
217	0xb8ef1666	-0.0001140058
218	0xba08f3ef	-0.0005224337
219	0x37a85071	2.006462e-05
220	0xb9a69cdb	-0.00031778854
221	0xba0b9bd8	-0.0005325652
222	0x3a154aef	0.0005695065
223	0xb90a0fb6	-0.00013166558
224	0xba461cd9	-0.0007557399
225	0x3a2fdc3d	0.0006708538
226	0xba4b7ea2	-0.0007762705
227	0xbb4dfe0c	-0.0031431941
228	0xbab60a09	-0.0013888489
229	0xbb7c6131	-0.003851008
230	0x3af93c1b	0.0019015105
231	0x3af38cc8	0.0018581385
232	0x3aa8c701	0.0012876691
233	0x3b4af0fe	0.0030966396
234	0xbaa25084	-0.0012383615
235	0xbb8e70ef	-0.004346959
236	0xbaf70783	-0.0018846843
237	0xbb42bb6c	-0.0029713763
238	0xb9ae865d	-0.00033287975
239	0x3723e918	9.7698285e-06
240	0x3839bd07	4.4283483e-05
241	0x389d9ee2	7.5159376e-05
242	0x38829ad9	6.227726e-05
243	0x38ce7650	9.844883e-05
244	0x3896706a	7.173496e-05
245	0x3917f702	0.000144925
246	0x367e9c14	3.7939799e-06
247	0xb6a8cea7	-5.0308477e-06
248	0x375927de	1.294349e-05
249	0xb73e1efe	-1.1332098e-05
250	0x38aed507	8.336646e-05
251	0x3892127d	6.965266e-05
252	0x38ac5d65	8.218995e-05
253	0x3909c1da	0.00013137553
254	0x38a0922c	7.656621e-05
255	0x388f7ba5	6.841802e-05
